resources/classifier/termination/classifier.pt (torch, 148175 bytes, 32 tensors)

0.linear1.weight f4 [64, 64]
0	0xbe634aa6	-0.22196445
1	0xbea89e8a	-0.32933456
2	0x3e40c889	0.18826498
3	0x3d90e92e	0.070757255
4	0xbe7ac7e7	-0.24490319
5	0x3c23f152	0.010006266
6	0x3d79e67b	0.06101082
7	0x3e1e4f51	0.15459944
8	0x3ba53f95	0.00504298
9	0xbbcc100b	-0.0062274984
10	0x3e888ecd	0.26671448
11	0xbdf1b1c1	-0.11801482
12	0x3ead5963	0.3385726
13	0x3db87119	0.09005947
14	0xbe35f7d8	-0.17770326
15	0x3ea279a0	0.31733418
16	0xbe565aba	-0.20933047
17	0xbef32fd3	-0.47497424
18	0xbee6a911	-0.45050862
19	0xbb98ac13	-0.0046591847
20	0x3ab527bb	0.0013821045
21	0xbd42801b	-0.047485452
22	0x3ddc6fd6	0.107635185
23	0xbd4a616f	-0.049409326
24	0x3ebbc268	0.36671758
25	0x3df85b82	0.12126829
26	0x3f0a4519	0.54011685
27	0xbd358689	-0.044317756
28	0xbe15c488	-0.14625752
29	0xbe0f5740	-0.13998127
30	0x3e1b91a1	0.15192272
31	0xbe72e431	-0.2371986
32	0xbebf07a8	-0.3731053
33	0x3db1e5fe	0.08686446
34	0xbd06e6fe	-0.032935135
35	0xbccffac6	-0.025388133
36	0xbd5d51d1	-0.054033104
37	0x3eeb92cf	0.46010444
38	0x3e284a70	0.16434646
39	0x3ebd0eb0	0.36925268
40	0xbec6c4e5	-0.38822094
41	0xbf03e613	-0.5152294
42	0x3d7ed36c	0.062213346
43	0x3e83d598	0.25748897
44	0xbf3ce467	-0.73786014
45	0x3efa203d	0.4885272
46	0x3dcce9d3	0.10005536
47	0xbe53e222	-0.20691732
48	0xbedc8799	-0.43072203
49	0x3e922a10	0.28547716
50	0xbf10e772	-0.5660316
51	0x3ed1d84c	0.40985334
52	0x3eb35697	0.35027
53	0x3ec2adcc	0.38023221
54	0xbecbd2c6	-0.39809245
55	0xbea797cd	-0.32733002
56	0xbe1d5314	-0.15363723
57	0xbcc0fb2a	-0.023557264
58	0xbebbdb8f	-0.36690947
59	0xbeb29b0b	-0.34883913
60	0x3e903aad	0.28169766
61	0xbf0fb22e	-0.56131256
62	0x3e3c93d2	0.18415764
63	0xbe104af2	-0.1409109
64	0x3c3a53d6	0.011372527
65	0xbe08c526	-0.13356456
66	0xbe0b44d7	-0.13600479
67	0xbe049679	-0.12948026
68	0xbd2593a6	-0.04042401
69	0xbd61a6ed	-0.055090833
70	0x3d28fc61	0.041256312
71	0xbe1274a1	-0.14302303
72	0x3e0210fe	0.12701795
73	0xbc436519	-0.011925959
74	0x3d404a5c	0.046945915
75	0x3de394fd	0.11112402
76	0x3daa649b	0.0831997
77	0x3e3580f8	0.17724979
78	0xbe01df69	-0.1268288
79	0x3c334282	0.01094115
80	0x3dfffb30	0.12499082
81	0x3d5a7abd	0.05333971
82	0x3da26f9b	0.07931443
83	0xbd476f0e	-0.048689894
84	0xbd1e09aa	-0.038583435
85	0xbc79e7ae	-0.015252991
86	0xbe107288	-0.1410619
87	0x3e3d15ff	0.18465422
88	0x3e239967	0.15976487
89	0x3dce6a67	0.100788884
90	0xbd1ab3d8	-0.03776917
91	0x3cca9e48	0.024733678
92	0xbda6bbcb	-0.081412874
93	0x3c07912a	0.008274356
94	0xbdb1d3f2	-0.086830035
95	0x3e30f2bb	0.17280094
96	0xbe1af6c4	-0.15133196
97	0x3d12028a	0.035646953
98	0xbd4a054f	-0.04932147
99	0xbd3274ba	-0.04356835
100	0xbd34cd89	-0.044141326
101	0x3c9b89cf	0.01898661
102	0xbe1b4c8a	-0.15165916
103	0x3d0f6067	0.035004046
104	0x3c9e6663	0.019335931
105	0xbd76dce6	-0.06026926
106	0x3d9db1c3	0.07699921
107	0xbd1bb1eb	-0.038011473
108	0x3d26bdee	0.040708475
109	0xbd26b732	-0.040702052
110	0xbcdd7c27	-0.02703674
111	0x3d284e2e	0.041090183
112	0x3d2e93be	0.042621367
113	0xbc1fc125	-0.009750639
114	0xbc5083ea	-0.012726763
115	0x3d7f0528	0.062260777
116	0xbd3db871	-0.046318475
117	0xbb7fbaaa	-0.0039021173
118	0x3da71c24	0.08159664
119	0x3c820fe2	0.015876714
120	0xbde50ee9	-0.111844845
121	0xbc969a41	-0.0183841
122	0xbdf5a4f1	-0.11994351
123	0xbd7e4ab5	-0.062082965
124	0xbbc238cb	-0.0059271804
125	0xbe198a57	-0.14994179
126	0x3e080e28	0.1328665
127	0xbe1bdf51	-0.15221907
128	0xbc3bf4b5	-0.011471917
129	0x3ed3fa73	0.41402015
130	0xbdcf02b3	-0.10107937
131	0x3d3b88ce	0.045784764
132	0x3d4517b3	0.048118304
133	0x3dd47aa7	0.103749566
134	0xbe3c3501	-0.18379594
135	0xbd1203cb	-0.03564815
136	0xbe4b71d9	-0.19867648
137	0xbd57386e	-0.05254405
138	0xbe4b09e3	-0.1982799
139	0x3df8515a	0.121248916
140	0xbe818a1f	-0.2530069
141	0xbe8896c6	-0.2667753
142	0x3e852d13	0.2601095
143	0xbe38b06e	-0.18036053
144	0xbe485a16	-0.19565615
145	0x3edcc95e	0.4312238
146	0x3ed3d1a3	0.41370878
147	0xbe490606	-0.19631204
148	0x3e3514b7	0.17683683
149	0x3e0d7372	0.1381357
150	0xbe275375	-0.1634043
151	0xbe71ac04	-0.23600775
152	0xbed7636b	-0.42068037
153	0xbe962f77	-0.29333088
154	0xbf195299	-0.5989166
155	0xbd5c40ad	-0.053772617
156	0x3ea93f76	0.3305623
157	0xbdad7f69	-0.08471567
158	0x3e10753e	0.14107224
159	0x3e05ab72	0.13053682
160	0x3ed0f770	0.4081378
161	0xbdeaad72	-0.11458863
162	0x3d1080c7	0.03527906
163	0xbe8514ee	-0.2599253
164	0xbe3c1ac9	-0.18369593
165	0xbf12aa5a	-0.57291186
166	0x3ea7e22c	0.32789743
167	0xbed4c4d5	-0.4155642
168	0x3eceffe4	0.40429604
169	0x3ee60220	0.44923496
170	0xbe6f550d	-0.23372288
171	0xbe83aa28	-0.25715756
172	0x3efe7013	0.4969488
173	0xbdec1eb1	-0.115292914
174	0x3e8085c8	0.25102067
175	0x3e98aa3e	0.29817384
176	0x3eee2fe5	0.46520916
177	0x3df4a777	0.11946004
178	0x3efe0898	0.49615932
179	0xbeaea615	-0.34111086
180	0xbee58fb8	-0.4483621
181	0xbe055920	-0.1302228
182	0x3e7bc7bc	0.24587911
183	0x3eca2713	0.39482936
184	0x3e83b452	0.2572351
185	0x3e9017a7	0.28143045
186	0x3efdce2f	0.49571368
187	0x3e15e8cc	0.14639586
188	0xbe5e73b8	-0.2172383
189	0x3eeff9dd	0.46870318
190	0xbd4f8496	-0.050663553
191	0x3e68fdac	0.22753018
192	0xbe8c5897	-0.2741134
193	0xbeae784f	-0.34076163
194	0xbd9466ce	-0.07246171
195	0x3e0af260	0.13569021
196	0xbea849c1	-0.3286877
197	0x3e55005a	0.20800915
198	0x3d2a2e43	0.041548025
199	0x3e2c9219	0.16852607
200	0xbd3f45c9	-0.04669741
201	0x3ddf943e	0.10916947
202	0x3ea7b6c4	0.32756627
203	0xbe5f0a2a	-0.21781221
204	0x3e542275	0.2071627
205	0x3cc84b4f	0.024449972
206	0xbed7e3b3	-0.42165908
207	0x3e5fa24f	0.2183926
208	0xbdce95a5	-0.10087136
209	0xbf17773c	-0.5916631
210	0xbeb1f3bc	-0.34756267
211	0xbdf3bd62	-0.11901356
212	0xbd5fe4b1	-0.054661456
213	0x3bd3349a	0.0064454796
214	0x3bf42f44	0.0074519236
215	0x3d84fa90	0.064931035
216	0x3eb7c368	0.3589127
217	0x3eb23133	0.3480316
218	0x3f420f78	0.75804853
219	0xbe5f6a44	-0.21817881
220	0xbe499f7e	-0.19689748
221	0xbddfc4ef	-0.10926234
222	0x3ce7b480	0.028284311
223	0xbea86349	-0.3288825
224	0xbe7c6ecc	-0.2465164
225	0x3e3d5c26	0.18492183
226	0x3e1e8891	0.15481783
227	0x3e5549b7	0.20828901
228	0xbda064d8	-0.078317344
229	0x3f295011	0.66137797
230	0x3e343208	0.1759721
231	0x3ee2136b	0.4415544
232	0xbeb26a70	-0.3484683
233	0xbed90230	-0.4238448
234	0x3dc5cebe	0.096585736
235	0x3eb93830	0.3617568
236	0xbf3c6b60	-0.7360134
237	0x3eac37b0	0.33636236
238	0x3c83ad92	0.016073976
239	0xbe41e1d5	-0.18933804
240	0xbf06c74f	-0.5264787
241	0x3e34c639	0.17653741
242	0xbf0ad59c	-0.5423219
243	0x3e1ff28d	0.1561987
244	0x3ebc0bdd	0.367278
245	0x3f0c6969	0.54848343
246	0xbedc171b	-0.42986378
247	0xbeaf7b17	-0.34273598
248	0xbe93af40	-0.28844643
249	0xbcabf066	-0.020988654
250	0xbec5924d	-0.3858818
251	0xbe86d81d	-0.26336756
252	0x3ebd3b63	0.3695937
253	0xbf1d88f2	-0.61537087
254	0x3e0f6137	0.14001928
255	0xbe8e7238	-0.27821517

0.linear1.bias f4 [64]
0	0x3ed77b4e	0.42086262
1	0xbe1f2c61	-0.15544273
2	0x3d839573	0.064249896
3	0x3ec2cd3c	0.38047206
4	0xbdf6307a	-0.12020965
5	0xbd8f06fe	-0.069837555
6	0x3e771cdc	0.24132103
7	0xbb86f8f5	-0.0041190335
8	0xbe032aa0	-0.12809229
9	0xbc4f4b82	-0.01265228
10	0x3ee0193d	0.43769255
11	0xbde0cb02	-0.10976221
12	0x3ea088ec	0.31354463
13	0xbdea6788	-0.11445528
14	0xbd78fcb1	-0.06078786
15	0xbe2488f2	-0.16067865
16	0xbcac169e	-0.021006878
17	0xbdc27424	-0.09494808
18	0xbcf2d525	-0.02964265
19	0xbdf0a30c	-0.11749849
20	0x3ca5ccc2	0.020239238
21	0xbdff5fec	-0.124694675
22	0x3ed486fe	0.4150924
23	0x3e97d5a9	0.29655197
24	0x3ee30918	0.44342875
25	0xbd93f6de	-0.072248206
26	0xbd741725	-0.059592385
27	0xbcef5fb5	-0.029220441
28	0xbe05cef8	-0.13067234
29	0x3ee90991	0.4551511
30	0xbd1af78b	-0.03783373
31	0x3ede638f	0.43435332
32	0xbd8d3e5c	-0.0689666
33	0x3ed671b2	0.41883618
34	0xbdc0a4e2	-0.09406449
35	0x3b8e7025	0.0043468648
36	0x3ecfc1be	0.405775
37	0xbb962145	-0.0045816028
38	0xbdf3203a	-0.11871381
39	0xbe04b4c0	-0.12959576
40	0x3edafbc9	0.42770222
41	0xbdee33df	-0.116309874
42	0xbbffecca	-0.00781021
43	0x3ea93bb4	0.33053362
44	0xbd2aa858	-0.04166445
45	0xbd10935d	-0.035296787
46	0x3cd40f14	0.025886096
47	0x3e6e3175	0.23261054
48	0xbe215c53	-0.15757875
49	0x3b0161d4	0.0019742148
50	0x3a35b685	0.00069317996
51	0x3ed8579f	0.4225435
52	0xbe0d99f8	-0.13828266
53	0x3ebef16d	0.37293568
54	0x3e862338	0.26198745
55	0xbde983da	-0.11402102
56	0xbc61f117	-0.01379039
57	0xbdb1d0bb	-0.0868239
58	0x3eb03da7	0.34422037
59	0xbdf83e31	-0.12121237
60	0x3d323ef8	0.043517083
61	0x3edf70ee	0.43640846
62	0xbd79b88a	-0.060967006
63	0x3ebaa220	0.36451817

0.linear2.weight f4 [2, 64]
0	0x3ebcd8c4	0.3688413
1	0x3d0c3487	0.03422978
2	0xbece84ff	-0.40335843
3	0x3ef9c95f	0.48786446
4	0x3d84627e	0.064640984
5	0x3c2e2b6d	0.010630471
6	0x3f1f60e8	0.6225724
7	0xbee3459d	-0.44389048
8	0x3b95a985	0.0045673274
9	0xbee01cfd	-0.43772116
10	0x3f042e8b	0.5163352
11	0x3da6cf53	0.08145013
12	0x3ef84025	0.48486438
13	0xbeaf7bb1	-0.34274057
14	0xbedb06b1	-0.42778543
15	0xbeb3c4d3	-0.35111102
16	0xbefb3e26	-0.49070853
17	0xbed80917	-0.42194435
18	0xbeb8f306	-0.36122912
19	0xbd2d7978	-0.04235217
20	0xbee050c8	-0.4381163
21	0x3db6978c	0.08915624
22	0x3eecafd4	0.46227896
23	0x3eecf9bf	0.4628429
24	0x3eed41b0	0.46339178
25	0xbf461d6d	-0.7738865
26	0xbec8a6de	-0.3918981
27	0xbecb6afc	-0.3973006
28	0x3c8440a6	0.016144108
29	0x3efbef1e	0.4920587
30	0xbee163c5	-0.4402143
31	0x3f0482f6	0.5176233
32	0x3d6d4a31	0.057932083
33	0x3ea31978	0.3185537
34	0x3de1ff86	0.11035065
35	0xbecaa34d	-0.39577714
36	0x3ee96afe	0.4558944
37	0xbea1ba66	-0.31587523
38	0xbeb0e403	-0.3454896
39	0x3d291847	0.04128292
40	0x3f0bd721	0.54625136
41	0x3cb717e8	0.022350267
42	0xbef9e3f4	-0.48806727
43	0x3ef506cc	0.47856748
44	0x3d8f9692	0.07011141
45	0xbef5e052	-0.48022705
46	0xbef2e129	-0.4743741
47	0x3ef50547	0.4785559
48	0x3cfc1785	0.030772934
49	0xbead8101	-0.33887485
50	0xbea7c713	-0.3276907
51	0x3eb2538e	0.34829372
52	0xbcb7f683	-0.022456413
53	0x3eea7ce6	0.45798415
54	0x3f35cec7	0.7101864
55	0xbc083ca4	-0.008315239
56	0xbee06e73	-0.43834266
57	0xbc3cab74	-0.011515487
58	0x3eccaab4	0.39973986
59	0xbee18c2a	-0.4405225
60	0xbed616bc	-0.4181422
61	0x3ea0be98	0.31395411
62	0xbeac3dd8	-0.33640933
63	0x3f15a37a	0.5845257
64	0xbf1ac991	-0.60463816
65	0x3d845b61	0.06462742
66	0x3ebcf954	0.36908972
67	0xbf087ca1	-0.5331517
68	0x3d75c19b	0.05999909
69	0xbda52b0c	-0.08064851
70	0xbed13638	-0.40861678
71	0x3ec5b034	0.38610995
72	0xbc1e3854	-0.009656984
73	0x3f0b73c4	0.5447352
74	0xbee4746f	-0.44620082
75	0xbcf04879	-0.029331433
76	0xbf06ebc5	-0.52703506
77	0x3ee0422c	0.43800485
78	0x3ebdc62c	0.37065256
79	0x3ede6524	0.4343654
80	0x3e9e7951	0.30951932
81	0x3ed6180c	0.4181522
82	0x3ed40add	0.41414538
83	0x3d712f00	0.058882713
84	0x3eab2f02	0.33434302
85	0xbc9c1838	-0.019054517
86	0xbedacea7	-0.42735788
87	0xbf03dae9	-0.51505905
88	0xbec826a7	-0.3909199
89	0x3f355c4d	0.70843965
90	0x3eab9044	0.33508503
91	0x3ee089e1	0.43855193
92	0xbcc998e3	-0.024609035
93	0xbeceafa5	-0.4036838
94	0x3edca83e	0.4309711
95	0xbee06008	-0.43823266
96	0xbc0d5387	-0.0086258715
97	0xbf0078dd	-0.5018442
98	0xbda279e2	-0.079334036
99	0x3ec2dd8c	0.38059652
100	0xbecb9aab	-0.3976644
101	0x3ef44aa3	0.47713193
102	0x3ee44b27	0.44588587
103	0x3c3f3471	0.011670218
104	0xbeb56ed8	-0.3543613
105	0x3c4de656	0.012567123
106	0x3ebb4772	0.36577946
107	0xbed13705	-0.4086229
108	0xbd960a46	-0.07326178
109	0x3ebf79f3	0.37397727
110	0x3ed23489	0.41055706
111	0xbec043b3	-0.3755165
112	0x3dd646bf	0.104627125
113	0x3ee2d822	0.4430552
114	0x3ee98c3b	0.456148
115	0xbef7eae7	-0.48421404
116	0x3cdd8178	0.027039275
117	0xbedde896	-0.4334151
118	0xbf15e2d9	-0.5854927
119	0x3cab7019	0.020927476
120	0x3eb3fd97	0.3515441
121	0x3c8ce462	0.017198745
122	0xbf04b9e5	-0.5184615
123	0x3ee2ec0c	0.44320714
124	0x3ee093e9	0.43862846
125	0xbf03775b	-0.51353997
126	0x3ee09b03	0.43868265
127	0xbf41ecd8	-0.7575202

0.linear2.bias f4 [2]
0	0x3ec347b2	0.38140637
1	0xbed05756	-0.40691632

1.linear1.weight f4 [64, 64]
0	0xbe2876ff	-0.16451643
1	0xbe40bfc4	-0.18823153
2	0x3cc693cb	0.024240395
3	0xbe3b4249	-0.18287005
4	0x3de090df	0.10965132
5	0x3cc4e1dd	0.024033481
6	0x3e377e26	0.17919216
7	0x3d2ff97f	0.042962547
8	0x3b78cc5f	0.0037963612
9	0xbdcace66	-0.09902649
10	0x3dc783a6	0.09741907
11	0xbed36586	-0.41288394
12	0x3e4eed9a	0.20207825
13	0xbefb5fc6	-0.49096507
14	0x3e6cb193	0.23114614
15	0x3eac5e68	0.33665776
16	0xbf05e206	-0.5229801
17	0xbd866e47	-0.065640025
18	0xbde0d58a	-0.10978229
19	0xbe6582ae	-0.22413132
20	0xbe6d33c7	-0.23164283
21	0xbdc24020	-0.09484887
22	0x3e8ea22a	0.27858096
23	0xbeb251db	-0.34828076
24	0x3e4406cf	0.19143222
25	0x3e995fab	0.299558
26	0x3e3d497e	0.18485066
27	0xbec026a7	-0.3752949
28	0xbcacd26f	-0.021096436
29	0x3e7befb0	0.24603152
30	0x3eb4f1ca	0.3534072
31	0xbeb001a2	-0.34376246
32	0xbe96e8d3	-0.29474506
33	0x3ecfe3af	0.40603396
34	0x3e6c6691	0.23086001
35	0xbe907a99	-0.28218535
36	0xbe9afd78	-0.30271506
37	0x3e917282	0.28407675
38	0x3ba9ff0c	0.0051878747
39	0x3ef8d5ea	0.48600703
40	0x3dab0008	0.08349615
41	0xbe95b6a1	-0.29240897
42	0x3daa4b28	0.08315116
43	0xbdcb6d88	-0.09933001
44	0x3e2a3580	0.16621971
45	0x3f06e1fa	0.5268856
46	0x3dfc48e3	0.123185895
47	0x3e3f72c0	0.18696117
48	0xbe759d3c	-0.23985761
49	0x3d5fc5ed	0.054632116
50	0xbe315e74	-0.17321187
51	0x3ea8c7b0	0.3296485
52	0x3ea60861	0.32428268
53	0x3eced6e4	0.40398324
54	0xbe51e84a	-0.20498767
55	0xbe838c9e	-0.2569322
56	0xbb2b063a	-0.002609624
57	0xbdef40c6	-0.116822764
58	0xbec84578	-0.391155
59	0x3e1fb164	0.15595013
60	0x3e97d450	0.2965417
61	0xbe60e661	-0.21962883
62	0x3e80f70b	0.2518848
63	0xbebfb9d0	-0.3744645
64	0xbe203ac3	-0.15647416
65	0x3ef3b508	0.47599053
66	0x3e1563e0	0.1458888
67	0x3da780a8	0.08178836
68	0xbdb24894	-0.087052494
69	0x3e4eb812	0.20187405
70	0xbeaf92cd	-0.34291688
71	0xbdd73e24	-0.10509899
72	0xbe424283	-0.18970685
73	0x3e9c4f79	0.30529383
74	0xbe844c98	-0.25839686
75	0x3e0e2b23	0.13883643
76	0xbec4dd15	-0.38449922
77	0x3ebcd8b9	0.36884096
78	0x3e0e05b5	0.13869365
79	0xbef8322b	-0.48475775
80	0x3eaaabf9	0.3333433
81	0x3e3a1e4f	0.18175624
82	0x3e45ce2d	0.19316931
83	0x3deb7108	0.114961684
84	0x3e94f426	0.2909252
85	0x3ea9b3a8	0.3314488
86	0xbdb1a442	-0.08673908
87	0x3f0537cb	0.5203826
88	0xbf078b13	-0.52946585
89	0xbef6056f	-0.4805102
90	0x3e02934d	0.12751503
91	0x3ed884ad	0.42288724
92	0x3e665b88	0.22495854
93	0xbe984d6a	-0.29746562
94	0xbead4bf8	-0.33847022
95	0x3e9c08d8	0.30475497
96	0x3eccc589	0.39994457
97	0xbecac90d	-0.39606515
98	0x3d6694c6	0.056294225
99	0x3eb82831	0.35968164
100	0x3e7b89e0	0.24564314
101	0xbe648e42	-0.22319892
102	0x3ea477fc	0.3212279
103	0xbeb88d55	-0.36045328
104	0xbe9530a0	-0.2913866
105	0x3edf986f	0.43670985
106	0xbe8c1d18	-0.27365947
107	0x3d974f70	0.073881984
108	0x3da0aa61	0.07844997
109	0xbeeabdbd	-0.45847884
110	0xbda1da14	-0.07902923
111	0xbdf87e94	-0.12133518
112	0x3ead5f20	0.33861637
113	0xbe28240e	-0.16420004
114	0xbd6aa68b	-0.057287734
115	0xbe90b13e	-0.28260225
116	0xbe40e357	-0.18836723
117	0xbf0bab96	-0.54558694
118	0xbdf5fc9c	-0.12011072
119	0x3f040a3a	0.51578104
120	0x3dae17a7	0.08500605
121	0x3e99cd37	0.3003938
122	0x3eb573c3	0.35439882
123	0xbe7766d4	-0.2416032
124	0x3e0f159d	0.13973089
125	0x3ec118af	0.37714145
126	0xbda96f69	-0.08273203
127	0x3eaf5e13	0.3425146
128	0x3d9df2bc	0.077123135
129	0xbdd8f6b6	-0.105939314
130	0xbde5061a	-0.111828044
131	0x3c271150	0.010196999
132	0x3d976dac	0.07393965
133	0x3cec0508	0.028810993
134	0x3c1fdd40	0.00975734
135	0x3a343f00	0.0006875843
136	0x3ac1a780	0.001477465
137	0xbc6e5770	-0.014547214
138	0xbd8a75b8	-0.06760734
139	0x3da92f82	0.082610145
140	0x3dac33ee	0.08408342
141	0x3de934b4	0.113870054
142	0xbd928de6	-0.07155971
143	0x3dfd3d44	0.12365201
144	0x3d40646c	0.04697077
145	0x3c425250	0.011860445
146	0x3cd20800	0.02563858
147	0x3dc14228	0.094364464
148	0xbdd94a2a	-0.10609849
149	0xbbf11720	-0.007357493
150	0x3d1a4004	0.037658706
151	0x3d57af28	0.052657276
152	0x3de66df4	0.11251441
153	0x3b3f4c80	0.0029189885
154	0x3cf300f8	0.029663548
155	0xbd391fd4	-0.04519637
156	0x3d88e66c	0.066845745
157	0xbd0a46a0	-0.03375876
158	0xbd8ec0f6	-0.06970398
159	0x3c9191e8	0.017769769
160	0x3d4df10c	0.05027871
161	0xbdd7364e	-0.10508405
162	0x3da12f92	0.078704014
163	0xbdace0ce	-0.084413156
164	0x3df89b5e	0.12139009
165	0xbc202970	-0.0097755045
166	0xbd9d5b2e	-0.07683407
167	0xbdd11190	-0.10208428
168	0x3df185ae	0.117930755
169	0x3db1db34	0.08684388
170	0xbd9d400e	-0.07678233
171	0x3d581808	0.052757293
172	0xbd89981a	-0.06718464
173	0xbb8a07a0	-0.0042123348
174	0xbb88c480	-0.0041738153
175	0xbdb1013e	-0.08642815
176	0x3dcb2b4e	0.09920369
177	0x3d953a5c	0.07286522
178	0xbdfbc4f0	-0.12293422
179	0x3dd99e96	0.10625951
180	0x3d18bb34	0.037287906
181	0x3dde2220	0.108463526
182	0x3d83fdf4	0.06444922
183	0xbded5110	-0.11587727
184	0x3ddaca7a	0.106831506
185	0xbdbea66a	-0.09309085
186	0x3c6e5630	0.014546916
187	0xbd3c680c	-0.045997664
188	0xbd897b2c	-0.06712946
189	0xbdf7b1c8	-0.12094456
190	0xbd9ff1da	-0.078098014
191	0x3d782c80	0.060589314
192	0xbdc42e40	-0.09579134
193	0x3d137c78	0.036007375
194	0xbdc7e79e	-0.09760974
195	0xbda86b2e	-0.08223568
196	0x3cef4f18	0.02921252
197	0xbc188d60	-0.00931105
198	0x3de336e4	0.11094454
199	0x3de0d244	0.10977605
200	0x3d7740b0	0.060364425
201	0xbdffad06	-0.124841735
202	0x3d94c800	0.072647095
203	0x3d0b6034	0.034027293
204	0x3dfdf504	0.12400249
205	0x3d7d97b8	0.06191227
206	0xbd8fc752	-0.07020439
207	0xbaba6700	-0.001422137
208	0xbd024dd0	-0.03181249
209	0x3ba2acc0	0.004964441
210	0x3d9cf354	0.07663599
211	0xbd030de8	-0.031995684
212	0x3d42f94c	0.04760103
213	0xbc9495e8	-0.018137887
214	0x3d9ddcbe	0.07708119
215	0x3db43570	0.08799255
216	0xbd099af4	-0.03359504
217	0xbcb06af8	-0.021535382
218	0xbbe32480	-0.0069318414
219	0x3cf23448	0.029565945
220	0xbdac0f46	-0.08401351
221	0x3df9e3a4	0.12201622
222	0xbd08aee4	-0.033369914
223	0xbdb2e210	-0.08734524
224	0xbcc1ab30	-0.023641199
225	0xbc61bdb0	-0.013778135
226	0xbc8c76e0	-0.017146528
227	0xbdbaf3fc	-0.091285676
228	0xbc596800	-0.013269424
229	0x3de45af6	0.11150162
230	0xbb78fd40	-0.0037992746
231	0x3d5f1638	0.05446455
232	0x3d6c0a08	0.057626754
233	0xbc6c92f0	-0.0144393295
234	0xbd374038	-0.04473898
235	0xbd777d48	-0.060422212
236	0x3dcc621c	0.099796504
237	0xbdc0bc32	-0.094108954
238	0x3c9d0e98	0.019171998
239	0xbdb3324e	-0.08749829
240	0xbd596e48	-0.053083688
241	0x3dbd3f90	0.09240639
242	0x3cfc0258	0.030762836
243	0x3c362fa0	0.011119753
244	0x3c38c420	0.011277229
245	0xbd5b9478	-0.053608388
246	0xbd9473a0	-0.07248616
247	0x3d30827c	0.04309319
248	0xbd9f1194	-0.07767025
249	0x3deecc40	0.11660051
250	0x3def8fba	0.116973355
251	0x3dc85fca	0.09783895
252	0x3dfe440c	0.12415323
253	0xbdb2e8d0	-0.08735812
254	0x3d8276c8	0.06370312
255	0xbd9f836a	-0.07788737

1.linear1.bias f4 [64]
0	0x3e961a50	0.2931695
1	0x3d211586	0.039327167
2	0xbd15a314	-0.036532477
3	0xbdf47234	-0.11935845
4	0x3dc13d3b	0.09435507
5	0x3dc625ac	0.09675154
6	0x3dda1e91	0.10650361
7	0xbdacd053	-0.08438172
8	0x3e5416b8	0.20711792
9	0x3d8c70b6	0.068574354
10	0xbd2ee361	-0.042697314
11	0xbdefac86	-0.11702828
12	0x3dbfacad	0.09359107
13	0xbc9107d1	-0.017703922
14	0xbe254688	-0.16140187
15	0x3df52cfa	0.11971469
16	0x3ebece4a	0.3726676
17	0xbe22eb0f	-0.1590998
18	0x3ea9c204	0.33155835
19	0x3d31d415	0.043415148
20	0x3e28f16e	0.16498348
21	0x3e31ef66	0.1737648
22	0x3d771646	0.060323976
23	0x3de41775	0.111372866
24	0x3e835634	0.25651705
25	0x3ec2cd97	0.38047478
26	0x3e1e5810	0.1546328
27	0xbd16908e	-0.03675895
28	0x3d5488a9	0.05188814
29	0x3ecf1a0c	0.4044956
30	0x3e4e1e25	0.20128687
31	0x3eb4f73c	0.35344875
32	0x3eb20ba1	0.34774497
33	0xbded77be	-0.11595105
34	0x3e22350b	0.15840547
35	0x3e89d91e	0.2692346
36	0x3ea722b6	0.3264367
37	0x3e078e2a	0.13237825
38	0x3ea5880b	0.32330355
39	0xbdf1507a	-0.11782928
40	0x3ec504da	0.38480264
41	0x3e100b25	0.14066751
42	0x3ea9aeab	0.33141074
43	0x3e6f222a	0.23352876
44	0x3e858dcd	0.26084748
45	0x3e8fc125	0.28077045
46	0x3e0f3ced	0.13988085
47	0xbdac276e	-0.08405958
48	0x3e9c37af	0.30511233
49	0xbde1b481	-0.110207565
50	0x3e312f63	0.17303233
51	0x3e9d2ae9	0.306968
52	0x3e838a15	0.25691286
53	0x3ed2fb69	0.41207436
54	0x3dd4313c	0.10360953
55	0xbca8b3bc	-0.020593517
56	0x3ea4a629	0.3215802
57	0x3e242458	0.16029489
58	0x3cb07060	0.02153796
59	0x3ebe5fd2	0.3718248
60	0x3ecf222a	0.40455753
61	0x3e3586ee	0.17727253
62	0x3c0b23e0	0.00849244
63	0x3eb66851	0.35626462

1.linear2.weight f4 [2, 64]
0	0x3ecd0ddd	0.4004964
1	0xbe80d6c7	-0.25163862
2	0x3bf6f540	0.0075365603
3	0xbdf0e9ac	-0.117633194
4	0xbe8d9c6f	-0.27658412
5	0xbe9bbf1d	-0.30419245
6	0xbecb08ef	-0.39655253
7	0x3d415688	0.047201663
8	0x3eda7696	0.426686
9	0xbee31b93	-0.44356975
10	0xbea1bd7b	-0.31589875
11	0xbd84b9cc	-0.064807504
12	0xbec121fd	-0.37721244
13	0x3eca3856	0.39496106
14	0x3c16ad9a	0.009196663
15	0xbede2fca	-0.43395835
16	0x3f00fcf9	0.50386006
17	0x3c2a2cf1	0.010386691
18	0x3ec2e512	0.38065392
19	0xbea3d924	-0.32001603
20	0xbe909e8a	-0.28245956
21	0xbecf8de7	-0.4053795
22	0xbec9ab14	-0.39388335
23	0xbede3d93	-0.43406352
24	0x3ef5d4a5	0.48013797
25	0x3ee8f536	0.4549958
26	0xbebac44f	-0.36477897
27	0xbeab49f6	-0.33454865
28	0xbed7b52e	-0.42130417
29	0x3e847626	0.2587139
30	0x3f07f81f	0.5311298
31	0x3ea1965e	0.31560034
32	0x3eccee2f	0.4002547
33	0x3c9be220	0.019028723
34	0xbedf4c00	-0.4361267
35	0x3e969eb3	0.29417953
36	0x3ebde193	0.37086162
37	0x3f104007	0.563477
38	0x3ee51ac7	0.44746992
39	0xbdd77452	-0.10520233
40	0x3ebab94d	0.36469498
41	0xbed1b5b8	-0.40958953
42	0x3eef07f4	0.46685755
43	0x3ee8d664	0.45476067
44	0x3efbdb81	0.49190906
45	0x3ebb5e57	0.36595413
46	0xbee4b75a	-0.44671136
47	0xbcf1d040	-0.029518247
48	0x3ee75c23	0.45187482
49	0x3e0006bf	0.12502573
50	0xbe8e00ee	-0.27735084
51	0x3eff6012	0.49877983
52	0x3ed6d6b2	0.41960675
53	0x3ef15da3	0.47141752
54	0xbebb0cd4	-0.36533225
55	0xbed0bd05	-0.4076921
56	0x3edb147f	0.42789075
57	0xbed41575	-0.4142262
58	0xbeb8d67c	-0.3610114
59	0x3eb82989	0.3596919
60	0x3ef333bb	0.47500405
61	0xbea40d75	-0.32041517
62	0xbeba73e4	-0.36416543
63	0x3eebb14c	0.46033704
64	0xbefb31d0	-0.4906144
65	0x3ed7ac88	0.42123818
66	0x3c00fc30	0.007872626
67	0x3ce25050	0.027626187
68	0x3ecaea69	0.39631966
69	0x3ed3f79e	0.41399854
70	0x3e8e2e3b	0.27769646
71	0xbd3b6274	-0.04574819
72	0xbf04ef53	-0.5192768
73	0x3ec0bcf5	0.37644163
74	0x3efb5dc2	0.4909497
75	0x3ada74d7	0.0016666901
76	0x3ea0966d	0.31364766
77	0xbec3130f	-0.38100478
78	0x3d391161	0.04518259
79	0x3ee1bb78	0.4408834
80	0xbe9831a9	-0.29725388
81	0xbdc55336	-0.09635012
82	0xbedb27ef	-0.42803904
83	0x3ed8a743	0.4231511
84	0x3eca91a6	0.39564246
85	0x3eab53db	0.33462414
86	0x3ec87fed	0.391601
87	0x3e88649d	0.26639262
88	0xbee14f49	-0.44005802
89	0xbef031d6	-0.46913022
90	0x3eb87f79	0.36034754
91	0x3ebfcb40	0.37459755
92	0x3ed502cd	0.416037
93	0xbefb3128	-0.4906094
94	0xbef162a6	-0.47145575
95	0xbeda8027	-0.42675897
96	0xbee84854	-0.45367682
97	0x3dbd5f4e	0.092466936
98	0x3e8c842e	0.27444595
99	0xbeafa73d	-0.3430728
100	0xbed8a23d	-0.42311278
101	0xbf0d188d	-0.55115587
102	0xbeae83b9	-0.3408487
103	0x3c061b80	0.008185267
104	0xbee8e9f8	-0.45491004
105	0x3ec96e8d	0.39342156
106	0xbec7af0f	-0.39000747
107	0xbeeb7f3c	-0.4599551
108	0xbeddf15a	-0.433482
109	0xbeedcad0	-0.46443796
110	0x3e880d81	0.26572803
111	0xbd7b9c9a	-0.061428644
112	0xbef13256	-0.47108716
113	0x3ce5188d	0.027965808
114	0x3ed7daf1	0.42159227
115	0xbf019643	-0.50619906
116	0xbed71afa	-0.4201277
117	0xbeccd8b4	-0.4000908
118	0x3eb43754	0.35198462
119	0x3ee39200	0.44447327
120	0xbeb2117e	-0.3477897
121	0x3eb56431	0.35428002
122	0x3ef030b2	0.46912152
123	0xbeddc4c2	-0.43314177
124	0xbeb58b2e	-0.35457748
125	0x3ed36b78	0.4129293
126	0x3eb7b963	0.35883626
127	0xbe9b4cfb	-0.3033217

1.linear2.bias f4 [2]
0	0x3e4b1893	0.19833593
1	0xbea0f1b4	-0.31434405

2.linear1.weight f4 [64, 64]
0	0x3dddbdf5	0.10827247
1	0xbe21d0ca	-0.15802303
2	0xbed9dd82	-0.4255181
3	0x3d3c0fb0	0.0459134
4	0x3eb837b8	0.3598001
5	0xbec518ce	-0.38495487
6	0xbc554e44	-0.013019148
7	0x3eaeac4c	0.34115827
8	0x3e38da7d	0.18052097
9	0xbe9aac91	-0.30209783
10	0x3e6ea6d6	0.2330583
11	0xbdc05e21	-0.09392954
12	0x3ef05f91	0.4694791
13	0xbe5b0db9	-0.21391954
14	0xbec5b26c	-0.38612688
15	0x3f2991ef	0.662383
16	0x3c22d7ea	0.009939173
17	0x3e38b813	0.18038969
18	0xbeff681f	-0.49884126
19	0x3b8daf65	0.004323887
20	0xbe16c539	-0.14723672
21	0x3e7fe1f9	0.24988545
22	0x3ba89c0d	0.005145556
23	0xbeaf012a	-0.34180576
24	0x3e6f8407	0.23390208
25	0x3e8160ee	0.25269264
26	0xbeaefeb5	-0.341787
27	0xbf0955ba	-0.53646433
28	0xbed21843	-0.41034135
29	0xbf005b7e	-0.50139606
30	0xbe702671	-0.23452164
31	0xbe33f797	-0.17574917
32	0xbea9514e	-0.33069843
33	0x3f1124dd	0.56696874
34	0x3e4fe87e	0.20303532
35	0x3dd1cde9	0.10244352
36	0x3e01144d	0.126054
37	0x3ebe3b6a	0.37154704
38	0xbedd40f4	-0.43213618
39	0x3ed1b308	0.40956903
40	0x3e8b9be4	0.27267373
41	0xbf000282	-0.50003827
42	0xbc87146e	-0.016489234
43	0x3e447ba7	0.19187795
44	0xbdd3a843	-0.10334828
45	0x3e8a1682	0.26970297
46	0xbe93402d	-0.287599
47	0xbe987e6b	-0.2978395
48	0xbd89f2c8	-0.0673576
49	0xbd1705ab	-0.03687064
50	0xbe4d464c	-0.20046347
51	0x3efd02fd	0.49416342
52	0x3e8c5814	0.27410948
53	0x3e5a4029	0.21313538
54	0xbec3432b	-0.38137183
55	0xbea6e3fe	-0.3259582
56	0xbec7bb40	-0.39010048
57	0xbe2d0780	-0.16897392
58	0xbeabc0c2	-0.335455
59	0xbed0275f	-0.40655038
60	0x3ea28df8	0.3174894
61	0xbea44a12	-0.3208776
62	0xbe82e5d5	-0.25565973
63	0xbeb66c20	-0.35629368
64	0xba9137ba	-0.001107923
65	0x3d805eb2	0.06268062
66	0x3db6e3b2	0.08930148
67	0x3decbb05	0.11559109
68	0x39d1efa9	0.00040042147
69	0x3d2f5902	0.042809494
70	0xbd0abe19	-0.033872698
71	0x3d750bd8	0.05982575
72	0xbd8485c0	-0.06470823
73	0xbe180899	-0.1484703
74	0x3bc5822e	0.0060274815
75	0xbce4176a	-0.027843196
76	0x3d5966e2	0.053076632
77	0x3b85cfde	0.0040836176
78	0x3e0f5a57	0.13999306
79	0x3d2ddbc0	0.042445898
80	0xbca7bfbc	-0.020477168
81	0x3e38a452	0.18031433
82	0x3dccca43	0.09999516
83	0x3de92763	0.113844655
84	0x3cff50e3	0.0311665
85	0x3bd31651	0.0064418693
86	0x3d0ca25f	0.034334537
87	0xbc844545	-0.016146312
88	0x3c0faf19	0.008769774
89	0xbaa15e87	-0.0012311497
90	0x3d4d2334	0.0500824
91	0x3c12230c	0.008919489
92	0x3e375d49	0.17906679
93	0x3e0e64b3	0.13905601
94	0xbc86c630	-0.016451925
95	0x3db9157a	0.090372995
96	0x3de1c979	0.11024756
97	0xbe28783c	-0.16452116
98	0xbbe7c8f7	-0.0070735174
99	0xbd8d6508	-0.06904036
100	0x3d431faa	0.04763762
101	0xbe19e1ae	-0.15027496
102	0xbe2d1089	-0.16900839
103	0xbe071c65	-0.13194425
104	0xbd129d47	-0.035794523
105	0xbd38741b	-0.0450326
106	0xbc6b97f9	-0.014379495
107	0xbdf00d91	-0.117213376
108	0x3d41ed6f	0.047345575
109	0xbde96f5d	-0.11398194
110	0xbd8536b6	-0.06504576
111	0x3d6dda8a	0.058069743
112	0x3c92b8c4	0.017910369
113	0xbd984e30	-0.07436788
114	0x3e2384bb	0.15968601
115	0xbd0e6b6c	-0.034770414
116	0x3d03a497	0.032139387
117	0xbd17513b	-0.0369427
118	0xbceb5c39	-0.028730499
119	0x3da086a1	0.078381784
120	0xbc28f9d0	-0.010313466
121	0x3a0fa007	0.0005478863
122	0x3c5b9265	0.013401602
123	0xbe08c1fa	-0.13355246
124	0xbdc49191	-0.09598077
125	0x3be59992	0.0070068324
126	0xbca8453d	-0.020540828
127	0x3dd0f57b	0.10203072
128	0x3d000191	0.031251494
129	0xbd5e9d56	-0.054349266
130	0xbcac5734	-0.021037675
131	0x3d7e4484	0.06207706
132	0x3e261c54	0.16221744
133	0x3d26b595	0.040700514
134	0x3c3e8178	0.011627547
135	0x3d5008bd	0.050789583
136	0xbd37bc8c	-0.044857547
137	0xbe0abcf9	-0.1354865
138	0x3da1ef0b	0.07906922
139	0x3d327465	0.043568034
140	0x3e1114f2	0.14168146
141	0xbd62d88c	-0.055382296
142	0xbe29c6ba	-0.16579714
143	0x3d3ca2d9	0.04605374
144	0xbdc7ab6b	-0.09749492
145	0xbd176e31	-0.03697032
146	0x3d2e3a88	0.04253629
147	0xbdc45048	-0.09585625
148	0x3cc48255	0.023987928
149	0xbc516656	-0.012780746
150	0xbe0a280e	-0.13491842
151	0x3dcbad78	0.09945196
152	0xbc0aa250	-0.00846155
153	0x3c35983e	0.011083661
154	0x3cb99914	0.022656001
155	0x3d352f8f	0.04423481
156	0x3dff3ece	0.12463151
157	0x3d15b940	0.03655362
158	0xbdbca65b	-0.09211417
159	0x3d13e488	0.036106616
160	0x3ce3bd0b	0.027800104
161	0x3c896d04	0.016775616
162	0xbdc47974	-0.09593478
163	0x3c859e72	0.016310904
164	0x3d0e2c34	0.034710124
165	0x3d1e4f7c	0.03865002
166	0xbdb3ec39	-0.0878529
167	0x3df39088	0.118928015
168	0xbd6d35ea	-0.057912745
169	0xbd518d81	-0.05116034
170	0x3d872dbb	0.06600519
171	0xbc5150d4	-0.012775619
172	0x3e30adcb	0.17253797
173	0xbdafd292	-0.08585085
174	0xbda64aa2	-0.08119704
175	0x3b8f7cec	0.0043789055
176	0x3c95b030	0.01827249
177	0x3d67d8b7	0.05660316
178	0x3bed1894	0.007235596
179	0xbe02f6cf	-0.12789463
180	0xbd8abbb7	-0.06774085
181	0xbd87809e	-0.06616329
182	0x3e0a462e	0.13503334
183	0xbd44d9b6	-0.048059188
184	0xbccdf4ca	-0.025141139
185	0xbe14aaa4	-0.14518219
186	0x3e19c5fd	0.15016933
187	0xbc105120	-0.008808404
188	0x3d1866ed	0.037207533
189	0x3e1c6f80	0.15276909
190	0xbd12f2a5	-0.035875935
191	0xbb33c012	-0.0027427715
192	0xbe8e4aa8	-0.27791333
193	0x3e8bad81	0.2728081
194	0x3eda1986	0.42597598
195	0x3e6ed7de	0.23324534
196	0xbee3ee60	-0.44517803
197	0x3eb386d1	0.35063794
198	0x3dcf3cc0	0.10119009
199	0xbe5c7f13	-0.2153285
200	0x3de91856	0.11381595
201	0x3e683b68	0.22678912
202	0xbe86d7fc	-0.26336658
203	0xbe007b35	-0.12547
204	0xbee0c692	-0.43901497
205	0x3e4ac783	0.1980267
206	0x3e70d5e8	0.23519099
207	0xbeed2bba	-0.46322423
208	0x3e02fb65	0.12791212
209	0xbd4d0262	-0.0500511
210	0x3eec819f	0.46192643
211	0x3dee5b57	0.116385154
212	0xbc149fc8	-0.009071298
213	0xbe092ef6	-0.1339682
214	0x3df5bd9a	0.11999054
215	0x3e41cc0e	0.18925497
216	0xbe4ce40a	-0.20008865
217	0xbe997b84	-0.29977047
218	0x3eb9cfc8	0.36291337
219	0x3ec1bb58	0.37838244
220	0x3ebeb33c	0.3724612
221	0x3ec6b1ec	0.3880762
222	0x3eb139e0	0.34614468
223	0x3e995beb	0.2995294
224	0x3e9403d7	0.2890918
225	0xbeb5caf5	-0.35506406
226	0xbebbbd9e	-0.36668104
227	0x3d6b51bf	0.057451006
228	0xbed54ff1	-0.41662553
229	0xbe6209ed	-0.22074099
230	0x3ef956d3	0.48699054
231	0xbefe886a	-0.4971345
232	0xbecc2e5e	-0.39879125
233	0x3ef993d9	0.4874561
234	0xbe561b05	-0.20908745
235	0xbe52f533	-0.20601349
236	0x3d29931a	0.041400053
237	0x3de572d6	0.11203544
238	0x3e5d4c50	0.21611142
239	0x3eceeb58	0.40413928
240	0xbd4bb638	-0.049734324
241	0x3d277bc6	0.040889524
242	0xbcdc331f	-0.026879845
243	0xbee72e60	-0.4515257
244	0xbe68bb74	-0.22727758
245	0xbe83c7b5	-0.25738302
246	0x3e7adb16	0.24497637
247	0xbd9f3f3d	-0.077757336
248	0x3ea4d445	0.321932
249	0x3ec9edb1	0.39439157
250	0x3e927492	0.2860456
251	0x3e4deed0	0.20110631
252	0x3e2a45fe	0.16628262
253	0x3e9d318a	0.30701858
254	0x3e2fd9ba	0.171729
255	0x3e8f6512	0.28006798

2.linear1.bias f4 [64]
0	0x3ea151eb	0.3150781
1	0xbe38d8e9	-0.18051495
2	0xbe1c12ec	-0.15241593
3	0xbb3af0ee	-0.0028524953
4	0x3eab78a2	0.33490473
5	0xbdf5d02e	-0.12002598
6	0xbdf00184	-0.11719039
7	0x3da52815	0.08064286
8	0x3e1fa271	0.1558931
9	0xbd38632f	-0.045016464
10	0x3ecd7448	0.40127778
11	0x3edb5804	0.42840588
12	0x3e9d3c80	0.3071022
13	0xbd7d93d8	-0.061908573
14	0x3eb082e3	0.3447486
15	0xbe1a8eb2	-0.15093496
16	0xbcfad06f	-0.030616967
17	0x3e86a58e	0.26298183
18	0x3e8695c2	0.2628613
19	0x3e3470f3	0.17621212
20	0xbd635776	-0.05550333
21	0x3e218544	0.15773493
22	0x3ea4192a	0.3205045
23	0x3e51390f	0.20431922
24	0xbd90736a	-0.070532635
25	0x3eb5e499	0.3552597
26	0x3ec8ff2d	0.39257184
27	0x3d23acc6	0.03995969
28	0x3ecbd19b	0.39808354
29	0xbd0d7eef	-0.03454488
30	0x3d9ac2be	0.075566754
31	0x3ec4281e	0.38311857
32	0xbda572f8	-0.08078569
33	0x3ea92288	0.33034158
34	0x3e5f64c8	0.21815789
35	0xbdeb6a1c	-0.11494848
36	0xbe3295fd	-0.17440028
37	0x3c82db29	0.015973644
38	0xbd9b5768	-0.07585031
39	0xbd2c3fb8	-0.042052954
40	0x3caf80c6	0.021423709
41	0x3ee61f48	0.4494574
42	0x3d63ade0	0.055585742
43	0x3b021ff5	0.0019855474
44	0xbde58f48	-0.11208969
45	0x3ed30554	0.41215003
46	0x3d622a0f	0.05521589
47	0x3e815862	0.25262743
48	0x3d9c94e3	0.076455854
49	0xbd904812	-0.07044996
50	0xbd274632	-0.040838428
51	0xbd4bcdf0	-0.049756944
52	0x3d826837	0.06367534
53	0x3ebaaaff	0.36458585
54	0xbd294767	-0.04132786
55	0x3e302030	0.17199779
56	0x3c9de967	0.019276334
57	0x3eb5e488	0.35525918
58	0x3d812a79	0.06306929
59	0xbe08097a	-0.13284865
60	0xbd1e5c7c	-0.03866242
61	0xbe0040b5	-0.12524684
62	0x3e55f645	0.20894726
63	0x3e88544f	0.26626822

2.linear2.weight f4 [2, 64]
0	0x3ed40d42	0.41416365
1	0xbd132e47	-0.035932805
2	0x3bed5120	0.007242337
3	0xbeeeab21	-0.46614936
4	0x3eb16b8c	0.34652364
5	0xbc79ec78	-0.015254132
6	0x3d712388	0.058871776
7	0xbefe2f6b	-0.49645552
8	0x3f063eac	0.5243938
9	0xbeb459c6	-0.35224742
10	0x3f0a5c1f	0.54046816
11	0x3ecb2345	0.39675346
12	0x3eb3fc9c	0.35153663
13	0xbf0dc227	-0.5537438
14	0x3f085cc5	0.53266555
15	0x3ca1dffe	0.019760128
16	0xbef783f9	-0.48342875
17	0x3ee55007	0.4478762
18	0x3ee0b8a7	0.4389088
19	0x3f1b5e28	0.60690546
20	0x3d34ece6	0.044171236
21	0xbec032ee	-0.37538856
22	0x3f03fb37	0.515552
23	0x3f04da51	0.51895624
24	0xbd3aed9c	-0.04563676
25	0x3f039d45	0.5141185
26	0x3ee3c31c	0.44484794
27	0xbf040bc2	-0.5158044
28	0x3f087087	0.53296703
29	0x3d68421b	0.056703668
30	0xbef5ab3b	-0.479822
31	0x3ec2982e	0.3800673
32	0xbc444df0	-0.011981472
33	0x3f13dd12	0.577592
34	0x3f230e52	0.63693726
35	0xbd7dad86	-0.061933063
36	0xbd750dc9	-0.0598276
37	0xbed73085	-0.42029205
38	0xbd257d37	-0.040402617
39	0xbf0b53b3	-0.5442459
40	0xbeaf2299	-0.34206083
41	0x3ecc234e	0.39870685
42	0xbebb22f7	-0.36550114
43	0xbefb2a6a	-0.49055797
44	0x3c10b61f	0.008832484
45	0x3eed5021	0.46350196
46	0xbee15350	-0.44008875
47	0x3f04b069	0.5183168
48	0xbef6e11f	-0.4821863
49	0xbdb5d6d0	-0.08878863
50	0xbd9ea951	-0.07747138
51	0xbefbfb2c	-0.49215066
52	0xbecf0f8f	-0.40441558
53	0x3ef8cd47	0.48594114
54	0xbd29a826	-0.041420124
55	0xbef7855d	-0.48343936
56	0xbec71f77	-0.38891193
57	0x3ecb0965	0.39655605
58	0xbeed8c7a	-0.46396238
59	0x3d81f22e	0.0634502
60	0xbeec64d9	-0.4617069
61	0xbd764737	-0.06012651
62	0x3efb4ceb	0.4908212
63	0x3ed0467d	0.40678778
64	0xbef788d1	-0.4834657
65	0xbb9fbc78	-0.004874762
66	0xbd06dc66	-0.032925032
67	0x3ed2981d	0.41131678
68	0xbefed75d	-0.49773684
69	0x3d50d967	0.05098858
70	0x3df40a7a	0.11916061
71	0x3ed4de53	0.4157587
72	0xbee2db29	-0.4430783
73	0x3ef57cbd	0.4794673
74	0xbeb04385	-0.34426513
75	0xbef9e663	-0.48808584
76	0xbf0ab827	-0.54187244
77	0x3f20a4d0	0.62751484
78	0xbeaf9647	-0.3429434
79	0x3d004b17	0.03132161
80	0x3ea5b6f0	0.32366133
81	0xbf130608	-0.5743108
82	0xbf0a7508	-0.54084826
83	0xbf2c4988	-0.672997
84	0xbd475293	-0.048662733
85	0x3ecade4e	0.3962273
86	0xbee4e6ff	-0.44707486
87	0xbf07b9f5	-0.5301812
88	0x3d04cdfc	0.032423005
89	0xbf058dcb	-0.52169484
90	0xbed8e1ee	-0.4235987
91	0x3f057aaf	0.52140325
92	0xbea8d565	-0.32975307
93	0x3d9d38b5	0.07676832
94	0x3ea44a6e	0.32088035
95	0xbef06fdf	-0.4696035
96	0xbcff1090	-0.031135827
97	0xbecb53ed	-0.39712468
98	0xbf05d6d1	-0.5228091
99	0x3cab9487	0.020944847
100	0xbe2d2770	-0.16909575
101	0x3eedbecc	0.4643463
102	0xbe054bce	-0.13017198
103	0x3f087b83	0.53313464
104	0x3eeac715	0.45855013
105	0xbf03b03d	-0.51440793
106	0x3eed7692	0.46379524
107	0x3eeeda34	0.4665085
108	0xbcbe93a7	-0.023263765
109	0xbf0389ad	-0.5138195
110	0x3ee94efe	0.4556808
111	0xbefa3778	-0.48870444
112	0x3ed7fd03	0.4218522
113	0x3db39f04	0.08770564
114	0x3d161f01	0.03665066
115	0x3ede90a6	0.43469733
116	0x3ef95dd8	0.4870441
117	0xbed2785a	-0.41107446
118	0xbb309737	-0.00269456
119	0x3eee21c9	0.4651015
120	0x3f028d91	0.50997263
121	0xbefdbaaf	-0.4955649
122	0x3ef5270d	0.47881356
123	0xbae8b442	-0.0017753916
124	0x3edbb5fa	0.42912275
125	0x3d823029	0.06356842
126	0xbf013150	-0.5046587
127	0xbf0b08a2	-0.5431005

2.linear2.bias f4 [2]
0	0x3e7f45b4	0.24928933
1	0xbe938ce1	-0.2881842

3.linear1.weight f4 [64, 64]
0	0xbdbd6ce4	-0.09249285
1	0x3ed968ca	0.4246276
2	0xbeee8e58	-0.46592975
3	0xbdaf5274	-0.085606486
4	0xbeb817a6	-0.35955542
5	0xbe5b621f	-0.21424149
6	0x3eade589	0.33964184
7	0x3ef740d9	0.48291662
8	0x3ecd8150	0.4013772
9	0x3ddab623	0.10679271
10	0xbe2c0dec	-0.16802186
11	0x3f2d8480	0.67780304
12	0xbedc3c57	-0.43014786
13	0x3eeeef52	0.46666962
14	0x39663b44	0.00021956587
15	0x3d612277	0.05496451
16	0x3e8d63b0	0.27615118
17	0x3e7cb05d	0.24676652
18	0x3d9a7023	0.0754092
19	0x3eaf6754	0.3425852
20	0x3c4795af	0.012181683
21	0xbdefc982	-0.117083564
22	0xbea0a8df	-0.31378838
23	0xbea6f7ca	-0.32610923
24	0x3e90367d	0.2816657
25	0xbeb7b8b0	-0.35883093
26	0x3ec6ccb5	0.38828054
27	0x3ea90b36	0.33016366
28	0x3bd0637e	0.0063595166
29	0x3e80d489	0.2516215
30	0x3eaa56f8	0.33269477
31	0x3cc80d10	0.024420291
32	0x3eb6e7e9	0.35723808
33	0xbe6442c9	-0.22291102
34	0x3e1b883d	0.1518869
35	0x3da3f613	0.08005919
36	0xbee7bc41	-0.45260814
37	0xbec0000b	-0.37500033
38	0x3ed496aa	0.41521198
39	0xbe80ab9a	-0.25130922
40	0xbe2882f5	-0.16456206
41	0x3db93e7f	0.09045123
42	0xbe7690a9	-0.24078621
43	0xbe9cc8b1	-0.30621865
44	0x3ee568f1	0.44806626
45	0xbf1328fe	-0.57484424
46	0x3e0477f1	0.12936379
47	0x3e372b95	0.17887719
48	0xbda9f477	-0.08298581
49	0x3eb9c5e1	0.36283782
50	0xbe78db20	-0.2430234
51	0xbe602007	-0.21887217
52	0x3ea13741	0.31487468
53	0xbeaa7437	-0.3329179
54	0xbe8f22b5	-0.27956167
55	0x3f09860b	0.5372016
56	0x3df87c7f	0.12133121
57	0x3e8a64d8	0.27030063
58	0x3ecc8779	0.39947107
59	0xbed51f26	-0.41625327
60	0x3e002c63	0.12516932
61	0x3efef78f	0.49798247
62	0xbd4f8484	-0.050663486
63	0x3e9a19c9	0.30097798
64	0xbe0fdede	-0.14049861
65	0xbeeff0e9	-0.46863487
66	0x3e566c23	0.20939688
67	0xbc7b27e9	-0.01532934
68	0x3e8748a8	0.2642262
69	0x3ebf8bab	0.37411246
70	0xbe7872f6	-0.24262604
71	0xbeb6973d	-0.3566226
72	0xbefe6c3f	-0.4969196
73	0xbe9199b4	-0.2843758
74	0x3e4b7683	0.19869427
75	0xbf18943f	-0.59601206
76	0x3ea536f5	0.3226849
77	0xbef7029a	-0.48244172
78	0x3e1c064d	0.15236779
79	0x3e283a68	0.1642853
80	0xbf00a489	-0.5025106
81	0xbe7cc7c5	-0.24685581
82	0xbe8a110e	-0.26966137
83	0xbf067dc5	-0.5253566
84	0xbde39027	-0.11111479
85	0x3bada29f	0.005298927
86	0x3eecf5b7	0.46281216
87	0x3deb8930	0.11500776
88	0xbf007ad3	-0.50187415
89	0x3eb2fe58	0.34959674
90	0xbe914305	-0.28371444
91	0xbecfb881	-0.40570453
92	0x3de1207f	0.10992526
93	0xbee48853	-0.44635257
94	0x3ea6a938	0.3255098
95	0xbe9e4e52	-0.3091913
96	0xbea6f01a	-0.32605058
97	0x3ec539a2	0.38520533
98	0x3ea6b92a	0.32563144
99	0x3dc93831	0.09825171
100	0x3e872079	0.26391962
101	0x3eb96dfd	0.36216727
102	0xbec34755	-0.3814036
103	0x3e54a8e8	0.20767558
104	0xbd9eab6e	-0.07747541
105	0xbe987946	-0.29780024
106	0x3e6bd690	0.23031068
107	0x3e3a5051	0.18194701
108	0xbee0fef4	-0.43944514
109	0x3eeaf764	0.4589187
110	0x3e69b8b4	0.22824365
111	0xbe7b6dab	-0.24553554
112	0xbc8feeb6	-0.017569881
113	0xbe72c156	-0.23706564
114	0xbdce5882	-0.10075475
115	0x3ea9db7a	0.3317526
116	0xbd81535e	-0.06314729
117	0x3edcd5ff	0.43132016
118	0xbe89473d	-0.26812163
119	0xbf0e85ed	-0.55673105
120	0xbe9c7f02	-0.3056565
121	0x3ccddf52	0.025130901
122	0xbf21d626	-0.6321739
123	0x3df2da75	0.118580736
124	0x3e1ce3eb	0.15321319
125	0xbed7d5e4	-0.42155373
126	0xbdc81e44	-0.09771398
127	0xbe8bd311	-0.27309468
128	0xbe7a9a1d	-0.24472852
129	0x3ef8b87b	0.48578247
130	0xbeaadc5f	-0.33371255
131	0xbd1f54fe	-0.038899414
132	0xbed27ad3	-0.41109332
133	0xbec4ae56	-0.38414258
134	0x3e03f1b0	0.12885165
135	0x3ee163d6	0.4402148
136	0x3eb4928f	0.35268065
137	0xbc6d91ac	-0.014500063
138	0xbe732d5d	-0.23747773
139	0x3f35f875	0.7108224
140	0xbeb82695	-0.35966936
141	0x3ecea9f9	0.40364054
142	0xbcdcc842	-0.02695096
143	0xbc955151	-0.018227251
144	0x3ec12a3d	0.37727538
145	0x3ea0bc34	0.31393588
146	0x3deb59a7	0.11491709
147	0x3e92d99a	0.28681642
148	0x3dbb7d4f	0.0915476
149	0xbe1d1f2f	-0.15343927
150	0xbdc055a1	-0.093913324
151	0xbea589f5	-0.32331815
152	0x3eb83771	0.35979798
153	0xbdadc592	-0.08484949
154	0x3e9261ca	0.28590232
155	0x3eb654bd	0.35611525
156	0xbd39ca06	-0.04535868
157	0x3eb186ab	0.34673056
158	0x3da7f86e	0.08201681
159	0x3d9765d2	0.073924676
160	0x3ea5fda8	0.32420087
161	0xbe7ea404	-0.24867254
162	0xbd221750	-0.039573014
163	0x3c5ca23a	0.013466412
164	0xbe88a279	-0.26686457
165	0xbe9d971f	-0.3077936
166	0x3f035ae4	0.51310563
167	0xbd7b9305	-0.061419506
168	0xbde3e430	-0.11127508
169	0x3bd97c9d	0.0066371695
170	0xbec5d209	-0.38636807
171	0xbe803383	-0.250393
172	0x3ed5502f	0.41662738
173	0xbf13a896	-0.57679117
174	0x3e01bad1	0.12668921
175	0x3e54522e	0.20734474
176	0xbdf892b2	-0.12137355
177	0x3eac737f	0.33681867
178	0xbd3a427f	-0.045473572
179	0xbeb12d4b	-0.34604868
180	0x3ec6a960	0.38801098
181	0xbebf1cc2	-0.37326628
182	0xbe966f93	-0.29382
183	0x3ebf5819	0.373719
184	0x3d9cbeaa	0.07653554
185	0x3e94886a	0.29010326
186	0x3ef26d72	0.47349125
187	0xbea59f58	-0.32348132
188	0x3da4ba22	0.080433145
189	0x3f13a706	0.5767673
190	0x3dc6b30d	0.0970212
191	0x3e9658e2	0.29364687
192	0xbd60627c	-0.054781422
193	0xbe0546ba	-0.13015261
194	0x3e38d21b	0.18048899
195	0xbe01bd2c	-0.1266982
196	0x3cfc8e89	0.030829685
197	0xbcdfc848	-0.027317181
198	0xbdbbb092	-0.091645375
199	0x3d9b01ae	0.0756868
200	0xbcb14e03	-0.021643644
201	0xbcdf1725	-0.027232716
202	0xbe30074f	-0.17190288
203	0x3c40b381	0.011761547
204	0x3e367492	0.17817906
205	0xbcaa6938	-0.020802125
206	0x3d70d605	0.058797855
207	0x3e1d3aed	0.1535451
208	0xbdf0cf30	-0.11758268
209	0x3e090c9f	0.13383721
210	0x3dd3b0dd	0.10336468
211	0x3e0e521b	0.13898508
212	0xbdb2ae08	-0.087246
213	0x3db3b37d	0.08774469
214	0x3d808336	0.062750265
215	0xbd36c41d	-0.044620622
216	0x3ccb29f2	0.024800275
217	0xbcc0941d	-0.023508126
218	0x3d3b636f	0.045749124
219	0x3e22260d	0.15834828
220	0xbe06c036	-0.1315926
221	0xbd44cd94	-0.048047617
222	0xbd423fcb	-0.04742412
223	0x3de500fc	0.111818284
224	0xbd523b97	-0.05132636
225	0x3e104c21	0.14091541
226	0xbe05552d	-0.13020773
227	0xbe14c45d	-0.14528032
228	0x3e1d4ff4	0.15362531
229	0x3d776b03	0.06040479
230	0xbe06c65c	-0.13161606
231	0xbd7f17b8	-0.06227848
232	0xbcf388dc	-0.029728346
233	0x3e0a2298	0.13489759
234	0xbc8b8571	-0.017031403
235	0x3d0ff80e	0.035148673
236	0x3d53233b	0.05154727
237	0xbe1ab306	-0.15107355
238	0x3d1d4508	0.03839591
239	0xbd89c8ea	-0.067277744
240	0xbd86a444	-0.065743
241	0x3d875bae	0.066092834
242	0xbb020eb3	-0.0019845187
243	0xbd0493ca	-0.032367505
244	0xbc9bf178	-0.01903604
245	0x3d345b85	0.044032592
246	0xbd902ee3	-0.07040193
247	0xbd41537d	-0.04719876
248	0x3d172cb1	0.036907855
249	0xbe2c7f76	-0.16845497
250	0xbd9ea131	-0.077455886
251	0xbce97243	-0.028496867
252	0xbdf772f2	-0.12082471
253	0xbcfce6f2	-0.030871842
254	0x3d809aba	0.06279512
255	0x3b837cc7	0.0040126774

3.linear1.bias f4 [64]
0	0x3daf0bf9	0.085472055
1	0x3ede792f	0.4345183
2	0x3dc52058	0.0962531
3	0xbe16e543	-0.14735894
4	0x3ec70ee0	0.38878536
5	0xbdbf83ab	-0.093512855
6	0x3eaf1324	0.3419429
7	0x3e078fff	0.13238524
8	0x3e976aed	0.29573765
9	0xbdd7f25d	-0.10544274
10	0x3e012a82	0.12613872
11	0x3eb8b904	0.36078656
12	0xbd9bfe9a	-0.07616921
13	0x3ea3163e	0.31852907
14	0x3ee5ffb7	0.44921657
15	0xbdbcd783	-0.09220793
16	0xbdf8c7ea	-0.121475056
17	0x3dbb5f63	0.09149053
18	0x3eedd64c	0.46452558
19	0x3e5e9ea1	0.217402
20	0x3dec9094	0.115510136
21	0x3ee7e524	0.45292008
22	0x3edfbe06	0.43699664
23	0x3e51f2b9	0.20502748
24	0xbe1933b1	-0.14961125
25	0x3e8710d6	0.26380032
26	0x3e3a23b1	0.18177678
27	0x3ec542d6	0.38527554
28	0x3e961b1f	0.29317567
29	0x3d501327	0.050799515
30	0x3eb5c899	0.35504606
31	0x3e5bdde0	0.21471357
32	0xbe00ac8b	-0.1256582
33	0x3d883030	0.06649816
34	0x3eab7a0e	0.33491558
35	0x3d14f20b	0.036363643
36	0x3d98cbd6	0.074607536
37	0x3db8a0dc	0.090150565
38	0xbdaf116a	-0.08548243
39	0xbdaacfe0	-0.0834043
40	0x3e9a1179	0.30091456
41	0x3ebf43a0	0.3735628
42	0xbdcda58c	-0.10041341
43	0x3dc70682	0.09718038
44	0x3ea7b6f0	0.32756758
45	0xbe0b8fa8	-0.1362902
46	0x3ee429f6	0.44563264
47	0x3eb7b1aa	0.35877734
48	0xbe0532ce	-0.13007662
49	0xbe079f7c	-0.13244432
50	0xbe277abe	-0.16355416
51	0x3eb30031	0.34961084
52	0xbe0f9d4f	-0.14024852
53	0xbd3cea10	-0.046121657
54	0x3e00d0e2	0.12579682
55	0x3e04ee98	0.12981641
56	0x3eac19ea	0.3361352
57	0xbdc25e7c	-0.09490678
58	0xbdac079e	-0.0839989
59	0x3e2c6e68	0.16838992
60	0x3ed967e2	0.4246207
61	0xbdf2a61f	-0.11848091
62	0x3e9416db	0.28923687
63	0x3e04bee3	0.12963443

3.linear2.weight f4 [2, 64]
0	0xbee68227	-0.45021173
1	0x3e9fad13	0.31186733
2	0xbee4d9aa	-0.44697315
3	0xbd2a8046	-0.041626237
4	0x3ed50ebd	0.41612807
5	0x3d0328ed	0.03202145
6	0x3ece6cd3	0.403174
7	0x3f214c18	0.63006735
8	0x3e93e31a	0.28884202
9	0x3cf3274e	0.029681828
10	0xbee1736e	-0.44033378
11	0x3ef5f026	0.4803478
12	0xbd4e0d34	-0.05030556
13	0x3f083afe	0.53215015
14	0x3eec98d7	0.46210358
15	0x3df0c4c8	0.11756283
16	0x3dc3d386	0.09561829
17	0xbe98e9b7	-0.2986581
18	0x3ecf027f	0.40431592
19	0xbec84b1b	-0.391198
20	0xbecdf4c8	-0.40225816
21	0x3ec37dc5	0.38181892
22	0x3efd0e0e	0.49424785
23	0x3f316183	0.69289416
24	0xbd0737ea	-0.03301231
25	0x3f0520cb	0.52003163
26	0xbedf4e48	-0.4361441
27	0x3eb6e229	0.35719422
28	0x3f092005	0.5356448
29	0xbebdfba5	-0.37106052
30	0x3f143641	0.57895285
31	0xbecdd7ad	-0.4020361
32	0xbcc27749	-0.02373852
33	0xbec4e2c9	-0.38454273
34	0x3eacdcb5	0.33762136
35	0xbedf0730	-0.4356017
36	0xbec6a9a5	-0.38801304
37	0xbeecca09	-0.4624789
38	0xbdd78918	-0.105241954
39	0xbc857b47	-0.016294135
40	0x3f2064fd	0.62654096
41	0x3eedef2a	0.4647153
42	0x3d81a5c2	0.06330444
43	0xbec0a7a4	-0.376279
44	0x3ef911ac	0.48646295
45	0x3d83dba4	0.064383775
46	0x3f0388a1	0.51380354
47	0x3f0956b8	0.5364795
48	0xbd800f7d	-0.06252954
49	0xbddf8f21	-0.109159715
50	0x3c6290a9	0.013828435
51	0x3f069d6e	0.5258397
52	0x3d473ded	0.04864304
53	0x3d242bd8	0.040080875
54	0xbe97d314	-0.29653227
55	0xbf060064	-0.52344346
56	0x3ef805be	0.4844188
57	0xbd1805f0	-0.037115037
58	0x3caa3268	0.020775989
59	0xbeea4d8b	-0.45762286
60	0x3ede6ac8	0.43440843
61	0x3c68efa6	0.014217293
62	0x3efc65c8	0.49296403
63	0x3f1f3973	0.62197036
64	0x3ea5da75	0.32393232
65	0xbf030475	-0.51178676
66	0x3e9c4bf0	0.30526686
67	0x3ca968a7	0.020679785
68	0xbf010e7a	-0.50412714
69	0xbcb42418	-0.021989867
70	0xbf020db1	-0.5080214
71	0xbf3bddb4	-0.7338517
72	0xbf03d4e2	-0.5149671
73	0xbd1b94cf	-0.03798371
74	0x3ef21fc5	0.47289863
75	0xbebf8815	-0.3740851
76	0xbdc74692	-0.09730257
77	0xbed1de1c	-0.40989769
78	0xbece6791	-0.4031339
79	0x3cd4ad0c	0.025961421
80	0xbb842600	-0.0040328503
81	0x3ee57491	0.44815496
82	0xbf004ac6	-0.50114095
83	0x3eef018a	0.46680862
84	0x3ee2bf67	0.44286653
85	0xbef73987	-0.48286077
86	0xbeb67586	-0.35636538
87	0xbf3a2c33	-0.7272369
88	0xbcc5ce78	-0.024146304
89	0xbf06c153	-0.5263874
90	0x3ee9dd8b	0.45676836
91	0xbf036518	-0.5132613
92	0xbef0f9ec	-0.47065675
93	0x3ef20d69	0.47275856
94	0xbeba1a24	-0.3634807
95	0x3edc8342	0.43068892
96	0xbce03862	-0.027370635
97	0x3ee010d4	0.4376284
98	0xbf058b6b	-0.5216586
99	0x3ef21181	0.4727898
100	0x3ef03738	0.4691713
101	0x3ee07a2e	0.43843216
102	0xbbd734c0	-0.0065675676
103	0x3d77b3d9	0.06047425
104	0xbeca3afc	-0.39498127
105	0xbed46e99	-0.4149063
106	0xbcd6683e	-0.026172753
107	0x3eb7e016	0.35913152
108	0xbf06b123	-0.5261404
109	0x3e044b91	0.12919451
110	0xbeaf0e71	-0.34190705
111	0xbeb243bd	-0.34817305
112	0x3d66af3e	0.056319468
113	0xbd78766d	-0.060659815
114	0xbd8fe0e2	-0.07025315
115	0xbecf1e2a	-0.404527
116	0x3d2c81a9	0.04211584
117	0x3e2521d0	0.1612618
118	0x3ee98a86	0.45613497
119	0x3eace68f	0.33769652
120	0xbec194d9	-0.37808874
121	0xbdcf922c	-0.10135302
122	0x3de9147a	0.11380859
123	0x3ef3d596	0.4762389
124	0xbeb5f100	-0.3553543
125	0xbb0a0a4a	-0.0021063262
126	0xbecda6e2	-0.40166384
127	0xbf2c06b1	-0.6719771

3.linear2.bias f4 [2]
0	0x3d135529	0.035969887
1	0xbe8395e9	-0.2570031
