resources/classifier/termination/embedding.pt (torch, 510317 bytes, 14 tensors)

conv1.weight f4 [32, 4, 3, 3]
00000000: 5bfe 4d3b 65ab 27be de61 acbc be65 1ebd
00000010: c09b 24be 76b9 b8bd 6744 cc3d b89f bbbd
00000020: f2a0 353d 1a3b aebd 2ded cb3c 284b b4bd
00000030: 2b0d c03c 9192 a63d a24e fd3d 9a96 9fbd
00000040: 8761 e8bd 50fb bf3b c08f 703d afcc 823c
00000050: c744 0b3d 9806 18be 6672 0d3e 869e 523d
00000060: 07bb b6bc be82 6a3d da4a d93d f25a 8a3a
00000070: a3a9 1c3e 83f3 213e d6f9 1e3e 3f9d 223e
00000080: b5e1 10be ba9f e83d 1f60 243e 385d 02bc
00000090: 5647 143c c577 f6bd d622 ba3d 42ee f73d
000000a0: 78e1 bc3d 14c6 813d 9e48 ebbc 0627 3fbd
000000b0: e159 213e 7c09 98bd 5477 d93d 3a24 c53d
000000c0: a182 02be ccb8 93bc 2769 d43d 5751 85bd
000000d0: b172 e03d f1d0 c63c 45b8 13be 56d9 993d
000000e0: 277b 26be 88f8 d33d 8848 183e a675 febd
000000f0: 86a4 1ebe 73dd 04be ca4e 24be a407 0f3d
00000100: 0d36 313d 9010 6c3d f3b5 8b3d 9a81 0c3e
00000110: 2ab8 10bd 6c91 c7bd 17a2 7339 d1ab 343d
00000120: f927 6b3d c181 dbbd a436 913d 5c32 253d
00000130: d178 29bd cd3c af3d 4fe0 66bd d2dd 19be
00000140: 1157 40bd eb4e 5fbd d798 94bb 46c7 6ebc
00000150: c8f5 3e3d e144 67bd d7a0 0d3e 39bc a8bd
00000160: cdc9 0cbc 30ad a8bc 6879 0fbe 981a 7a3d
00000170: d295 1dbe 9027 92bd 2218 ea3d df4f 0c3e
00000180: e8e9 023e 12ac 2abd b782 823c 6aba 2b3c
00000190: 7d47 d93d 0a7f 17bd 76d5 18bd 7f94 15bc
000001a0: 98d4 713d 91e8 a83c f3b5 ebbc cf3b 6f3b
000001b0: 670a a8bd 7d0b 103e 3b71 233e 31e9 23bb
000001c0: e04d 24bd 96f9 1b3e e304 49bd e048 b63d
000001d0: 48c6 203e 05db 0d3d ab0e 43bd 3e9f 81bd
000001e0: 1800 b73c af24 173e 464f 0f3e 7174 0a3d
000001f0: ce5e 093e f48a b0bd d2d8 c5bc 12f7 0f3e
00000200: e5b8 e7bd 289d d13d f7af 4bbd 5059 c9bd
00000210: 9355 22be 5641 a13d f42d c43d e6a4 23be
00000220: 69d6 a33d dff9 c63d 05b4 5e3d b2c4 1d3e
00000230: f12a b6bd 0e1b bf3d 2f39 18be aa55 ac3c
00000240: f598 eabd f45e 12be d17c e5bd 91dd e9bc
00000250: de57 d13d 6529 953c c125 87bd b8ed 3bbd
00000260: fe45 043e a55d 3ebc 6e37 ea3c 45c9 bebd
00000270: e6fd a53d 022a 373c 42c0 ac3c ad99 d13d
00000280: 6854 213e b382 fe3d ab95 d4bc 8b92 08be
00000290: ff3e 143e 4a54 5f3d bed8 353d e2ff 95b8
000002a0: 7805 5f3c 8f12 3abd 4a49 163e 1ac8 163e
000002b0: 6e37 253e 634b 633d c4ad 60bd b2f7 e4bd
000002c0: 166a 9a3d 3b7c 033e 5030 dc3d 658a d3bd
000002d0: 2c52 ac3d 6788 17be 4545 3abd d113 b13d
000002e0: 68e1 10be 41a4 e8bd 254d aabc f7b6 1fbe
000002f0: 3f0c f43d 172e cf3d 6af0 2dbc bc86 2abe
00000300: f9f8 7dbc 0ab5 07be c4c5 0ebe dc47 82bc
00000310: 9ea4 d0bc f8cb 1cbe 2b9b a33c 7563 e3bd
00000320: 556e 9abd 86a1 fe3d e27c 2e3c 8a4c 8d3d
00000330: 033e 95bd 5cbc 0abe 3c18 3b3d 470f 04be
00000340: c918 023d e03e 0dbe fa47 7cbd 6793 ebbd
00000350: 7997 42ba f545 fe3d 4875 843d 7f54 5fbd
00000360: 3a50 c6bc 663e 943d a02b 9c3d 8104 37bc
00000370: f3d5 fcbb dc42 6abd 2b20 1f3d 96d2 2e3d
00000380: b8c5 1e3e a9d8 73bd ec4f 1a3e 2e04 a9bd
00000390: f84b 753c b709 24bd 2bcd 23be 7ae0 12be
000003a0: 387a 4f3d 25fa 023e 9311 26be 852a cc3d
000003b0: 88a0 2b3d d7e3 99bd 7c0a 19be 881c cfbd
000003c0: 8c2c 383d c001 3dbd 329f 9abc 9131 a43b
000003d0: dc88 1abe 0864 b0bd 9b2a bbbd 1faf 3d3d
000003e0: ddbb 073e 9a52 08be 8c58 93bd d66d af3d
000003f0: cdb7 ddbd 3404 26be 03a8 073e 42dd 603d
0.0031432125 -0.16373976 -0.02104276 -0.038671248 -0.16075039 -0.09019749 0.09973984 -0.09161323
0.044342943 -0.085073665 0.024893368 -0.088033974 0.023443779 0.08133424 0.12368514 -0.07792397
-0.11346727 0.005858816 0.05873084 0.015966741 0.034001138 -0.14846265 0.13813171 0.05142071
-0.022305978 0.05725359 0.1060998 0.0010555668 0.15299086 0.15815549 0.15524992 0.15880297
-0.141486 0.113585904 0.16052292 -0.007956795 0.009050211 -0.12034563 0.09088676 0.12105991
0.09222692 0.063366085 -0.02872115 -0.046668075 0.15756942 -0.07423684 0.10618463 0.0962605
-0.12745143 -0.018032454 0.10371619 -0.06509655 0.10959376 0.024269553 -0.14425762 0.07512157
-0.16257916 0.10350138 0.14871418 -0.124247834 -0.15492448 -0.12975101 -0.1604568 0.034919396
0.043264437 0.057632983 0.068218134 0.13721314 -0.035331883 -0.09744534 0.00023234669 0.04410917
0.057411168 -0.10718108 0.070905 0.04033123 -0.041374985 0.08556519 -0.05636626 -0.15026024
-0.046958033 -0.05451862 -0.0045348215 -0.014573878 0.046621114 -0.056462172 0.13830887 -0.082390256
-0.008593035 -0.020590395 -0.14011157 0.061060518 -0.15389183 -0.07136452 0.11430384 0.13702343
0.1278454 -0.041668005 0.01593147 0.010481456 0.106093384 -0.03698639 -0.037312947 -0.0091296425
0.059040636 0.020618709 -0.028773284 0.0036504155 -0.08205109 0.14066882 0.15961163 -0.002501082
-0.04011333 0.15231928 -0.049076926 0.089006186 0.15700638 0.0346327 -0.04762141 -0.06329201
0.022338912 0.14760087 0.13995084 0.033802453 0.13415071 -0.08620253 -0.02415124 0.14059094
-0.11314563 0.10235053 -0.04972836 -0.09831488 -0.15852956 0.0787379 0.09579077 -0.15980873
0.0799988 0.09715628 0.0543709 0.15407065 -0.08894909 0.09331332 -0.14865564 0.021036942
-0.114549555 -0.14294034 -0.112054475 -0.028548034 0.102218375 0.018208215 -0.06598998 -0.045881003
0.12917325 -0.011619006 0.028590884 -0.09315733 0.08105068 0.011179449 0.02108777 0.102343895
0.15754855 0.12427273 -0.025950273 -0.13337152 0.14477156 0.054523744 0.044396155 -7.1525355e-05
0.013612144 -0.045427855 0.14676395 0.1472477 0.16134426 0.055491816 -0.054853216 -0.11180057
0.075397655 0.12840359 0.107514024 -0.10329131 0.084141105 -0.14798127 -0.045476217 0.08646358
-0.14148486 -0.11359454 -0.020788739 -0.1559714 0.11916398 0.10116213 -0.010616401 -0.1665296
-0.015501254 -0.13252655 -0.13942629 -0.015903406 -0.02546912 -0.15312183 0.01997145 -0.11102954
-0.075405754 0.12433152 0.010649892 0.06899364 -0.072872184 -0.13548416 0.04567741 -0.12896453
0.03176192 -0.13793516 -0.06159208 -0.11502724 -0.0007423084 0.12415687 0.06467682 -0.05452394
-0.024208177 0.07238464 0.07625508 -0.011170507 -0.0077159344 -0.05719267 0.038849037 0.0426813
0.15505111 -0.059532795 0.1506955 -0.0825275 0.014971726 -0.040048327 -0.15996234 -0.14343444
0.050653666 0.12790735 -0.16217642 0.099690475 0.04190114 -0.0751416 -0.14945406 -0.10112864
0.04496436 -0.046144247 -0.018874738 0.0050107916 -0.1509127 -0.086128294 -0.09138986 0.046309587
0.13255258 -0.1331276 -0.07194623 0.085658714 -0.10826073 -0.16212541 0.13247685 0.054898508

conv1.bias f4 [32]
00000000: af01 e73d 5f0d b1bd 7b00 5d3d 559c 3b3e
00000010: dc1a 1a3e bdbb 323d a02a cabd 0ce5 013e
00000020: e46c e73c e381 b9bd 6dfe fbbd 657f bbbd
00000030: 4658 f03b caaf f9bd 8f5e 40bd 6faa f2bc
00000040: 8b34 c6bd 0de1 84bd 378b 98bc 81e0 95bd
00000050: 3804 093c 0986 86bc ccd8 94bd faee 16bd
00000060: 1f4d 0d3e 7d55 fe3c 72ef 943d aa47 9bbd
00000070: 0561 893c ee9d 4abd 0756 17bd 4cee 093e
0.11279618 -0.086451285 0.053955536 0.18321355 0.15049309 0.043636072 -0.09871411 0.1268503
0.028250165 -0.09057977 -0.12304387 -0.09155158 0.0073347418 -0.12191732 -0.046965178 -0.029622285
-0.096779905 -0.064882375 -0.01862107 -0.07318211 0.008362822 -0.016421335 -0.07267913 -0.036849
0.1379895 0.031046623 0.07272233 -0.07582028 0.016769895 -0.04946702 -0.036947276 0.1346981

attention_modules.0.weight f4 [32, 32, 1, 1]
00000000: 3991 273e 3017 013e 15c4 2e3e a875 ebbc
00000010: f11e 103e bb37 27be 7057 0cbd f64b bcbd
00000020: 1bce 293e 2f7c 8cbd c8cf 12be 8e6d 1b3e
00000030: ec25 9fbd 8acb b03d cc8d 0abe e154 ed3d
00000040: d011 a63c 1fd9 16be a433 233e 3377 64bd
00000050: 0273 b3b9 c14e 633d 4673 fa3d 466d 02be
00000060: dcc0 ddbb 2c2b d8bd 8596 a6bd f5f4 08be
00000070: 5a44 073d eb97 bc3d d365 043e 30d0 0dbe
00000080: 7a9e 99bc a349 11be 3c63 87bd 1db4 a4bd
00000090: 78b6 2c3e 22c0 1ebe 9122 26be 794c 33be
000000a0: e675 dc3a 7da6 333e 5948 a4bd cded 26be
000000b0: ef7f 52bb d74e b2bc 334c 573d 6abf 25be
000000c0: 3ce5 a8bd d467 59bd 24e3 fdbd 221d 46bd
000000d0: 7a57 f5bd a8d7 a73d 32c4 02be 6da8 fdbd
000000e0: 221c 2c3d 82d9 51bd a575 183e 9f80 9fbd
000000f0: b094 e13d 95d9 0c3e 9b48 d5bc bcf7 ae3c
00000100: 4710 b83d f291 00bc c79d ef3d ab14 92bc
00000110: 91dc 123e 4683 b0bd b562 153e 63d4 6cbd
00000120: 2b78 603d e083 33be 9918 65bc 77a4 1b3e
00000130: e468 f63c 7ff6 2f3d 3ab7 d73c 6c36 15be
00000140: 6fa8 56bd 0b9b 063d 2a0d 22bd 5371 1d3e
00000150: fd25 39bd e06f b2bd 892a 89bd 1544 0ebc
00000160: 743a 123e 7828 f0bc cd69 1f3e 88d4 cfbd
00000170: 30fd 893c 54fd 2cbe cda0 10be 5a0e da3d
00000180: 6d61 023e fa53 2e3d ab35 ea3d b9f2 15bc
00000190: 397d 17be 8181 49bd 9059 783d 3e63 ff3c
000001a0: 4eb0 873d 4a09 dd3d abda ec3d 40e0 d93d
000001b0: 822b ac3d 6718 693d 6959 69bd aa2b 34be
000001c0: 5c7e b23d 9440 68bd f946 cf3d 290e 103e
000001d0: fd6d 4c3d 7b11 d0bd 583e 243d 77fe 1a3c
000001e0: 1d88 8bbd 59f1 bfbd 4511 023e f1e7 0cbe
000001f0: 8699 323e e1fe 303e 2ebf 31be 393e 57bd
00000200: 0f9b b9bd f648 8d3d 20c4 0ebe a491 4ebd
00000210: 2eb4 2dbe 99c4 d3bd 7a0b 1ebd ba55 4cbd
00000220: 0ee0 19be cadb 8ebd 9073 963c 64cc 583d
00000230: b542 9b3d 9db4 c63d ec04 e03d 1a85 c1bc
00000240: b038 ce3c 2b45 1f3d 24ac 8bbc eff7 b53a
00000250: b1e9 bcbc 8976 c43c d941 0c3e e2fd 743d
00000260: d194 11be 4a1c 2d3e c922 3e3d 1065 6a3d
00000270: 00fb 9fbd 8268 103d 0617 61bc 4189 83bc
00000280: 5931 20bd 243c 4e3d 9363 243e ba1f 083e
00000290: a6a5 64bd 7c66 593b c0ca c3bd 3655 2cbd
000002a0: 28bb 74bd 71ac 31be 8782 2f3e 88f0 2a3e
000002b0: 9e55 d23c fbd9 fabc d255 86bd 9f89 7d3c
000002c0: bdb4 52bd 0174 983d 86dd 163e f7bb 8ebd
000002d0: 3db9 b83c aa35 76bc 395e 9bbb 2af9 b9bc
000002e0: a984 2fbe bc92 dbbd d5ed bbbd 0c32 443d
000002f0: 6d56 323e 9480 8e3d 7e86 fdbd 3798 bfbb
00000300: 8399 b23d 63bc ed3c 947e 91bc 1af6 6ebd
00000310: 0d48 343e ba7b c23c d353 fbbc cd51 ad3d
00000320: ab0f 273e 4ccd 1f3e 3a7f efbd 94d8 353d
00000330: c195 27be 3c45 16be 6c16 a4bd ce2a 36bd
00000340: 12e5 1a3e 49a0 633a 4b52 d5bd 4c2e 89bd
00000350: 79a2 263e 1342 113e db21 f4bd 95ca 89bc
00000360: cab5 043e ad1d c73d 4fd8 123e a0e5 673d
00000370: 2bd5 04bd 28ab 9fbd 969c 2e3e 5f57 a9bc
00000380: 4e17 c1bb 4262 13be a0a1 95bd b434 203d
00000390: b83d 18be ab9d 1ebd b249 c13d 67f5 513d
000003a0: 4465 b33c 2b9e 973d 1431 863d c71f adbc
000003b0: 0323 48bb 938e 0fbe 3114 99bc 69b0 7dbd
000003c0: 5dbf a8bd a94c acbc fe1b 76bd 6970 bdbd
000003d0: a879 2b3e f80a 70bc 0762 5cbc dad7 203d
000003e0: 843e 11be eab9 c03a 4c7b 34be 9055 523c
000003f0: b655 33be 6012 dcbd 8923 3e3d 57d7 2bbe
0.16363992 0.12606502 0.17066987 -0.028742626 0.14074303 -0.16329853 -0.034263074 -0.09194176
0.16582529 -0.06859624 -0.14337075 0.1517851 -0.07770905 0.08632572 -0.13530654 0.11588455
0.020272166 -0.14731263 0.15937668 -0.05577774 -0.00034227228 0.055495027 0.12229018 -0.12736997
-0.0067673754 -0.105551094 -0.08134178 -0.13374694 0.03302417 0.092086636 0.12929468 -0.13848948
-0.018752325 -0.14188246 -0.06610724 -0.080421664 0.16866481 -0.1550298 -0.16224124 -0.17509641
0.0016819804 0.17543979 -0.08021612 -0.16301651 -0.0032119711 -0.02176611 0.052562904 -0.161863
-0.08246848 -0.053077534 -0.12396839 -0.048367627 -0.119795755 0.0819543 -0.12770155 -0.1238564
0.042019017 -0.051232822 0.14888628 -0.077882044 0.11014688 0.13754876 -0.026035598 0.021358363
0.0898748 -0.007847296 0.117000155 -0.01783212 0.14341952 -0.086187884 0.14588435 -0.057819735
0.0548021 -0.17530775 -0.013982915 0.15199457 0.030079313 0.042959686 0.026332486 -0.14571542
-0.052406725 0.032862704 -0.039563335 0.15375261 -0.045202244 -0.08712745 -0.06697566 -0.008683224
0.1428011 -0.029316172 0.15567704 -0.10147959 0.016844362 -0.16893512 -0.1412384 0.106472686
0.12732477 0.042560555 0.114360176 -0.009152108 -0.14793862 -0.04919577 0.06063229 0.031175252
0.06625424 0.107927874 0.11565145 0.106384754 0.08406736 0.056908038 -0.056970034 -0.17594782
0.087155074 -0.05670221 0.10120959 0.14067902 0.04990958 -0.10159584 0.040098518 0.009460083
-0.06813071 -0.09372205 0.127019 -0.13760354 0.17441377 0.17284729 -0.17358086 -0.052549575
-0.09062778 0.06898682 -0.13942003 -0.050431862 -0.16963264 -0.103402324 -0.038585164 -0.049886443
-0.15026876 -0.06975515 0.018365651 0.052929297 0.07581083 0.09702418 0.10938439 -0.023623038
0.025173515 0.038884323 -0.017049856 0.0013883094 -0.023060651 0.023982303 0.13696994 0.059812434
-0.14216925 0.16905323 0.046419892 0.057225287 -0.07811546 0.035255916 -0.013738399 -0.016056659
-0.03910956 0.050350323 0.1605361 0.13293353 -0.055822037 0.0033172658 -0.09560156 -0.04207345
-0.0597488 -0.17350937 0.17139636 0.16693318 0.025675591 -0.03062152 -0.06559338 0.015474706
-0.051441897 0.07444001 0.14732942 -0.06969445 0.022549266 -0.015027443 -0.004741457 -0.022701818
-0.1714045 -0.10721347 -0.09176222 0.04789929 0.17415781 0.06958118 -0.12379168 -0.005847003
0.08720686 0.029020494 -0.017760552 -0.05834017 0.1760561 0.023740638 -0.030679619 0.08462868
0.1631457 0.15605658 -0.116941884 0.044395998 -0.1636572 -0.14674848 -0.08012089 -0.044474415
0.15126446 0.0008683247 -0.10416087 -0.066982836 0.16272916 0.14185362 -0.1192052 -0.016820231
0.12959972 0.09722457 0.14340328 0.05661547 -0.032429855 -0.07796317 0.1705192 -0.020671545
-0.0058926707 -0.14392951 -0.07306218 0.03911276 -0.14867294 -0.038724583 0.094378844 0.051259425
0.021898873 0.07403215 0.0655233 -0.021133317 -0.0030538447 -0.14019231 -0.018686386 -0.061935816
-0.08239625 -0.021032648 -0.06008529 -0.09249956 0.16745627 -0.014651053 -0.013451106 0.039268352
-0.14184004 0.0014703844 -0.17625159 0.0128377825 -0.17513165 -0.10745692 0.046420608 -0.16781364

attention_modules.1.weight f4 [32, 32, 1, 1]
00000000: 0af4 873d fb51 083e b0a5 94bd 0733 8ebd
00000010: 2727 1c3c 95a0 343e d41f 233e 8669 203e
00000020: e6a7 44bd fee1 233e fff3 28be b083 73bd
00000030: ea48 d83c 0cde 92bc 0160 303e 3ccf 113e
00000040: 0177 053c aeee 813d 1a8c e5bd 5ab0 353e
00000050: f71c 083e 7236 593d a93e 15bd 8878 31be
00000060: 8d8b 31bd 3db6 4d3b e40b 323e 27d7 223e
00000070: 0e91 9d3d 1aa2 55bd 1338 10be b7fd 1b3e
00000080: c28c b53d 981a 10be 944e 92bd f09d 843d
00000090: 01a8 113e c7e8 2b3e 9619 d4bd dfcf 8cbd
000000a0: 2c7e 593d ad4a 123e 15f7 df3d 1fc9 9f3d
000000b0: fc0e d13b 7656 87bd 83b9 d8bd c631 a4bd
000000c0: 5864 ea3b 5f8a cdbd 356b de3d 0c4d 913d
000000d0: 9e1a b43c c9df cabc 699a 00be 1bf3 e6bd
000000e0: 0917 2ebe 5d07 33be 7eb3 acbd 6f15 dbbd
000000f0: bbc2 2fbe 449b 46bd 6984 d03d 206e 663d
00000100: cb10 53bd 4f5d 403d f58b d33d 723e 193e
00000110: eb10 1abe e07e debd 17c4 2a3e 01fd c8bd
00000120: a628 2d3e f57f e73d 625f 063e 0509 e1bd
00000130: 49ed 233e acb5 133e 407e ddbd 0bc4 85bd
00000140: bcdd c63b dc79 a4bd 83f5 0ebe 4373 73bd
00000150: 8e91 bd3d bbbd 7f3d f558 2fbe b128 7e3d
00000160: 54f9 963c c09c a73d b86d e13d 9b21 593d
00000170: 18ad debd b9e3 793d ce37 11be 941a 85bd
00000180: db3b b73d 0777 ad3d 9bc2 693d 75eb f6bd
00000190: 8c9f 213e f8e6 0fbd 2305 3abd 229d 92bd
000001a0: 247b 0a3e fcc9 053e e9d2 223e 8950 63bd
000001b0: fc6f b3bd 9167 20be 03ca 2e3e 3764 233e
000001c0: ab19 16bd 27a9 b6bd faca 483d 718b a9bd
000001d0: f521 c63d 4267 333e 1fc6 2f3e 2d33 2e3e
000001e0: 5046 00bc e43c 66bd b2bd 35bd 4ddf 01be
000001f0: 2e0d c03d c833 1bbe 72fe 96bd d14a cdbd
00000200: 8e3d cdbd 23ac eabd dc93 dc3d 3a78 283e
00000210: dc6c 1cbd da2d 9e3d b67d aebd e8ae fd3d
00000220: a37c 8dbd 3a05 2c3e f34b d53c 9b79 26be
00000230: 7a91 8a3d 5032 f4bd 72c0 d73d 0e40 d8bd
00000240: 75ab c83d bc34 d7bd fae5 1d3e 03d1 00be
00000250: 8d6f 543c 4c11 20be 893d 26be fcb7 113e
00000260: 8b68 2abe 491e ae3d 836e 08be 2e19 b7bd
00000270: a66d 02be 08bf 133e 82ed 80bd 9cf2 2f3e
00000280: e9c1 d03d 3fb7 8cbc bda6 e6bd ba0a 4c3c
00000290: 9b9c 313e 28ea ecbd 4536 b5bd 444c 5ebc
000002a0: a2bf dabc 344d fb3d 9bc6 28be f9fe fdbd
000002b0: 29be a13d 537f a33d 64c4 103e 943b c0bd
000002c0: b8be 87bd ec1a 0c3e 6aba 08be 7588 2b3e
000002d0: af78 bfbb 7357 c0bc 9853 1c3e 1eeb 4ebd
000002e0: d07a 5cbd 10c1 57bd 6a94 013e 4acb 0d3e
000002f0: d0ae 323e 0de3 7fbd fe41 1c3e 8f7d adbd
00000300: 13d1 103e 73bd 213e ce3e 92bd 77f1 1a3e
00000310: bfa7 203e fb99 ebbd 9d0f ecbd bf9b 0a3e
00000320: d773 a8bc b6e4 133b 60a6 c8bc e4df ab3d
00000330: f9ae 203d d50c c13c b52f de3d f676 ea3d
00000340: 969c d9bd 4a24 a8bd 85ea 32bd 4332 da3d
00000350: 26fa 5bbb 71b8 f0bc 518a b93d 69f4 c83d
00000360: 8d50 cdbb 095f f1bd 89ed 3a3d e2ba cb3c
00000370: 12b7 96bd 81d8 8b3d eaad 213e 836f c9bd
00000380: 4289 04be 85b8 8f3d 1bb8 993d 9988 aabd
00000390: c28a febc 605b ca3d ac36 cbbd 19fd d03d
000003a0: 2b45 983d 2ea9 d73d 111f 9ebb 9a23 cf3d
000003b0: 4cb0 45bd 72e9 193d 12d7 a3bd 130d e23d
000003c0: 2a73 2dbd c5b2 c9bd ccd5 313e 0b27 4b3d
000003d0: 1444 ea3d 8467 c73d 42c3 e93d e997 13be
000003e0: 81bc 48bd d944 e73d c3bb 83ba 3351 e53b
000003f0: 0357 c1bd f79d b33d 78ea 023e 1a62 213e
0.06638344 0.13312523 -0.07258165 -0.069433264 0.009530819 0.17639382 0.1593011 0.15665254
-0.048011683 0.16004178 -0.16499327 -0.05945176 0.026401956 -0.017928146 0.17224123 0.1423921
0.0081460485 0.06344353 -0.11208363 0.17743054 0.13292299 0.05303044 -0.03643671 -0.17331135
-0.043345977 0.003138914 0.17387348 0.15902387 0.076936826 -0.052156545 -0.1408389 0.15233503
0.08864738 -0.14072645 -0.07143894 0.06475437 0.14224245 0.16788016 -0.10356443 -0.06875586
0.053098843 0.14286299 0.10935799 0.07802033 0.00637996 -0.06608288 -0.105822586 -0.08017306
0.007153075 -0.10036158 0.10860292 0.07094774 0.021985348 -0.024764912 -0.12558903 -0.112768374
-0.17000975 -0.17483278 -0.08432673 -0.106974475 -0.17164128 -0.048487917 0.10181505 0.056257367
-0.051529687 0.046963986 0.10329429 0.14965227 -0.15045516 -0.10864043 0.16676365 -0.09813882
0.16910037 0.11303703 0.13122323 -0.109880485 0.16008486 0.14424771 -0.10815096 -0.06531533
0.0060689133 -0.08031055 -0.13960843 -0.059436094 0.09256278 0.0624368 -0.17123778 0.062050525
0.018429436 0.081841946 0.11007255 0.053010564 -0.10872859 0.06100819 -0.14181444 -0.0649921
0.089469634 0.08469968 0.057070356 -0.120566286 0.15783519 -0.03513238 -0.045415055 -0.07158877
0.13523537 0.13065332 0.15900768 -0.055496726 -0.08761594 -0.15664507 0.17069249 0.15956198
-0.036645573 -0.08918982 0.0490217 -0.082785495 0.096744455 0.17519858 0.17165421 0.1701171
-0.007829264 -0.056210414 -0.04437036 -0.12682839 0.09377514 -0.15156472 -0.0737275 -0.10024036
-0.10021506 -0.11458614 0.107703894 0.16452113 -0.038189754 0.07723589 -0.08520071 0.12386876
-0.06908538 0.16798869 0.026037192 -0.16257326 0.06766029 -0.11923659 0.10534753 -0.105590925
0.09798328 -0.10508105 0.1541976 -0.12579732 0.012966049 -0.15631598 -0.16234411 0.1423034
-0.16641442 0.0850187 -0.13323407 -0.089403495 -0.1273714 0.14428341 -0.06295301 0.17182392
0.101932354 -0.017177222 -0.112622716 0.012453729 0.17344896 -0.11568099 -0.08848242 -0.013567988
-0.026702706 0.12270585 -0.16482012 -0.12402148 0.07897598 0.079832695 0.14137417 -0.093863636
-0.066281736 0.13682145 -0.13352361 0.16751273 -0.005843244 -0.023479199 0.15266263 -0.050517194
-0.05382806 -0.052674353 0.12654272 0.1384708 0.17449498 -0.062472392 0.15259549 -0.08471214
0.14142255 0.15794925 -0.07140885 0.15131174 0.1568899 -0.11503979 -0.115264155 0.13535975
-0.02056305 0.0022566742 -0.024493396 0.08392313 0.039229367 0.02356569 0.10848943 0.11448471
-0.106255695 -0.082100466 -0.043680687 0.10654118 -0.0033565848 -0.029384824 0.09059585 0.098122425
-0.006265706 -0.11785705 0.045636687 0.024869386 -0.07359137 0.06828404 0.15788999 -0.09835722
-0.12942985 0.07017616 0.075058185 -0.08326835 -0.031072024 0.0988071 -0.09922537 0.102045245
0.07435068 0.10530315 -0.0048254807 0.10114212 -0.048263833 0.037576146 -0.08000006 0.1103765
-0.042346157 -0.09848551 0.17366713 0.04959778 0.11438766 0.09736541 0.114141956 -0.14413418
-0.049007896 0.112924285 -0.0010050464 0.006998205 -0.09440424 0.08770364 0.12784755 0.15760079

attention_modules.2.weight f4 [32, 32, 1, 1]
00000000: 22af 90bd 4144 fbbd d5fa bebc 23a4 c43d
00000010: febe 91bd 79ac 283e 78fa 3cbd a4cd 233c
00000020: b845 083e 788b 813d d622 95bc 1695 9bbb
00000030: 0931 1c3e bd78 1a3e b76d d13d 6200 b43d
00000040: fab4 5d3d f864 afbd 694a 763d 3497 8ebd
00000050: ac51 d3bd e570 c1bd 735b dbbd efc7 b53d
00000060: fc3e 033e 7aa8 c43c b6be 12be 1601 10be
00000070: ace3 aabd 7baf 2c3e d68e 0abc c2b3 2ebe
00000080: 7f9c 583d 9284 883d a03b b0bd dcd4 793d
00000090: 8494 a5bc 1ac1 7b3d 738a d93d c90e 4abd
000000a0: 2a8c 01be 22d8 25be 03ec e63c a63c 153e
000000b0: 34b4 eebd f0e3 1cbe 4597 14bd 454d 5ebd
000000c0: 9548 e03c 677c 073e cc6e e43d 909f 9e3c
000000d0: 7ab2 01bd 994b 33bc f330 2bbc be1a 9e39
000000e0: cc61 b0bd 6749 00be b5f7 17bd c5be 7f3c
000000f0: d1ea 9ebc 1ad1 6a3c 0348 cb3d 65b1 263e
00000100: 22bc fa3d 1618 663d d6c8 71bd 4e27 983d
00000110: 0887 babc 91a7 8b3d fce0 0e3d 8794 94bd
00000120: 466f 883d b3d2 04be e353 303e 3fd0 153e
00000130: da9b 9fbd a657 de3d f6d7 933d 4823 0ebe
00000140: 2b3b c4bd 7c56 debd 3186 2bbe dc6c 633d
00000150: 1746 923d 1c59 ba3d 8583 17be 27c1 5e3d
00000160: 8401 7abd ab11 2dbe 6713 a6bc 4c8c 83bb
00000170: aa71 17be 445b 28bd 9298 9abd 89df 0fbe
00000180: 666f df3d e5ce d4bd 9d8f b63d a3b0 1f3d
00000190: 3aaa 803c e90c 253e a93b 323e e71e 02be
000001a0: d677 f0bc 35ca 2f3d fdd4 023e cd84 0a3e
000001b0: a265 f0bd 807d c7bd 615b 0ebd 0854 403b
000001c0: 6cdf 27bd 380b 5cbd ebb2 cfbd 96c6 86bd
000001d0: cf51 18be c930 f0bd 2690 8e3d 1729 b1bd
000001e0: a8ad f63c bc52 a13b 30d0 dd3d 98b4 8d3d
000001f0: 2c30 8bbd bf2c 14be 10ff 02be c4b0 f63d
00000200: 6faf 04be 761b 083e 11ea 36bd 7352 983d
00000210: 5e65 59bb 2e98 91bc b392 cbbc b6bf 32be
00000220: 4e45 30be 1428 123e 0ee5 4dbd 4631 133e
00000230: 6d8d 143e 291f 083e 3bc1 a3bd f484 913d
00000240: 7133 16be 0dd0 163e 8eda 013e 9c89 483d
00000250: 5465 d5bd ef0f 96bd e505 b8bb 5ec7 ca3d
00000260: f227 f6bd 2d45 d5bd a16f c7bc 1de8 a7bd
00000270: 6c26 7b3d 9121 e5bd ae9d d5bb de62 793d
00000280: 6ce6 e5bd 308a e6bd ebe0 103e 3668 1abe
00000290: 9eb6 ffbd 00d9 103d 0207 96bd 202e d93d
000002a0: dfa0 e83c 7ffe ad3d a74b e2bd 696b 1bbe
000002b0: 0b44 09be b14c 143e 8bd6 203e 84d8 2e3e
000002c0: a2a7 8dbd d6aa 99bd 72c7 9ebc 59db 863d
000002d0: 6626 00bd 71c6 823c 5fdb 2bbe f351 e73d
000002e0: 2934 ca3d 8ecc 19bd dc30 11be 845c 323e
000002f0: 4f7a debd d190 a13d de33 07be 1c1f 2cbd
00000300: e47b 623d ddc5 433b 7ee9 bd3c 8abe d93d
00000310: 2e21 eb3b c043 4cbd e3e8 8ebd f56e b23d
00000320: d7b2 0fbe d39a e03d 3243 0cba 2213 38bd
00000330: 9ee3 09be 30f1 5ebd b80a f03d 42c3 1a3d
00000340: e516 cebd 8134 ffbd 260c e43d 35d7 b2bd
00000350: 5612 e23d a24a 2ebe 31a9 463d 0444 853d
00000360: 6f05 b83c e4b4 f9bd 99f7 b3bd 2782 b73d
00000370: ba04 9fbd 4f83 a1bc ab5e 32be b074 263e
00000380: de9b c0bd 4c1f 0e3d 8bcc 7fbd efc8 f0bd
00000390: 135e e9bd 1fe9 223c 219f a53d 0f63 dd3c
000003a0: 88d3 323c a408 e03d f723 1dbe c265 093e
000003b0: 2603 53bd 9eb0 05be 6d11 04bd dbef 343d
000003c0: ffd7 08bd 7957 11ba b13b 9abd 0003 bc3d
000003d0: 1f6e 0e3e f5bc 293e 2739 aabd 88e4 2a3e
000003e0: 373e 5c3d f051 023c 686d a5bd b446 bbbd
000003f0: e633 70bd 45b7 e6ba cca8 67bd 340f 15be
-0.07064654 -0.12268878 -0.023312965 0.09601619 -0.07116507 0.16472043 -0.046137303 0.009997759
0.13307846 0.0632543 -0.018205088 -0.004747997 0.1525308 0.1508512 0.102260046 0.087891355
0.05412767 -0.0856418 0.060129557 -0.069624335 -0.10318312 -0.09445361 -0.10710802 0.08876025
0.12816995 0.024006117 -0.14330563 -0.14062914 -0.08344206 0.16863815 -0.008456906 -0.1706076
0.05288362 0.06665911 -0.086051226 0.060994014 -0.02021242 0.061463453 0.1062211 -0.049330506
-0.12651125 -0.1619573 0.028188711 0.14573917 -0.11655465 -0.15321326 -0.036277074 -0.05427291
0.02737836 0.1323105 0.11153945 0.019363195 -0.03166435 -0.010943317 -0.010448682 0.00030156033
-0.08612403 -0.12528001 -0.037101466 0.015609448 -0.019399079 0.01433208 0.099258445 0.16278608
0.12242915 0.056175314 -0.059029423 0.07429372 -0.022769466 0.0681907 0.03488253 -0.07254892
0.06661849 -0.12971 0.172195 0.14630221 -0.07793398 0.10856561 0.07218926 -0.13880646
-0.09581598 -0.10856339 -0.16750409 0.05552374 0.07142275 0.090990275 -0.14796264 0.054383423
-0.0610366 -0.16901271 -0.020272924 -0.0040145274 -0.14789453 -0.041102663 -0.07548632 -0.14050116
0.109099194 -0.103910245 0.08914111 0.038986813 0.01570617 0.16118206 0.17405571 -0.12707101
-0.029354017 0.04291745 0.12776561 0.13527222 -0.11738135 -0.09740734 -0.034755114 0.0029346962
-0.040984556 -0.053721637 -0.10141548 -0.06580846 -0.14874958 -0.11728055 0.06961088 -0.086504154
0.030112103 0.004923193 0.10830724 0.06919211 -0.067962974 -0.14470194 -0.12792611 0.12045434
-0.12957548 0.13291726 -0.044656817 0.07437601 -0.0033171992 -0.01777276 -0.024850225 -0.17455944
-0.17213938 0.14273101 -0.05026727 0.14374265 0.14507075 0.13293137 -0.0799584 0.07105437
-0.14668061 0.14727803 0.12681028 0.04895936 -0.104197174 -0.07327258 -0.005615937 0.099013075
-0.12019338 -0.10413585 -0.024345221 -0.08198569 0.06131594 -0.11188043 -0.006519041 0.060885303
-0.1122559 -0.11256826 0.141483 -0.15078816 -0.12486003 0.035363197 -0.073255554 0.10604501
0.028397022 0.08495807 -0.11049586 -0.15177692 -0.13404863 0.1448238 0.15706842 0.17074782
-0.06916739 -0.075032875 -0.019382212 0.06584806 -0.03128662 0.015963765 -0.16782902 0.112949274
0.0987323 -0.037548594 -0.14178795 0.17418104 -0.10863172 0.0788895 -0.1320338 -0.042021856
0.055293933 0.0029872574 0.023182627 0.106320456 0.007175586 -0.0498693 -0.06978013 0.087125696
-0.14033066 0.109670304 -0.0005350589 -0.04494012 -0.13465735 -0.054429233 0.117207944 0.03778387
-0.100629605 -0.12461186 0.1113513 -0.08732454 0.110386536 -0.17020658 0.048501197 0.065071136
0.022463528 -0.12192705 -0.0878746 0.089603715 -0.077645734 -0.019715933 -0.17418925 0.1625545
-0.09404729 0.034697816 -0.062450927 -0.11757075 -0.11394896 0.009943276 0.08086992 0.027024774
0.010914691 0.10939148 -0.15345751 0.13417724 -0.051516674 -0.13055655 -0.03224318 0.044174057
-0.033409115 -0.00055443455 -0.075309165 0.0918026 0.13909195 0.16575988 -0.08311682 0.1668874
0.05377027 0.007954106 -0.08077508 -0.09144345 -0.058643244 -0.0017602226 -0.05655746 -0.14556581

attention_modules.3.weight f4 [32, 32, 1, 1]
00000000: 9118 31bd 6f04 0bbe 3da6 5cbd b04f 24be
00000010: 0c58 3cbb fd1a 0abd 29b9 0fbe 282f 9ebd
00000020: 2e2c 10bb f634 9d3d a92f 56bd 0c01 b6bd
00000030: 9003 f5bc 058e 263e 09e0 e43c ad2b 3bbb
00000040: bb18 323d eb11 1fbe 1ffa 81bd 7d86 9a3d
00000050: 0637 93bd 59a1 08be d08f bebd 7757 e1bd
00000060: 37db fb3c 742a 773d 8764 073e d3f4 2abd
00000070: 1aa4 5e3d 1618 cc3d 34de afbb 4c5e dabd
00000080: 7cee 11bc c3e4 9a3d c7b1 253e f428 91bd
00000090: ea0b 893d 7d29 2abe 40bc fc3d e37a 1c3e
000000a0: b025 22be 3d93 183e bd92 62bd 3a2d 99bd
000000b0: 4994 eabd e29a c7bd 986f 323d 028a ad3d
000000c0: 8a04 4a3d 25f7 ae3c 2bdc 0ebe dff5 343e
000000d0: f91c 9eba 194e d0bd 0150 e9ba f337 9b3d
000000e0: 6f03 0e3e c44c c83d 2f87 3b3b 05bb a53d
000000f0: e37e 103e 4ecb 0e3e 82ee 733d b14d cebc
00000100: 2e3e 1b3e c15b 5fbd a532 053e 7928 d63d
00000110: 7ef3 d1bd 3a27 d9bd 917e 2bbc 7eeb 483d
00000120: 8abf 693d 8ce1 c8bd 20b3 f8bd 389d b4bd
00000130: b8b1 89bd 1cc0 1cbe aca8 033e 09ae 333e
00000140: 48bb f1bd e4e9 8f3d d512 3fbd cd51 043e
00000150: 8e6c 1dbe 47ab 293e 59f0 e93d 3d9a 133e
00000160: b058 fb3c 6dda dc3d a8eb 093e 2ee9 12be
00000170: 04e7 413d a874 913d a377 8fbc 9ece 80bd
00000180: 6a50 dcbd 4137 99bd 0951 973d d2e9 283e
00000190: f499 663d 115d b23d 9ed8 67bd 1a15 7c3d
000001a0: ce0c ee3b 4f82 dbbd 06d9 14be 83a1 17be
000001b0: 7109 953d fda3 f2bd c253 23bd 8c6a 77bd
000001c0: 3247 93bd ff0e bdbd 8b25 12be 5d2b 62bd
000001d0: 6a3c dcbd e0d0 0abc 7ae2 2cbe 538b cd3d
000001e0: e8ba 60bd e966 063e 1cba 2e3d cd1a 783d
000001f0: a534 b6bd 344b 183e b982 adbd 1b0e f43d
00000200: a7cd eebd bf00 31bd 2bd1 123e bde3 08be
00000210: 19bc e23d 33a5 2a3e 6f55 0f3e 6744 cdbc
00000220: 1972 07bd 2283 2e3e e2bf 273e cb53 09be
00000230: 4222 0a3e e0c7 343e f45a 5a3d dc79 3dbd
00000240: 21a4 09bd 52d0 cb3b 1002 183e c65f b5bc
00000250: b299 33be ea3f d0bd 4bb2 053e a6d0 b13d
00000260: e113 0a3e dd6a 0c3e 2a87 6f3d 5cd0 9ebd
00000270: 50e6 b2bd b4c0 2d3d b739 27be 144c 5cbd
00000280: 4848 87bd 0086 69bd aab6 fd3c edac 0dbd
00000290: a992 95bc e2f9 153c a170 dd3d 9706 06be
000002a0: 7b5a 3f3b 215a 07be 6678 e1bc 97fc 0abd
000002b0: 3a56 203e 7a5f a13c 2160 29be 3d4d 09be
000002c0: 1d41 2abd a428 173e 79d9 953d 8245 2cbe
000002d0: 0191 103e 92d5 813c 83f3 2c3e 21fa d83d
000002e0: 2526 323e 800e ba3d e73a 04be fa02 643d
000002f0: f7eb 2fbe a893 f0bd 5cbb 88bd 45f1 033e
00000300: 565d 5c3d 4396 24be e9f2 783d 2399 293c
00000310: e75e f1bd 17df fabc 4f82 0b3e 2535 1cbe
00000320: 6762 b0bc a570 503c 53bd e83d 3c94 6a3d
00000330: fe1f e3bd 65a7 fc3d 40b9 2f3e 97ae 46bd
00000340: 5cff 2dbe 8659 343e d3a9 e6bc f28a 2fbe
00000350: 4b8a 133d 74f8 f33d 7b8a 9cbd d952 29be
00000360: 6d30 013e 902b cdbd abb2 d83d a688 07bc
00000370: 65c1 8d3d 6c1a e6bc a81e 20be 9e49 513d
00000380: d2c7 d3bd a0bc c63d 7248 8a3d a511 2abd
00000390: 4cd3 2f3e 71f1 adbd 3b78 113e df19 573d
000003a0: ed37 493d 3ead bd3d 8fd8 143d 5874 fdba
000003b0: 61d6 c63d 507e 58bd 0061 10be e62b f53d
000003c0: 98d5 1abe 9c23 e9bd 686d d73d bca8 13be
000003d0: 1ff9 823c 3ca1 94bd fd2b 2bbd 3d8d a83d
000003e0: 9c31 26be 3e72 c4bc 38e9 babd 5015 333e
000003f0: d7d1 8bbd e99c f33d 16b0 423d e466 c13c
-0.04323632 -0.1357591 -0.053869475 -0.16046023 -0.0028739003 -0.033717144 -0.14035477 -0.07723838
-0.002199899 0.07676117 -0.052291546 -0.088869184 -0.029908925 0.16265114 0.02793886 -0.0028559968
0.043480616 -0.15534179 -0.06346535 0.07545183 -0.07188229 -0.13342799 -0.09304774 -0.11003011
0.030744178 0.06034322 0.13221942 -0.04173739 0.05435572 0.099655315 -0.005367065 -0.10662517
-0.008906957 0.07563164 0.16181098 -0.07087889 0.066917256 -0.16617389 0.12340593 0.15281253
-0.15834689 0.14899917 -0.05531572 -0.074793294 -0.114540644 -0.097463384 0.043563455 0.084735885
0.049320735 0.021358082 -0.13951175 0.17671917 -0.0012063078 -0.10171146 -0.0017800332 0.07579031
0.13868497 0.09780267 0.0028614511 0.08092312 0.14110903 0.13944742 0.05955363 -0.02518353
0.15160438 -0.054530863 0.130076 0.10456938 -0.102515206 -0.10603185 -0.0104671875 0.049052708
0.05706743 -0.09808645 -0.121435404 -0.088190496 -0.0672335 -0.15307659 0.12857312 0.17546858
-0.11803299 0.07027033 -0.04664882 0.1292183 -0.15373442 0.16569243 0.11422796 0.14414306
0.030681938 0.10783849 0.13468802 -0.14346763 0.047339454 0.071023285 -0.017513102 -0.06289409
-0.10757525 -0.07481242 0.07388503 0.16495445 0.056299165 0.08709157 -0.056603067 0.06154356
0.00726471 -0.10718214 -0.14535913 -0.14807706 0.072771914 -0.118476845 -0.0398748 -0.060404345
-0.07191314 -0.09231376 -0.14272134 -0.055217136 -0.107537106 -0.008472651 -0.16883269 0.100363396
-0.054865748 0.13125195 0.042657956 0.060572434 -0.0889676 0.14872438 -0.08472199 0.11916753
-0.11660319 -0.043213602 0.14337604 -0.13368125 0.11071033 0.16664581 0.13997434 -0.02505703
-0.033067796 0.1704221 0.16381791 -0.1341087 0.13489631 0.17654371 0.053309396 -0.046258792
-0.03360379 0.006219902 0.14844537 -0.022140395 -0.17539099 -0.10168441 0.13056295 0.08682375
0.13484146 0.1371264 0.058478512 -0.07754585 -0.08735335 0.042420104 -0.1633061 -0.05378349
-0.066055834 -0.057012558 0.03097089 -0.034588743 -0.01825841 0.009153815 0.10812498 -0.13088451
0.0029198218 -0.13217975 -0.02752323 -0.033932295 0.15657893 0.019698847 -0.16540577 -0.1340837
-0.041566003 0.14761597 0.0731687 -0.1682339 0.14117815 0.015848909 0.16889767 0.10594583
0.17397363 0.09084797 -0.12913094 0.0556669 -0.17179857 -0.11746913 -0.06676361 0.12885006
0.05379995 -0.16072945 0.060778532 0.010351452 -0.11785679 -0.030623956 0.13623928 -0.15254648
-0.021531297 0.012722169 0.11364236 0.057270274 -0.110900864 0.123366155 0.17160511 -0.048506346
-0.16991943 0.17612275 -0.02815715 -0.17142847 0.03602056 0.11912623 -0.076436006 -0.1653551
0.12616129 -0.100180745 0.10580953 -0.008272326 0.06921653 -0.02808877 -0.15636694 0.051095597
-0.10340847 0.09703946 0.06752099 -0.041520733 0.17170447 -0.08493317 0.1420602 0.052514907
0.0491256 0.09261559 0.03633934 -0.0019337041 0.09708858 -0.052854836 -0.14099503 0.119712636
-0.15120542 -0.11383745 0.105189145 -0.14419836 0.01598793 -0.072573155 -0.041789997 0.08230064
-0.16229862 -0.023980256 -0.09126514 0.17488599 -0.06827133 0.118951626 0.04753121 0.023608632

attention_modules.4.weight f4 [32, 32, 1, 1]
00000000: 5b9c 2c3e 5bf2 dc3d 2733 103d 1998 ad3a
00000010: 3bb8 07be 802d 3a3d 6dbe 4b3d e0ba 5b3d
00000020: 3983 8abd 4433 b13d 4d1a 483d 2e08 cc3c
00000030: 70c8 c1bd 94ee f3bd b139 223c 2363 ea3c
00000040: f78e 1fbe 7189 08be 11f7 e2bc ea5c 42bd
00000050: 593e 62bd 49c6 813d f116 723d 62ce ce3d
00000060: e028 9d3d ba91 da3b 2b68 de3d b7d3 15be
00000070: 1366 98bd 027e cabd 6f22 63bd 6de6 b4bd
00000080: c0b5 cebd 13d5 193e c35f 07bd 3769 6fbd
00000090: 5edd e0bd 7213 9c3d fea4 e93d 3881 cbbd
000000a0: 5280 febd da9c e4bd dcd5 703d a41a adbd
000000b0: e7a9 aabd 754d 0dbd a61e 7ebc fc22 f5bc
000000c0: fd1a 55bb 6634 383d e8c3 68bd ed00 a0bd
000000d0: 5118 24be 18bd 0b3d b7c2 8d3d bd49 15bd
000000e0: fcc0 3f3c 9c96 98bb 0c1a 2bbe 7e71 ac3c
000000f0: 3f8f 9abd 4775 21be a8ee 1f3e 74a1 103e
00000100: 34a2 e23c 21e8 26be e825 dc3d 881f d6bd
00000110: 405a 1ebe 26fa 5cbd 5e9f 33bd 2c2c 2ebe
00000120: 2d0c 533d c866 e8bd c2f1 38bd 98f8 c4bd
00000130: d985 7bbc 58f5 3bba fdf2 b63d 9493 943c
00000140: c0d2 343e 9749 1bbe 72e2 cdbd 6dc7 acbd
00000150: 00fa b53d 578a 5bbd add4 343e 8099 0cbc
00000160: 912a 89bd b8cf 123c 22cb 033d f6a4 60bc
00000170: fbd6 ca3d d276 2bbe ce92 0cbe 15bc 263d
00000180: 409a ecbd 4141 193e e0bc e6bd cf74 0a3e
00000190: 8764 05be ce04 103e 27fb 9f3d 37b6 ff3d
000001a0: 7bdd 4a3d 5149 df3d 8f58 c1bd bcf5 15be
000001b0: 1190 c93d bb43 b3bd ee91 c83c e3c6 c13d
000001c0: 51aa efbd 1b39 073e f0d6 183d 5044 063e
000001d0: 19ba c2bd 6e69 283a 52fb a53d 5633 1c3e
000001e0: d608 32be aad1 d13d a271 b9bc 285e 903b
000001f0: 9a1b a03d 5c5c e83d bd3b d73d 10c9 f83d
00000200: 720b 183d 6c11 bfbd 20d9 093e ea0c 1cbe
00000210: 2734 16be ae5e 893d 62e8 d93c 6e4f 603d
00000220: f2c1 cdbd c54a ffbd e824 1f3e 9574 2c3e
00000230: d49f 9f3d 98dc 083d fc8a 0f3d 7bb1 13bd
00000240: d52a 313e af1f 48bd 87d3 11be 790c a73d
00000250: 2923 5a3d b67f de3d 7c34 e9bd 2ac5 d23d
00000260: d1f0 1cbe ffc7 3cbd 9410 ef3d da90 233e
00000270: 7636 0abe 18bc 23bd fe17 bb3c 7a3d b23d
00000280: 21d1 f1bd ce7c 8fbd 9d92 833d e04f 07be
00000290: 3a76 683c 37a8 5b3d a1da 0bbe c6f9 93bd
000002a0: 13d4 203e 6e1a 16be b82b a63d a0e5 bfbd
000002b0: 61e8 cebd 9276 86bd e73f 5cbc 0989 88bd
000002c0: aff9 f33d 4c9b 02be f4f1 253e 07d7 b33b
000002d0: b85c b03d 6aa8 0abe 2734 34bc 8e2c ecbc
000002e0: a98d 613d 994f f93d 8869 79bd 931d 1abe
000002f0: 338d 283e 30fd 25be 82cd 933c df99 23be
00000300: 81fc e4bd 2cdc cabd 7a27 d7bd cad3 03be
00000310: 6c83 163e d953 6e3d 868e 4b3d d8ed d83b
00000320: 6ff2 ddbd 7de8 2cbe 63c3 44bc 7386 80bd
00000330: b582 a5bd ea3e 8bbc a4dc a2bd 482a cebd
00000340: 7590 223c efd7 a7bc c364 b53d 90f8 efbd
00000350: 5212 cabd 990b dabd e64b 203e 86f5 553d
00000360: f5d7 b83d d9d1 d7bd 8ec7 4e3d f50c 033e
00000370: 2136 193e 3d8a 08be b9ef 67bd 4f3e 303e
00000380: b651 68bc dfa1 1dbd 8490 293e 47c9 bdbd
00000390: acf5 cc3d 8395 153e c15a b93d d4ef 403d
000003a0: 5e5f 803c fb78 033e cbc7 253e 5e2f 1e3e
000003b0: 581c 033d 3fb0 07be a1af b83d aaa8 dfbd
000003c0: e83c 22bd b22f f3bd 1804 8a3d e039 22be
000003d0: e111 65bd d0c9 2c3e e210 c73c fc13 103c
000003e0: 8d05 b53d b20d 61bd 4f17 cbbd 0161 87bd
000003f0: 8066 19be dcf3 12be 9607 d33d b62e e73d
0.1685652 0.10788413 0.035205033 0.0013244181 -0.13253872 0.04545355 0.04974215 0.053645015
-0.0676331 0.08652356 0.048853207 0.024906244 -0.094620585 -0.119107395 0.00990145 0.028611725
-0.1558188 -0.1333368 -0.027705701 -0.04745189 -0.05523524 0.06336648 0.05910391 0.10097958
0.07673812 0.006670204 0.10859712 -0.14631544 -0.07441344 -0.09887315 -0.05545276 -0.08833013
-0.1009326 0.15022688 -0.03305031 -0.05844995 -0.109797224 0.076208964 0.11408423 -0.09936756
-0.12426819 -0.111627296 0.058797702 -0.08452347 -0.083331876 -0.034497697 -0.015510237 -0.029923908
-0.0032517307 0.044971846 -0.056827456 -0.078126766 -0.16024901 0.03411588 0.069219045 -0.036447275
0.011703726 -0.004656626 -0.16709155 0.021050211 -0.07546853 -0.15767394 0.15618384 0.1412409
0.027665235 -0.16299488 0.107494175 -0.10455233 -0.15464115 -0.053949498 -0.043853156 -0.17009038
0.051525284 -0.11347729 -0.045152433 -0.09617728 -0.015351736 -0.0007170043 0.08933065 0.018136777
0.1765852 -0.15164791 -0.10052957 -0.08436475 0.08885574 -0.053598728 0.17659254 -0.008581519
-0.06697572 0.008960657 0.032176144 -0.013711205 0.099042855 -0.16744545 -0.13727877 0.040706713
-0.11552858 0.14966299 -0.11266494 0.13521121 -0.1302663 0.14064333 0.078115754 0.124859266
0.049527626 0.10902656 -0.09440719 -0.14644521 0.098419316 -0.08753153 0.024483647 0.09461763
-0.11702407 0.13205378 0.037314355 0.13111997 -0.095081516 0.00064244017 0.08104576 0.15253958
-0.17386183 0.10245068 -0.022637192 0.0044057555 0.078177646 0.11345741 0.10509441 0.12147725
0.03712029 -0.09329495 0.13461733 -0.15239301 -0.14668332 0.06707512 0.026600067 0.05476325
-0.10046758 -0.12465433 0.15541422 0.16841348 0.07794157 0.0334135 0.035044655 -0.03605793
0.17301495 -0.04885834 -0.14240848 0.08156676 0.053256188 0.10864203 -0.11386964 0.10291512
-0.15326239 -0.04608917 0.11673084 0.15973225 -0.13497338 -0.039974302 0.022838589 0.08703132
-0.11807466 -0.070062265 0.06424449 -0.13214064 0.014188344 0.05362722 -0.13657619 -0.07225375
0.157059 -0.1465852 0.081138074 -0.09369969 -0.101029165 -0.06565584 -0.01344297 -0.066667624
0.11912858 -0.12754554 0.16205579 0.0054882797 0.08611435 -0.13540807 -0.010998762 -0.02882984
0.05506674 0.12173385 -0.060891658 -0.15050344 0.16460113 -0.16209865 0.01804233 -0.15976666
-0.11180974 -0.09905276 -0.105055764 -0.1287376 0.14698571 0.058185432 0.049696468 0.00662015
-0.10837256 -0.16885562 -0.012009474 -0.06275644 -0.08081571 -0.016997773 -0.0795224 -0.10066658
0.009922137 -0.020488707 0.088571094 -0.117173314 -0.098667756 -0.10646743 0.15653953 0.052236103
0.090255655 -0.10538072 0.05048328 0.12797911 0.14962055 -0.13333984 -0.0566251 0.17211269
-0.014179638 -0.03848445 0.16559035 -0.09266906 0.10007796 0.14607815 0.09050513 0.047103718
0.015670475 0.12839119 0.16189496 0.15447757 0.032009453 -0.13250826 0.090178736 -0.10920842
-0.039608866 -0.118743315 0.06739062 -0.1584239 -0.055925254 0.1687386 0.024300043 0.008793827
0.08838949 -0.0549447 -0.09916555 -0.06610299 -0.14980507 -0.14350837 0.10304181 0.11288206

attention_modules.5.weight f4 [32, 32, 1, 1]
00000000: 2272 e4bd 7aae 303d 47dd 723b 4948 0b3e
00000010: b13d 33be b109 afbd bf45 b1bc 143f cabd
00000020: ed1d b8bd f098 0ebe 2ae9 e33d 58b3 eebd
00000030: 65c4 23bd 8cfc b4bd 4d9f 5fbd 394b 0bbd
00000040: 1a89 f3bd 2b97 0d3e 5cff 09be 23fe 39bd
00000050: ef17 403d fa98 193a 4941 193e 91b4 19be
00000060: ee00 5abd da7e 2cbe b33f 3fbd d012 f63d
00000070: 2389 49bd 6ac4 2bbe fde1 b33d 4eea a3bc
00000080: 9fae f4bd bf03 25be db9b b73d 3ac6 a9bd
00000090: c4d3 6b3d 721e 713d 073d a1bb e472 1a3e
000000a0: c10b c9bd 7cd7 a33c fac2 a33d 7b2e d0bd
000000b0: 8b08 0ebe 54ff 293e 1680 ef3d 5c36 52bc
000000c0: 687d 283c 47f7 0f3d 72a6 28be 2039 143e
000000d0: 0121 3ebd 9d03 f3bc 6e71 28be 1006 f1bb
000000e0: 16ef c03c 1c0f e43c ce2c 29be 324d e13d
000000f0: 4352 573d 645d 203d faf8 e03c c145 533c
00000100: e9f5 aabd a3b9 8e3d 95fb 1d3e 19e3 813c
00000110: ffae 503d 5fd0 b03d eb7e 29be 8391 2c3d
00000120: b4f7 52bc ac02 c9bc 2745 5c3c eccb 29be
00000130: 6df6 913d 8bdc 1fbe e711 08be 8616 f2bd
00000140: 98ff fe3d 35e5 ab3d 0710 0dbd 3453 76bd
00000150: 592f ab3d 59dd 3ebd 0044 223e 0bfc 87bd
00000160: 03b3 243e ed16 ec3d 428e 023e 6f86 c5bd
00000170: a70e d73d ba48 18be dc0b 98bd d283 20be
00000180: 1db5 c23d 40e7 b2bd 735a 7abc 8f17 2abe
00000190: 7ff6 82bd 8320 a63d aada 153e d4b2 943c
000001a0: 0d09 e1bd cd74 fc3d c15a 173e 5de4 79bd
000001b0: ddfd 1ebd 2718 813d 10f7 313d b2bb db3d
000001c0: 4fb3 03bd 7942 e33c 19e1 0ebd 3ae1 f9bc
000001d0: da9b b83d 81d2 29be ab83 01be b58f dfbd
000001e0: 6712 23be b346 74bd f5e3 173d 98c2 2f3d
000001f0: d16e dcbc 6c30 233e e24c dd3c fb9b 03be
00000200: 6991 06be 183a 2d3e 9924 0e3d 216a 0cbe
00000210: f1d3 633c 4639 f0bc e8ff 2b3e 0e3c 303e
00000220: 160c 073d fb84 dcbd 60fd f8bd 1823 073e
00000230: 7143 173e b691 a73d ed89 28bd 8c61 cabd
00000240: 7185 873c 5eac 503d 615c 8fbd a559 f43d
00000250: ee7c c1bc 8dae c6bd d2eb 013d 540a c2bd
00000260: dafe 33be d5c9 c63d 8f3c 20be 6990 dfbd
00000270: 6ee9 d6bd 7ab9 26be 4b8a 443d 8174 d63d
00000280: 94a6 46bd 4922 123c ff37 34be 6656 1cbe
00000290: b4f0 e53d 734d ecbc 699a edbd dc96 20be
000002a0: 079a 1f3e e7ee 27ba 0c3a 27be d240 eebd
000002b0: a55c 5d3c 4592 2b3e f8d8 2cbe 7be1 2d3e
000002c0: 13bb 23be 8ac6 85bd 3060 56bc cf20 303d
000002d0: 5782 a9ba 7870 033d bf79 243d 4904 2d3e
000002e0: 1b6b b1bb f476 b73d 7f35 bd3d 1c8a ecbc
000002f0: 2959 3f3d dfd7 8bbd a072 eebd a15e 27be
00000300: b771 803d b539 6b3d f325 ea3d 0b5b 2bbe
00000310: a5c6 a83b e269 8dbd 9973 e6bd 63a8 8738
00000320: 1dcf 2bbe e710 923d c547 12be e7b8 bcbd
00000330: 8e40 5f3c 616e 043e cd5c 30be e6f8 8abd
00000340: b7a1 63bd 7edf fcbd fb78 10ba 0dbd d83b
00000350: 8e4c 053e fa6e c43d c5c6 1a3e 8bed 243e
00000360: 3687 acbd 7de4 1ebd a744 2d3e 8b26 a3bd
00000370: 05c0 5ebd afb5 cd3d a4cf 40bd 695d 69bc
00000380: 0d53 9cbd c0ab fc3d f00f 90bd 4921 98bd
00000390: 1204 28be 0001 173d d2f6 963d e9c2 42bd
000003a0: f328 603c ec28 bcbd bb31 163e 30ca ccbd
000003b0: 3c0d 853d e549 dc3c bb7b 8ebd 5369 093c
000003c0: baf1 2e3e b69d 2dbe 408b 9abd 4696 80bd
000003d0: 72a9 053b 157f de3d 706f 113e f104 cdbd
000003e0: b332 2b3d 98cc b03c aa37 0c3e e49f 033e
000003f0: d4ba 8a3c 8f26 c23d 68e3 17be 480f f9bd
-0.111545816 0.043135144 0.003705816 0.13601793 -0.17504002 -0.0854677 -0.021639703 -0.098753124
-0.08990083 -0.13925529 0.11128457 -0.11655301 -0.03998222 -0.08837232 -0.05459528 -0.034007285
-0.118913844 0.13827197 -0.13476318 -0.04540838 0.046897825 0.0005859282 0.1496631 -0.15010287
-0.053223543 -0.16845265 -0.046691608 0.12015307 -0.04920305 -0.16774145 0.08783338 -0.020009186
-0.11947369 -0.1611471 0.08965274 -0.08289762 0.057575002 0.058866926 -0.004920605 0.1508289
-0.09816695 0.020000212 0.07996173 -0.101651154 -0.13870446 0.16601306 0.11694352 -0.012830343
0.010283805 0.03514793 -0.16469744 0.14474916 -0.046418194 -0.029664809 -0.1644952 -0.007355459
0.023551505 0.027839236 -0.16520998 0.11001052 0.052568685 0.039151564 0.027462471 0.012895049
-0.08347685 0.06969001 0.15428002 0.015855359 0.05094814 0.08633494 -0.16552322 0.04213096
-0.01287644 -0.024537407 0.013444222 -0.16581696 0.0712708 -0.15611474 -0.13288079 -0.11820702
0.124510944 0.08393327 -0.034439113 -0.060137942 0.0835864 -0.046597812 0.15846252 -0.0663987
0.16083913 0.1152781 0.1274958 -0.09644782 0.105008416 -0.14871493 -0.07424137 -0.15675285
0.09507201 -0.08735514 -0.015280354 -0.1661055 -0.06394672 0.0811167 0.14634195 0.018151678
-0.109880544 0.123269655 0.14780714 -0.0610088 -0.03881632 0.06303435 0.043448508 0.107291594
-0.032153424 0.027741658 -0.03488264 -0.030502904 0.09014101 -0.16584207 -0.12647884 -0.10916082
-0.15924989 -0.059637737 0.03708263 0.04291019 -0.02690831 0.1593644 0.0270142 -0.1285247
-0.13141407 0.16916692 0.03470287 -0.1371236 0.013905511 -0.029324185 0.16796839 0.17210409
0.03297051 -0.107675515 -0.121577024 0.13196981 0.1477182 0.08182089 -0.04114716 -0.09881887
0.016543122 0.050945632 -0.07000042 0.11931161 -0.023619141 -0.09701262 0.031719036 -0.09474626
-0.17577687 0.09706465 -0.15648101 -0.10916216 -0.10493742 -0.16281691 0.04798345 0.1047144
-0.048498705 0.008919307 -0.17599486 -0.15267333 0.11227551 -0.028845524 -0.11601717 -0.15682548
0.155861 -0.00064061437 -0.16330737 -0.11633457 0.013510858 0.16755016 -0.16879642 0.16980545
-0.15989332 -0.06532009 -0.013084456 0.04300004 -0.0012932521 0.03208968 0.04015517 0.16896166
-0.0054143793 0.089582354 0.09238719 -0.02887445 0.04671589 -0.068282835 -0.11642957 -0.16344692
0.062716894 0.05742808 0.114330195 -0.16733949 0.0051506334 -0.06904961 -0.11252517 6.468666e-05
-0.16778226 0.0713213 -0.1428519 -0.09214955 0.013626231 0.12932731 -0.172229 -0.06785755
-0.055574145 -0.12347315 -0.00055111916 0.0066143335 0.13017485 0.095914796 0.15114887 0.1610624
-0.08424227 -0.038792122 0.1692072 -0.07966336 -0.054382343 0.10044419 -0.04707302 -0.014243462
-0.07633028 0.12337446 -0.0703429 -0.07428224 -0.16407803 0.036866188 0.07371296 -0.047549162
0.013681638 -0.09187493 0.14667408 -0.09999502 0.06496665 0.026890704 -0.069571935 0.008386928
0.17084399 -0.16954693 -0.07546091 -0.062786624 0.0020395187 0.10864083 0.14202666 -0.10010708
0.041796397 0.021581933 0.13693109 0.12853962 0.01693479 0.09480011 -0.14832842 -0.12161118
