resources/classifier/initiation/classifier.pt (torch, 148175 bytes, 32 tensors)

0.linear1.weight f4 [64, 64]
000000 79 3d e9 3d e7 26 8d 3d b6 49 16 3d cb e8 06 bd
       0.11388678 0.06892186 0.03669139 -0.032936852
000010 d4 a5 e3 bd 63 a3 e3 bd 36 95 5f bd 2f 9f 2b 3b
       -0.111156136 -0.11115148 -0.054585658 0.002618741
000020 38 33 8d 3d 97 b1 47 3d a8 dd b6 bd cf d1 01 bd
       0.06894535 0.048753347 -0.08928996 -0.03169423
000030 bc 25 59 bd d0 b8 9d bc b3 1e 6b 38 c7 18 cc bd
       -0.053014502 -0.019253165 5.6056957e-05 -0.099656634
000040 2a b6 8a 3d 38 ea ba bd 1b b7 50 bd 80 6c 34 3e
       0.06773026 -0.09126705 -0.050955873 0.17619514
000050 9f ca c7 3c 10 24 14 be fc 80 b7 bc 1c 40 5e 3d
       0.02438861 -0.14466882 -0.022400372 0.05426036
000060 c0 3f d0 3c 67 d7 ec bd 39 fc 26 3d 90 47 46 be
       0.025421023 -0.11564522 0.040767882 -0.19363236
000070 d8 ea 9e bc 7e b1 b0 3c 8a 09 31 be ba 25 17 3e
       -0.019399092 0.02156901 -0.17288795 0.14760485
000080 97 6b e5 bd 95 6a 9c bd dc 90 10 3e cb 0c 2a be
       -0.11202162 -0.076375164 0.1411776 -0.16606443
000090 0b 0b 65 3d 2f fd 9b 3c 06 77 9c 3c f4 6d 89 3d
       0.055918735 0.019041626 0.019099724 0.06710425
0000a0 11 d1 04 3e 57 e9 48 3c 34 d8 29 3c f0 98 01 3d
       0.12970378 0.012262664 0.010366488 0.031639993
0000b0 15 e5 07 3e 67 5e 1a 3e 45 1d 93 bd c4 49 60 3a
       0.13270982 0.15075074 -0.07183317 0.0008555914
0000c0 34 d6 4e bd dd a6 cf 3c 3b e4 46 3d db aa 21 bd
       -0.05049725 0.025348121 0.0485575 -0.03946958
0000d0 6a 1c 86 3d 84 5a b5 bd 45 c1 2f bd c0 1c 6c 3d
       0.06548388 -0.08855155 -0.042908926 0.057644606
0000e0 5c eb 19 be 2d 8c b3 3d f4 4f 13 3d 7a 77 28 bc
       -0.15031189 0.08766971 0.03596492 -0.010282392
0000f0 17 88 be bc d0 4e 3b 3d 86 11 ec 3d 01 60 51 bd
       -0.023258252 0.04572946 0.1152678 -0.051116947
000100 ef 50 59 bf 2f 2a 97 bd d8 54 80 be 6b b8 2f 3f
       -0.8488912 -0.07381093 -0.2506473 0.68640774
000110 ab 77 03 3f 35 e2 43 be 74 72 f2 3e 92 cd e2 3e
       0.51354474 -0.1912926 0.47352946 0.44297463
000120 84 a1 3a 3d 6e 92 55 3e b8 35 0d bf 54 e7 9d be
       0.04556419 0.2085664 -0.55160093 -0.30840552
000130 21 b4 c5 bd 1f 73 18 3f b5 3a 97 3e 86 a0 b8 be
       -0.096534975 0.5955066 0.29536977 -0.3605997
000140 97 98 ec be ab 66 9f be c0 54 89 3e 71 a6 e0 3e
       -0.46210167 -0.31133017 0.26822472 0.43876985
000150 d8 0a e8 bd 29 3f 00 3f c2 bd 11 3e e1 fc 68 be
       -0.11330193 0.50096375 0.14232543 -0.22752716
000160 3d 25 fc bc 38 e7 04 bf 9d 63 91 3e 2c 38 d3 be
       -0.030779475 -0.5191531 0.2839631 -0.41253793
000170 90 ff 92 3f fd f9 28 3f c2 e8 86 3e c9 fb 53 3e
       1.1484241 0.6600645 0.26349455 0.20701517
000180 e4 b9 fa 3d 43 2b e3 bc fb 29 68 be f1 cf a3 3b
       0.12242487 -0.02773059 -0.22672264 0.004999154
000190 0d 31 21 bf 28 aa 72 3e 09 a9 d7 be b8 0c db 3c
       -0.6296547 0.23697722 -0.4212115 0.026739463
0001a0 ca cc 89 3e 35 e9 22 3f b8 5e 32 3f 15 af b1 3d
       0.26914054 0.63637096 0.6967578 0.08675972
0001b0 32 cb d8 be c5 23 be be 68 10 9a 3d 2f 11 f6 3c
       -0.42342526 -0.37136665 0.075226605 0.03003749
0001c0 25 11 82 bf 74 f1 5b bf 8a c0 e9 3e 1e c3 0f bf
       -1.0161482 -0.85915303 0.45654708 -0.561571
0001d0 2c 42 82 3e 10 dc c0 be 4b 34 e8 3e 8e 0a af bc
       0.2544111 -0.37667894 0.45352396 -0.021367338
0001e0 c5 f0 32 3f 3d 85 7c bf 7b 72 9d 3e b5 80 a3 3e
       0.69898635 -0.98640805 0.30751404 0.31934133
0001f0 92 36 0c bf 66 d9 00 3e d8 6b 8c bf 65 84 2d bf
       -0.5477077 0.12582931 -1.0970411 -0.67780143
000200 70 ab d8 3d 9c 14 8f 3d 98 77 00 bd 18 d3 66 3d
       0.10579574 0.06986353 -0.031364053 0.05635366
000210 00 02 c1 b9 f8 e3 ab bd ba d5 9a bd 78 b5 37 bd
       -0.0003681332 -0.08393091 -0.07560296 -0.044850796
000220 78 5c 95 bc 38 20 20 bd 90 b4 f9 3d a0 ba d2 bc
       -0.01823257 -0.039093226 0.12192643 -0.025723755
000230 52 0d e2 bd c0 63 3b 3c 88 64 ae 3c 8a c4 cf 3d
       -0.11037697 0.0114373565 0.021288171 0.10144909
000240 00 6f f8 3d 40 3f 4d 3d 58 6a 72 3d 70 1b 79 3d
       0.121305466 0.050109148 0.05918345 0.060817182
000250 00 f4 e7 bd ca 38 c4 bd f2 e0 83 3d 00 22 bd 3d
       -0.11325836 -0.09581144 0.06439389 0.092350006
000260 28 b6 d1 3d 00 cb a1 bb 80 0f 85 bc 50 8c 0e bc
       0.10239822 -0.0049375296 -0.016242743 -0.008700445
000270 54 61 c4 3d f8 bd 12 bd f2 64 a4 bd b0 72 53 3c
       0.09588876 -0.0358257 -0.08027066 0.012905762
000280 60 c3 ee 3b a0 6c 12 bd 60 87 e4 bc 18 c3 d4 bd
       0.007286474 -0.035748124 -0.027896583 -0.10388774
000290 34 ff b2 3d 08 a5 ac 3c 80 1a 6c 3b 30 b4 c5 3d
       0.087400824 0.021074787 0.0036026537 0.09653509
0002a0 f0 b7 98 bd 10 c9 3c bd 20 05 00 3c 40 e0 47 bb
       -0.07456958 -0.046090186 0.007813722 -0.0030498654
0002b0 e0 9a 0e bd 98 3c 97 bd 92 6b f9 3d a4 97 4d bd
       -0.03481567 -0.07384604 0.121787205 -0.050193444
0002c0 c4 39 3d bd 4e c0 ed bd d2 b6 b9 bd 54 33 d6 3d
       -0.046197668 -0.11608945 -0.09068073 0.10459009
0002d0 98 8b bc bc 08 d5 bd 3c 96 22 e2 bd a2 11 d8 bd
       -0.023015782 0.02317287 -0.11041753 -0.10550238
0002e0 72 6d e7 3d b0 ef 67 3c c0 d5 01 3c ec fb 4b 3d
       0.11300172 0.014156267 0.007924497 0.0498008
0002f0 82 92 9d bd 40 1b b3 bb e0 f9 62 3d 70 b5 17 3d
       -0.0769396 -0.005465895 0.05541408 0.037038267
000300 96 b6 46 3f 36 45 f0 bc 5e 23 54 3e 41 82 50 bf
       0.77622354 -0.029329877 0.20716617 -0.8144875
000310 69 1e e6 be bc 68 99 3e 5b b7 f0 be 89 01 aa be
       -0.44945076 0.29962718 -0.4701489 -0.33204296
000320 a1 e0 54 be 01 b1 96 be bc 13 ed 3e de 57 a0 3e
       -0.20788814 -0.29431918 0.4630412 0.31317037
000330 12 53 c2 bd 08 18 5e bf 2e f5 f1 be c8 80 b8 3e
       -0.09488501 -0.8675542 -0.4725737 0.36035752
000340 4c de 10 3f 76 bf 91 3e 9a 7c 87 3d f0 55 0f bf
       0.565892 0.28466386 0.06615563 -0.55990505
000350 5f 41 60 3e a9 7d 09 bf 80 fd 4b 3c 9e b7 ba 3e
       0.21899937 -0.5370737 0.012450576 0.36468214
000360 cc c9 c1 3c 85 77 15 3f f7 73 26 be 12 66 26 3f
       0.023655795 0.583855 -0.16255175 0.64999497
000370 4d 97 98 bf 59 df 17 bf 2d 2d 71 be 46 2e 9a be
       -1.1921173 -0.59325176 -0.2355239 -0.3011343
000380 57 cb da bd b4 14 47 3e 98 9f d6 3d cc ce 7f bd
       -0.10683315 0.19441491 0.10479659 -0.062453076
000390 4a f1 af 3e ee 8e 47 be 0f a9 0c 3f fb 60 af bd
       0.34363776 -0.19488117 0.5494546 -0.085634194
0003a0 48 dc 3d be 3f 08 12 bf cf 6b 03 bf ad 36 93 be
       -0.18541062 -0.5704383 -0.5133638 -0.28752652
0003b0 78 15 01 3f ee 0c d0 3e 9c da bd bc 9c d9 83 3c
       0.50423384 0.40634865 -0.02317553 0.016094975
0003c0 d4 ea a2 3f 04 df 62 3f ab c0 c5 be 71 ce 30 3f
       1.2727914 0.88621545 -0.38623556 0.69065005
0003d0 b1 3b 53 be a0 d7 ed 3e 9f 38 42 be a2 64 60 bd
       -0.20628239 0.4645357 -0.18966912 -0.05478347
0003e0 71 fd 51 bf 86 86 4f 3f 0a 7b 29 be a9 37 9c 3a
       -0.82027346 0.8106464 -0.16550842 0.0011918443
0003f0 f8 e9 c2 3e 0c dc 05 be dd 7d 50 3f 0e 4e ef 3e
       0.3806913 -0.13072222 0.8144205 0.46739239

0.linear1.bias f4 [64]
000000 79 31 1b bd 0b 02 80 bd 22 8b 8f bd 48 83 33 3e
       -0.037888978 -0.0625039 -0.07008959 0.17530549
000010 41 6d 00 3d 00 b7 a7 3e 25 2a 81 3d 7a b3 8c 3e
       0.031354193 0.32756805 0.063068666 0.2748068
000020 aa ee 84 3e 18 d5 a7 3e 17 81 cb bd 06 07 80 bd
       0.25963336 0.32779765 -0.09936731 -0.062513396
000030 dc 84 ac 3e 0b 41 b5 3e 0b e2 1b 3d 37 99 c9 bd
       0.33695114 0.35401186 0.03805737 -0.098436765
000040 cb 60 b3 3d 02 53 36 bd ae 0a b6 bd 68 ac b1 bc
       0.08758696 -0.044512756 -0.08888756 -0.021688655
000050 e0 46 82 3e 43 1d b0 3e 27 31 93 3e 93 1e 87 3e
       0.25444698 0.34397325 0.28748438 0.26390514
000060 db 17 b4 bc 88 0c 9c 3d 08 2c 91 bd 9e c8 ac 3e
       -0.021984031 0.07619578 -0.070884764 0.3374681
000070 b2 7c b0 bd 24 4e 7b 3c 10 54 07 be e8 42 7c bd
       -0.08617534 0.015338454 -0.13215661 -0.061587244
000080 db ef 34 be 14 c4 89 3e 78 13 b1 bd 39 48 8b 3e
       -0.17669623 0.26907408 -0.086462915 0.2720354
000090 29 ae ac 3e db 92 f9 3d 0a 67 1b be 24 43 02 bd
       0.33726624 0.121862136 -0.15176025 -0.03180231
0000a0 82 b6 fe 3b 9d a4 02 be a9 61 49 3e 14 03 27 3d
       0.0077732215 -0.12758107 0.1966616 0.04077442
0000b0 cc f0 ec bd d8 db 56 3d 9a 8e 87 3e 72 cf 70 bd
       -0.11569366 0.052455753 0.26475984 -0.058791585
0000c0 0d dd 5a 3e 74 1a 18 bd ef 7a b2 3e 9a cc eb bd
       0.21373387 -0.037134603 0.34859416 -0.11513634
0000d0 ca 66 90 3e d8 50 d4 bd a9 c4 89 3e 0c d7 89 3d
       0.28203422 -0.10366982 0.26907852 0.0673047
0000e0 93 a3 8c 3e 5f 2e 98 3d 42 9c e8 bd 0b b4 92 3e
       0.27468547 0.074307196 -0.11357929 0.28652987
0000f0 e9 77 03 bd 5a 9a 80 3e 46 99 ca bd da 73 63 3d
       -0.032096777 0.2511776 -0.09892516 0.055530407

0.linear2.weight f4 [2, 64]
000000 2f 2b 82 bb 20 3d 67 bf 64 5a a2 bd 59 e3 9a 3f
       -0.003972433 -0.90327644 -0.07927397 1.2100631
000010 d8 06 7c bf cd 7c ad 3f 97 6b 59 bf 8a 31 94 3f
       -0.9844794 1.3553711 -0.84929794 1.1577618
000020 d6 b5 ae 3f 3d cd a6 3f b8 32 99 bf d8 f6 6a bf
       1.3649242 1.3031384 -1.1968603 -0.91782904
000030 0f 98 99 3f 0d d7 a7 3f ff 04 63 bf 97 ba 61 3d
       1.199953 1.3112503 -0.886795 0.055109587
000040 a7 c2 3a bf 6d 7a b3 bc 65 e4 93 bf e0 98 55 3c
       -0.72953266 -0.021908963 -1.1554075 0.0130369365
000050 48 90 a3 3f f4 f9 ab 3f 62 80 a4 3f b3 25 99 3f
       1.2778406 1.3435655 1.2851679 1.196463
000060 d2 2d 58 bf e9 a5 79 bf db 59 3b bd be f9 94 3f
       -0.84444916 -0.97518784 -0.04573999 1.1638715
000070 20 81 fa bb 2f b6 dc bc cd c2 69 bb 32 57 be 3d
       -0.0076447874 -0.02694234 -0.0035669089 0.09293975
000080 d7 39 07 bc 9f 33 c8 3f dc 0c 5e 3d 14 d5 9a 3f
       -0.008253536 1.5640754 0.054211482 1.2096276
000090 b0 8a b1 3f 93 4e a8 3f 54 b0 c7 3c 52 b8 78 bf
       1.3870449 1.3148979 0.024376072 -0.9715625
0000a0 39 97 14 bc 9f bf 90 bf a9 73 a6 3f 73 af 5d bf
       -0.009069257 -1.1308478 1.3004047 -0.8659584
0000b0 ba dc fa 3c 52 55 72 bf e6 7e 95 3f d8 29 12 be
       0.030622829 -0.9466144 1.1679351 -0.14273775
0000c0 20 99 be 3f a3 0a 04 3e 99 73 9a 3f 90 b1 4d 3d
       1.489048 0.12894683 1.2066528 0.050218165
0000d0 cc c5 8f 3f da 30 88 bf 0d 2a a7 3f 62 c6 68 bf
       1.1232238 -1.0639908 1.3059708 -0.9092771
0000e0 1e 65 9f 3f 01 c7 57 bf bc 2e b2 3d a9 27 95 3f
       1.2452734 -0.8428803 0.0870032 1.1652728
0000f0 93 64 7b bf ca 43 9a 3f 8d 59 8e bc 10 4c 4e bf
       -0.9820034 1.2051938 -0.017376686 -0.8058481
000100 cd eb a2 3d 2f e6 6c 3f d2 c7 fe 3d 12 4b 94 bf
       0.07955132 0.9253873 0.124404564 -1.158541
000110 04 a9 70 3f d9 3a a6 bf 50 41 5e 3f e7 33 91 bf
       0.940079 -1.2986709 0.8681841 -1.1343964
000120 dc 72 a7 bf da 7c b6 bf 2b 3a 84 3f 4b 6b 3f 3f
       -1.3081927 -1.4256852 1.0330251 0.7477309
000130 f2 ec 9d bf aa 46 a0 bf 06 3f 64 3f 6a ed 5d bb
       -1.2337935 -1.2521565 0.89158666 -0.0033863434
000140 34 0e 68 3f 79 68 9b 3b 26 e8 a3 3f 18 02 bd bc
       0.9064667 0.0047426787 1.2805221 -0.023072287
000150 e6 bc 9c bf fd 10 a5 bf f3 f8 96 bf 0d 3b a3 bf
       -1.2245147 -1.289581 -1.1794723 -1.2752396
000160 c3 ca 6f 3f 64 a7 6c 3f 60 38 1e bc af e6 a5 bf
       0.93668765 0.9244292 -0.009656996 -1.2961024
000170 10 f3 da 3d 6d 28 05 be 83 aa 81 bc d0 f0 1d 3d
       0.10690892 -0.13003702 -0.015828377 0.038559735
000180 81 91 78 bd ce 76 da bf 0e d4 c8 3d 24 87 93 bf
       -0.06068564 -1.7067506 0.09806071 -1.1525617
000190 a1 eb c0 bf 24 93 95 bf 09 d2 4c bd b5 80 58 3f
       -1.5071908 -1.1685529 -0.050004993 0.8457139
0001a0 9c e0 17 be 70 a0 72 3f f1 eb a3 bf f2 0f 7a 3f
       -0.14831775 0.9477606 -1.2806379 0.9768058
0001b0 7f 9e b0 3d 08 97 67 3f d2 7d 95 bf 09 b5 50 bd
       0.08623981 0.9046483 -1.1679022 -0.0509539
0001c0 bf e7 c1 bf b5 8a e4 3d 75 2b a9 bf e4 81 b6 bd
       -1.5148848 0.11159269 -1.3216387 -0.089114934
0001d0 96 90 97 bf 44 9c 86 3f af 54 a4 bf 4b df 6d 3f
       -1.1840999 1.0516438 -1.2838343 0.92918843
0001e0 37 f5 9b bf eb 78 58 3f aa 24 8e 3d 92 a4 97 bf
       -1.2184209 0.84559506 0.06940587 -1.1847098
0001f0 09 e0 5c 3f 88 6b 92 bf d5 7f 93 3d 17 1b 6e 3f
       0.8627935 -1.1439066 0.072021164 0.93010086

0.linear2.bias f4 [2]
000000 69 19 04 bc 03 0e 8a 3d
       -0.008062699 0.06740954

1.linear1.weight f4 [64, 64]
000000 8a 8a 7c bd 9e 4f 98 bd e7 58 c5 3d 6a 09 9f 3d
       -0.06165556 -0.07437061 0.096360974 0.077654675
000010 d8 22 af 3d 2c 84 20 3e ac ca 07 be 76 9d da 3d
       0.08551568 0.1567542 -0.13260907 0.106745645
000020 c6 87 ca bd 2b 7f 62 bd 01 22 08 3e b3 cf 02 3e
       -0.09889178 -0.055297058 0.13294221 0.12774543
000030 4e a5 fe 3c 8c cd 65 3d 01 43 a3 bd dc a8 37 3d
       0.031084683 0.056104228 -0.07971764 0.04483877
000040 46 b1 b5 bd 8b 8b 81 bd 6d 79 a9 3d 95 84 9b 3c
       -0.08871703 -0.06325444 0.08275113 0.018984118
000050 a9 12 da 3a 62 04 10 3e 6f 87 0c be cb c4 2a bd
       0.0016637641 0.14064172 -0.13723539 -0.041691583
000060 db f6 03 3d 68 fd 48 3b 1a 07 94 bd 1f 39 5c bd
       0.03221784 0.003066862 -0.07227917 -0.053765412
000070 0a be 93 bd 91 c5 e9 3d 5e e0 b2 bd c5 e9 e8 3d
       -0.072139814 0.11414636 -0.08734201 0.11372713
000080 89 7e 31 bd b1 48 85 3d 41 32 19 3d 3a 17 06 3d
       -0.043333564 0.065080054 0.03740144 0.032736994
000090 3f 80 f4 bc 46 7d 1c bd fc 79 4c 3d 17 dd 87 bc
       -0.029846309 -0.038205408 0.04992102 -0.016584916
0000a0 e6 66 f1 3c 2b 6a fc 3c 2b 3a c3 3d 94 40 8f bd
       0.029468011 0.030812344 0.09532579 -0.06994739
0000b0 b5 59 0b be 9a ab 1b be 86 4b 35 3d d7 2f 7e 3d
       -0.1360844 -0.1520218 0.044261478 0.062057342
0000c0 79 21 4f 3b a7 9d 69 3c de dc f5 bd a3 a6 b8 3b
       0.0031605645 0.014258779 -0.12005018 0.005635099
0000d0 fe 0b 4f bc d9 3c 1d bd de 25 22 3e 7e ac e4 bd
       -0.0126371365 -0.038388107 0.15834758 -0.11165713
0000e0 88 4c 87 3d 7d aa 99 3d f3 09 2d 3e 91 26 a7 3d
       0.06606394 0.07503221 0.16898327 0.08161653
0000f0 6e ac c0 bc e3 76 35 bd 88 40 22 bc 94 bb 91 3d
       -0.02351972 -0.044302832 -0.009903081 0.07115856
000100 bf d0 02 bf da aa 54 3e 3e f4 00 3f 51 d5 20 3f
       -0.5109977 0.207683 0.50372684 0.62825495
000110 8b 42 96 3e 7a aa 93 be a3 60 62 bf d4 d1 95 bc
       0.29347643 -0.28841 -0.88428706 -0.01828853
000120 e4 27 72 3e 47 14 f5 3e 4a ae 45 be f8 42 e2 bd
       0.2364803 0.47867033 -0.19304767 -0.110479295
000130 9c 3d 8e be 66 d8 8b 3f b2 41 dc bd de 6b 66 3e
       -0.2778138 1.0925415 -0.10754718 0.22502086
000140 00 ef 67 bf f1 da 92 bf 63 a1 05 3e 64 5f 48 3d
       -0.9059906 -1.1473066 0.13049845 0.048919097
000150 82 21 86 be 4b 64 64 be 5a 0c d2 bc 4a 55 0e bf
       -0.2619744 -0.22303884 -0.025640655 -0.5559889
000160 b6 49 80 3e 42 81 43 3e 72 09 51 3e bb 65 a6 3e
       0.25056237 0.19092277 0.2041376 0.3249949
000170 52 06 cf 3b eb 92 22 3f a1 dc 4e 3f 99 a0 f2 bd
       0.006317892 0.6350543 0.80805403 -0.11847038
000180 f6 c8 53 be f5 67 57 3f 64 84 c0 be 60 3e be 3e
       -0.2068213 0.84143 -0.37601006 0.37156963
000190 61 97 22 bf ba 1e 90 be 30 6e 05 bf 91 65 7f 3e
       -0.63512236 -0.28148443 -0.5212126 0.24941088
0001a0 a7 f4 38 bf fc 56 83 3e ec 86 c4 bc bb b3 6f be
       -0.7224831 0.256523 -0.023990117 -0.23408405
0001b0 04 a9 c2 3e 58 1c 26 be c9 01 3e 3f 37 81 de be
       0.38019574 -0.1622175 0.74221474 -0.43457958
0001c0 58 9c ba be 38 7f bb bd 02 cc 18 bd f2 9c c8 be
       -0.36447406 -0.091551244 -0.037303932 -0.3918224
0001d0 d9 5f b1 3e 3c 60 66 bf 4a 77 7f 3f 4c 37 1c bf
       0.34643438 -0.8999059 0.99791396 -0.61021876
0001e0 f5 59 d0 3e 92 42 30 bf ec eb b7 3d e5 2b 38 bf
       0.40693632 -0.6885158 0.089805454 -0.7194198
0001f0 eb fb 34 3e 46 f6 13 3e d9 79 24 bf 00 a6 13 3e
       0.17674224 0.14449415 -0.64248425 0.14418793
000200 a1 44 33 3d 4c 50 30 3e fc 46 34 3b 80 b4 93 3d
       0.04376662 0.17218131 0.002750813 0.07212162
000210 9d 16 6a bd 27 cc 15 3e d5 cb f4 bd 35 1e 3b 3d
       -0.057150472 0.14628659 -0.119529404 0.045683105
000220 7f 7a 51 bd 6f af ec bd 7b 7a 03 3e b9 e7 3d bc
       -0.051142212 -0.11556899 0.12839691 -0.0115908915
000230 ed a4 13 bc fb 98 14 3e 67 be 89 3c 11 8c 30 3d
       -0.009011489 0.14511482 0.016814424 0.043102328
000240 13 dd be 3d 76 5d 99 3b 14 fc 52 bd 0a 84 e7 3d
       0.0931951 0.004680331 -0.05150993 0.11304481
000250 6b 03 2a 3d 7a de 65 bd 1a 15 0f be bd 90 24 be
       0.041507166 -0.056120373 -0.13972893 -0.16070838
000260 26 2c eb 3d ac e3 27 3d b2 93 af bb 44 03 d0 bd
       0.1148303 0.04098861 -0.005358183 -0.10156873
000270 17 64 2a be 15 b3 03 3e 99 ed 86 3c 6f b4 c7 3d
       -0.16639744 0.12861283 0.016470717 0.09751212
000280 c9 e9 0d 3d 11 bd 4e bd 2a b2 8c 3d d4 30 d5 bd
       0.034646783 -0.050473277 0.068699196 -0.10409704
000290 da 02 35 3d e4 aa 39 3d 6a fd f1 bd 6c 8e bd 3d
       0.044192173 0.04532899 -0.11815913 0.092556804
0002a0 8b 09 0b bd 0d 4e d5 bb 4a 16 ed 3d b7 f3 b9 3d
       -0.033944648 -0.0065095485 0.11576517 0.09079688
0002b0 61 0e 6e bb 9e d1 78 3c 4c 7a ce bb 5b 3b 80 3d
       -0.0036324488 0.015186695 -0.0063012 0.06261321
0002c0 38 cf 9f 3d 45 0b 1a 3e 28 35 9d bd e6 2b 8d 3c
       0.07803196 0.15043361 -0.076761544 0.017232846
0002d0 75 63 2d bd 9d b8 00 be 8f 49 2c 3d 96 72 f0 3c
       -0.042331178 -0.12570424 0.04206234 0.029351514
0002e0 57 33 d4 bd b2 26 53 3d 21 a3 52 bd 4f ca 6f bd
       -0.10361355 0.051550575 -0.051425103 -0.058542546
0002f0 5e 16 8a 3d 04 b8 53 3d 57 7d 18 3e 5a e4 90 bb
       0.067425475 0.051689163 0.14891563 -0.004421753
000300 2f 4c 0b bf 76 cb 97 3e 81 85 bf 3e 66 a4 45 3f
       -0.5441312 0.29647416 0.37406543 0.7720398
000310 81 40 95 3e 9f b0 c7 be a4 8f 6d bf 42 3d df bd
       0.29150775 -0.3900194 -0.92797303 -0.10900356
000320 e9 18 6f 3e 4f 22 20 3f 9a 8e 77 be 17 84 99 ba
       0.23349346 0.6255235 -0.24175492 -0.001171234
000330 dc 6b a1 be 4c 6a 79 3f 09 80 72 be e4 64 93 3e
       -0.31527603 0.9742782 -0.23681654 0.2878791
000340 b8 2e 3d bf 65 42 8d bf c1 23 0b 38 76 27 62 3e
       -0.7389941 -1.1035887 3.317348e-05 0.22085366
000350 a6 41 d5 bd 87 ed 4d be 20 7c dc bd 66 85 2a bf
       -0.10412912 -0.2011014 -0.107658625 -0.666098
000360 0a 20 6c 3e 27 09 91 3e 76 9a 58 3e b9 31 79 3e
       0.23059097 0.28327295 0.21152672 0.24335374
000370 f2 81 96 3d 2b 9b 46 3f 5b 0a 38 3f 72 76 98 3d
       0.07349004 0.7758052 0.718908 0.07444467
000380 ae a7 7b be 17 62 3e 3f 87 d6 a2 be b2 46 cc 3e
       -0.24575683 0.74368423 -0.31804296 0.39897686
000390 7c f3 24 bf f8 dd 9e be ea 47 36 bf 9f 3e 6c 3e
       -0.6443403 -0.31028724 -0.7120348 0.23070763
0003a0 44 80 36 bf 2b 96 8f 3e ac 27 89 3d cb 41 9d be
       -0.7128947 0.28044257 0.0669702 -0.3071426
0003b0 24 14 f7 3e 3f 61 9d be 14 bb 59 3f da dc eb be
       0.48257554 -0.30738255 0.85051084 -0.46066934
0003c0 03 ec ef be 6a f0 ff bd c0 0e 2d be 8a 95 c4 be
       -0.4685975 -0.12497027 -0.16900158 -0.3839534
0003d0 c6 e0 c9 3e 2e de 4f bf ab c3 9b 3f ca d8 ff be
       0.394293 -0.81198394 1.2169088 -0.49970084
0003e0 62 ca b5 3e 20 6e 1e bf c8 2c 0d be 16 46 3c bf
       0.35505968 -0.6188679 -0.13786614 -0.7354444
0003f0 8d d8 b5 3d eb a2 24 3e 32 d2 2a bf 33 82 36 3e
       0.088791944 0.16077773 -0.6672698 0.17823105

1.linear1.bias f4 [64]
000000 5d 7d 29 be fc ca 31 bd 3a 0f e3 bc 04 d0 f6 bc
       -0.16551729 -0.04340647 -0.027717222 -0.030128486
000010 af 26 13 3e 0c c6 2d be cb 2c b2 bd a1 73 e1 3e
       0.14370225 -0.1697008 -0.0869995 0.4403353
000020 54 c1 fd bd 07 94 d9 bd 79 db c5 3a 9a ba 1c bd
       -0.1239039 -0.10623937 0.0015095315 -0.038263895
000030 2c 90 0e 3e 1c 65 be bd be c7 1d 3d ae 6b 94 bc
       0.13922185 -0.09296629 0.038520567 -0.018117752
000040 55 e0 89 bc ac 6d 18 bd 6e 78 17 be 1c 8c cf bd
       -0.016830603 -0.037213966 -0.14792034 -0.101341456
000050 66 c9 8f 3e 25 ac 8d 3e e1 ce cb bd ea 0a 81 bd
       0.28083342 0.27670398 -0.099515684 -0.0630091
000060 73 db bb bc 0c a0 f7 bd 10 a5 98 3c ed 74 2c be
       -0.02293179 -0.120910734 0.018633395 -0.16841479
000070 01 9c 61 3e 26 f8 13 bd 32 66 34 be d2 34 e2 3e
       0.22032167 -0.036125325 -0.1761711 0.44180924
000080 31 5c 90 bd 07 10 c0 3e 9e 1d d4 3e 4b 92 8b 3c
       -0.07048834 0.37512228 0.41428846 0.017037531
000090 52 90 7f 3e 3d b2 bd 3e 94 35 2d bd 0e 55 8b 3e
       0.24957398 0.37050048 -0.042287424 0.2721333
0000a0 fc a1 32 3d f0 a6 26 be e7 e1 12 3e 47 9b 16 bd
       0.04361151 -0.16274619 0.14343987 -0.036769178
0000b0 52 ce f5 bd 61 fe f0 bd b8 66 9f bd 42 9f 08 be
       -0.12002243 -0.11767269 -0.07783264 -0.13342002
0000c0 fe cc 17 bd a2 7e 1a bc ca fd a3 bd c1 37 88 3e
       -0.03706073 -0.009429606 -0.08007391 0.26605037
0000d0 6c 31 ba 3e 0d d3 38 bd f0 4e 64 bd 29 d6 9b 3e
       0.3636583 -0.04512315 -0.055739343 0.3043683
0000e0 93 ad c5 3e 33 9a 45 bd c9 5d d6 bd 23 74 cf 3e
       0.3860899 -0.04824276 -0.10467107 0.40518293
0000f0 cb e5 35 be 3e 62 73 3e a6 9d fe bd b9 40 95 bd
       -0.1776344 0.23767945 -0.12432413 -0.072877355

1.linear2.weight f4 [2, 64]
000000 4c 9f 5c bd 72 7f 91 bf 6a f0 6c 3d 1d 18 93 bf
       -0.053862855 -1.1367018 0.057846464 -1.1491734
000010 61 d9 93 3f fa 57 8b bf 7e 44 00 3c e9 9a 8b 3f
       1.1550714 -1.0886223 0.00782883 1.090665
000020 28 8c 72 bf 7b 9a 78 bf 7e 47 90 bf 60 09 91 bf
       -0.9474511 -0.9711072 -1.1271818 -1.1330986
000030 f5 dd ba 3f d0 99 87 bf 2f f5 e3 3f 9d f0 88 bf
       1.4598986 -1.0593815 1.7809199 -1.0698429
000040 a4 f2 c5 3c 76 28 71 bf 36 2a 95 bf 2e 2c 96 3d
       0.024163552 -0.94202363 -1.1653507 0.07332645
000050 5c 30 71 3f d5 35 8d 3f e4 d1 87 bf 35 2a a0 bf
       0.94214416 1.1032053 -1.0610929 -1.251288
000060 64 5a b7 3d 94 1c b0 bf a8 b0 d3 3c c9 9e 8c bf
       0.089527875 -1.3758721 0.025841072 -1.0985957
000070 3f 2d 8d 3f 36 04 9e bf 6b a1 6e 3d 11 17 82 3f
       1.1029433 -1.2345035 0.05825941 1.0163289
000080 a5 58 a8 3d 6d 25 7b 3f 88 cf 83 3f 1f 17 7b bf
       0.082200326 0.9810398 1.0297709 -0.98082155
000090 bc 05 87 3f 64 7d 8c 3f 5c 1d 10 3d 4c 48 89 3f
       1.0548625 1.0975766 0.03518425 1.0725188
0000a0 cc 3f 6a bd 84 61 63 bd 30 c7 01 40 30 3b 5e bf
       -0.057189748 -0.05551292 2.0277824 -0.8680906
0000b0 a2 17 c6 bd bf 44 d0 3b 0e 52 a5 bd 73 6c 1d bd
       -0.09672476 0.0063558514 -0.08072291 -0.038433503
0000c0 2c f6 7f bf 90 1b 82 bf bc ee 92 bf 61 02 86 3f
       -0.99985003 -1.0164661 -1.1479106 1.0469476
0000d0 40 26 8c 3f 0d e5 89 bf 8f de 02 bd c3 8a 87 3f
       1.0949173 -1.0773026 -0.03195053 1.0589222
0000e0 a8 50 7f 3f d7 08 7b bf 38 90 4b 3c d1 f1 79 3f
       0.99732447 -0.98060364 0.012424521 0.9763461
0000f0 0a f7 c6 3b 69 bd 9e 3f 26 83 8a bd e9 91 e2 3b
       0.00607193 1.2401553 -0.06763296 0.0069143665
000100 ba 7b 2f bd bd 7a 8e 3f d5 34 13 bd 7f 34 82 3f
       -0.042842604 1.1131207 -0.035939056 1.017227
000110 f2 5c 85 bf 34 da 8c 3f f3 ac 75 bc ab 6f 96 bf
       -1.041899 1.100409 -0.014994848 -1.1752828
000120 aa 14 90 3f 07 0f 84 3f b4 74 84 3f eb 4a 6a 3f
       1.1256306 1.0317086 1.0348115 0.91520566
000130 83 78 c1 bf 98 80 80 3f 9a 26 d1 bf 0d 0b 7f 3f
       -1.5114902 1.0039244 -1.6339905 0.9962624
000140 80 e2 8f 3d 70 2e 8c 3f c8 30 80 3f 90 4d 9d 3d
       0.07025623 1.0951672 1.0014887 0.076808095
000150 19 f2 83 bf fd 7a 91 bf a5 c2 9a 3f e2 52 9a 3f
       -1.0308257 -1.1365658 1.2090651 1.2056544
000160 f0 55 6f 3d b9 26 a0 3f 26 84 a8 3d 38 56 8c 3f
       0.058431566 1.2511817 0.0822833 1.0963812
000170 c2 0c 60 bf bb fe 97 3f 97 19 c1 3d 42 28 53 bf
       -0.87519467 1.1874613 0.09428709 -0.82483304
000180 75 95 2c bc e3 fb 6a bf b0 df 98 bf d1 18 7c 3f
       -0.01053368 -0.917906 -1.1943264 0.98475367
000190 50 c2 8f bf 37 46 96 bf 64 1b dd 3d 48 92 90 bf
       -1.1231174 -1.1740178 0.1079624 -1.1294641
0001a0 03 7d de 3b 37 f0 e4 bd e9 ae fb bf 8e 68 84 3f
       0.006789805 -0.1117863 -1.9662753 1.0344408
0001b0 78 a1 b4 3d 04 2b df bd 26 00 b1 bd 5a 93 06 3e
       0.0881986 -0.108968765 -0.086426064 0.13142148
0001c0 70 7c 8c 3f 7f c2 7e 3f ca 6b 86 3f 47 e6 8f bf
       1.0975475 0.9951553 1.0501645 -1.124215
0001d0 5f fc 7f bf 9e ba 7e 3f 03 8e 14 be 0d 80 66 bf
       -0.9999446 0.99503505 -0.14507298 -0.9003914
0001e0 a4 ad 9e bf 73 bf 98 3f ae 49 d7 bd 5d e9 98 bf
       -1.2396741 1.1933426 -0.105121 -1.1946217
0001f0 bd 3d f3 3d d9 68 a4 bf 4e d4 cf bd 42 96 ba 3c
       0.1187701 -1.2844497 -0.10147916 0.022776727

1.linear2.bias f4 [2]
000000 f0 1f a5 3e 78 f1 a2 be
       0.3225093 -0.3182485

2.linear1.weight f4 [64, 64]
000000 81 99 c2 3e 23 3d 1f bf ed 99 5f 3f cf b7 c1 be
       0.3800774 -0.6220266 0.8734425 -0.37835547
000010 b9 70 e2 be 9a 54 6a bf 2e 1a 2e bf 90 d0 0a 3d
       -0.44226626 -0.9153534 -0.680087 0.033890307
000020 7c b4 97 3e 95 44 03 bf 9d e7 23 be 2f 0f 5a 3f
       0.29629886 -0.5127652 -0.16006322 0.8517942
000030 5f 6e 4e 3e 37 bc ab bd 26 19 8c bd 8e 52 49 bf
       0.2015929 -0.083855085 -0.06840734 -0.78641593
000040 c2 c1 e1 3e e9 c4 64 3f b3 da b8 be 92 a4 f4 bd
       0.44093138 0.8936296 -0.36104354 -0.11945452
000050 13 65 c0 bd 6f d9 cd be 4b 50 7f be 4a 80 16 3e
       -0.093942784 -0.4020495 -0.24932973 0.14697376
000060 d0 8a 86 bd 1a 08 55 3f bb 04 84 3e ef a9 2c bf
       -0.06569445 0.83215487 0.2578486 -0.674468
000070 aa aa 15 bf f4 cf 2e bf ca c4 26 bf 8a 5a 02 bf
       -0.5846354 -0.6828606 -0.65144026 -0.509194
000080 0a cd 66 3e 65 c2 2e bf 92 ee 77 3e 9e f7 93 be
       0.22539154 -0.6826537 0.24212101 -0.28899854
000090 86 d3 2a 3f cb e0 bb 3f c6 f7 08 3f 88 f1 38 bf
       0.6672901 1.4677976 0.5350307 -0.7224355
0000a0 39 e3 6b be 60 1d 9b bc 50 ce 06 bd ea b9 85 3e
       -0.23035897 -0.018934906 -0.0329116 0.26118404
0000b0 d4 5c d8 3e 42 6c e4 3e fa 51 0d be d6 4e 18 3f
       0.42258322 0.44613844 -0.13800803 0.59495294
0000c0 c8 bf 1b 3f f9 e6 75 be 52 17 0b bf 2b 09 13 3f
       0.6083951 -0.2401389 -0.5433246 0.57435864
0000d0 eb ca 2d bf 8b 95 15 3f 9b a8 5b bd 89 d4 83 3e
       -0.67887753 0.5843131 -0.05362759 0.2574809
0000e0 e0 29 e2 be 2b 6e 90 3e f8 7a 91 be 6f 18 6d be
       -0.44172573 0.2820905 -0.2841413 -0.23153852
0000f0 e8 05 0e 3f 61 c2 8b be fa 1e 47 3f 8c c2 7b bd
       0.5547776 -0.27296737 0.7778164 -0.06146483
000100 7c 6a cd bd 9e 2b d2 bc c7 c7 3c be 60 fe c7 3d
       -0.10030076 -0.025655564 -0.18435584 0.09765315
000110 c0 e6 d3 3c ce 02 32 3e 9a ec c8 ba c6 bd 27 bd
       0.025866866 0.17383882 -0.0015329302 -0.040952466
000120 e2 ff d4 bd f4 59 2a 3e 49 f0 79 3d de 9e 18 bd
       -0.10400368 0.16635877 0.06102017 -0.037260883
000130 36 4b ca bd fe 74 34 3d 24 f2 0b bd 07 7c 0c be
       -0.098776266 0.044056885 -0.03416647 -0.13719188
000140 d3 6e 71 3d 8d 28 db 3c a8 bb 0b 3e 46 8e a0 3d
       0.05894358 0.026752735 0.13645804 0.078396365
000150 bb 1c 07 be a4 e0 57 bd d9 48 07 3d 07 8a 13 be
       -0.13194554 -0.05270447 0.033028457 -0.14408122
000160 ed 09 3a be 07 cc 14 bd 33 06 31 3e 1e 5b 82 bd
       -0.18167849 -0.03632739 0.17287521 -0.063650355
000170 e6 8a 3c bd d3 88 dc bb 2b 05 69 bd 48 91 1f 3d
       -0.0460309 -0.006730178 -0.056889694 0.03895691
000180 00 12 23 3d 42 d7 6b 3d 58 86 29 bc 84 95 ca 3c
       0.039812088 0.057578333 -0.010346971 0.024729498
000190 5d 47 19 3d b0 29 86 bd f9 1f 27 be 8a d4 61 bd
       0.037421573 -0.0655092 -0.1632079 -0.055134334
0001a0 88 39 33 3e e7 ec b9 3d 0d 71 29 3e 0f b2 4d 3d
       0.17502415 0.09078389 0.16547032 0.050218638
0001b0 ba 42 94 bd 13 8f b6 bd 04 ea 2c be 57 6e 3a be
       -0.072392896 -0.08914008 -0.16886145 -0.18206154
0001c0 90 b6 c6 bd 84 42 02 be 12 16 24 be 5d 99 c2 bd
       -0.0970279 -0.12720686 -0.16024044 -0.09501908
0001d0 e1 cf 14 be 79 01 4a bb bd 4b 9f 3c eb a6 05 3d
       -0.14532425 -0.0030823632 0.019445295 0.03262989
0001e0 70 07 11 3e 3f 00 ed 3c 94 fa 89 3d 1e 92 a5 bb
       0.14162993 0.028930781 0.06737247 -0.005052819
0001f0 a0 53 90 3d cf f6 e4 ba c8 0b ff bc a2 4b 32 be
       0.070472 -0.0017468574 -0.031133547 -0.17411664
000200 89 2c 83 3e 24 3d f1 be 22 42 5d 3f 0e 01 e5 be
       0.25619915 -0.4711696 0.86429036 -0.44727367
000210 01 f1 1e bf 4d 49 5f bf d0 ec 14 bf 27 89 55 3c
       -0.6208649 -0.87221223 -0.5817385 0.013033188
000220 74 5e a4 3e f9 52 05 bf 7e ba 16 be 9f c2 6e 3f
       0.32103312 -0.5207973 -0.14719579 0.9326572
000230 41 72 81 3d 26 f8 07 3c 61 a2 1f be 3e 87 53 bf
       0.0632062 0.008298909 -0.15589286 -0.8262824
000240 4a b5 c7 3e 05 ca 8b 3f ab db f5 be 52 5e 2a be
       0.390055 1.0921026 -0.48019156 -0.16637543
000250 a0 b4 98 be 9a 8c 0a bf 60 3f 96 be 0d 61 be 3c
       -0.29825306 -0.5412079 -0.29345226 0.023239637
000260 46 8a 0a be a7 d5 3b 3f d0 77 26 3e d2 a8 3e bf
       -0.1352931 0.7337288 0.16256642 -0.7447635
000270 db a6 2c bf 69 7d 1f bf 1e fc 1f bf dd a1 d4 be
       -0.674421 -0.62300736 -0.62494075 -0.41529742
000280 cc 1a 29 3e eb 89 e6 be 97 95 6c 3e 98 e3 2e be
       0.16514128 -0.45027098 0.23103939 -0.17079008
000290 7a 7d 1a 3f b1 8a d3 3f a8 7f fa 3e e4 13 36 bf
       0.6034771 1.65267 0.4892552 -0.711241
0002a0 6b 53 8a be 51 77 d9 bc 6a 7b 8c ba f6 78 76 3e
       -0.27016768 -0.026546152 -0.0010717933 0.2406958
0002b0 66 93 bf 3e c5 d3 db 3e 52 3b 90 3d 9b 8c 05 3f
       0.37417144 0.42935005 0.070425645 0.5216767
0002c0 46 17 5a 3f 72 26 c1 be 18 a9 ef be ad 91 f4 3e
       0.8519176 -0.37724644 -0.46808696 0.47767392
0002d0 7d 69 e0 be be ab e2 3e 9a 1c 09 be f1 66 45 3e
       -0.4383048 0.44271654 -0.13389817 0.1927755
0002e0 25 5f 06 bf 25 8e c2 3e a3 e8 91 bd 03 11 1d be
       -0.5248893 0.37999073 -0.0712445 -0.1533852
0002f0 71 e9 f1 3e 1f 0d ae be 6d 21 43 3f f9 c2 44 be
       0.47248414 -0.33994386 0.7622288 -0.19215001
000300 89 c5 c4 be 2b 26 f8 3e 4d e5 2e bf b3 b7 f4 3d
       -0.38431957 0.4846662 -0.68318635 0.119491
000310 0c 46 d9 3e 2a 28 0e 3f e6 25 27 3f ff 71 42 be
       0.42436254 0.55530035 0.65292203 -0.18988799
000320 e8 56 bd be 2d af 9e 3e 43 f1 fd 3d cd 39 0e bf
       -0.36980367 0.30993024 0.12399533 -0.55556947
000330 dd 55 63 be 97 de 02 3c 11 b5 b2 3e 17 65 45 3f
       -0.22200723 0.00798764 0.34903768 0.77107376
000340 bf a3 b9 be 54 db 47 bf c6 64 f9 3e 59 e4 a0 3d
       -0.3625774 -0.78069043 0.48709697 0.07856054
000350 fd bf 4b 3d 92 01 d7 3e 14 72 0f 3e d2 39 a1 bd
       0.04974364 0.41993386 0.14008361 -0.078723565
000360 f7 3b 69 3e a3 9a 4c bf 0d 04 ff bd a0 b3 42 3f
       0.22776781 -0.79923457 -0.124519445 0.76055336
000370 1c 8b 1b 3f 35 8a 30 3f de e1 23 3f 4b 03 e4 3e
       0.6075914 0.6896089 0.6401652 0.44533762
000380 46 38 75 3c 5f 9f 31 3f 69 be 03 be ff be 24 3e
       0.01496703 0.69383806 -0.12865604 0.16088484
000390 10 1b 17 bf 49 75 99 bf 1e 97 c9 be b3 2c 50 3f
       -0.5902567 -1.1988918 -0.39373106 0.81318206
0003a0 e5 dd 39 3c 53 cf af bd 41 d9 f9 bc fd f2 b1 be
       0.011344408 -0.08584466 -0.030499103 -0.34755698
0003b0 a6 c7 6a be 58 ce e2 be c5 80 82 3e 3e 2b 04 bf
       -0.22927722 -0.44298053 0.25488868 -0.5162848
0003c0 93 f8 1c bf cd 65 a3 3e 28 f2 0c 3f 55 b8 8d be
       -0.61316794 0.31913605 0.55057 -0.27679697
0003d0 24 87 13 3f e2 cb fc be 23 e6 74 3e c6 3f 83 bd
       0.57628083 -0.493743 0.23915915 -0.06408648
0003e0 df 47 94 3e e2 51 c2 be be 86 b3 3d dd 32 e9 3d
       0.28961083 -0.37953097 0.087659344 0.113866545
0003f0 22 ad fe be 56 cf aa 3d 8e 72 56 bf 8c b2 80 3e
       -0.49741465 0.083403274 -0.83768547 0.2513622

2.linear1.bias f4 [64]
000000 0c 87 af 3e 6f 40 dc bb 8f 79 7f 3e 2b a0 d3 bd
       0.3428272 -0.0067215483 0.24948715 -0.10333284
000010 d1 91 e2 bd d0 b5 c7 3e 72 c2 c3 3e a1 5f c0 bd
       -0.110629685 0.390059 0.38234288 -0.0939324
000020 0e b5 84 3e b2 dc 28 be dc 21 1a be 87 0e 85 bd
       0.25919384 -0.16490439 -0.15051979 -0.064969115
000030 da 5f 8b bd 58 e9 c3 bd 0c 9c f4 bd df ec 58 be
       -0.068053916 -0.09565991 -0.11943826 -0.21184109
000040 ea d8 e8 bd c2 57 ed 3e ed ad d4 3e 16 53 27 be
       -0.11369498 0.46356016 0.41538945 -0.16340289
000050 65 5d 09 be a1 74 cd bd f6 02 11 be fc d3 e2 3e
       -0.13414533 -0.10032011 -0.14161286 0.44302356
000060 dc bf e8 bd da df ea bd 3c d9 48 be 98 47 be bd
       -0.11364719 -0.114684775 -0.19614118 -0.09290999
000070 bf b9 b2 bd 11 f4 c7 3e 1f 96 14 be 9f 79 b3 bc
       -0.087268345 0.39053395 -0.14510392 -0.02190858
000080 2f eb 02 be 1f 85 2a be d6 0c 10 be 64 07 b9 bd
       -0.12785028 -0.16652344 -0.14067397 -0.09034613
000090 5e 29 90 3e d5 6a ae bd 72 27 d8 3e 06 61 fb bd
       0.2815656 -0.0851647 0.42217594 -0.12274365
0000a0 39 4f dd 3e 1b 4b 26 bd 63 61 e6 3e e5 32 4c be
       0.43224505 -0.04059897 0.44996175 -0.1994129
0000b0 26 8a 96 3e e0 f0 92 bd 66 0d 9a bd c6 11 a6 bd
       0.29402274 -0.071748495 -0.07522087 -0.08108859
0000c0 63 8f bd 3e 9b 19 c4 bd 5b 1d 0b be 2e 00 d3 3e
       0.37023458 -0.09575196 -0.13585417 0.41211075
0000d0 08 e4 eb 3e 18 db 02 bc 17 3a ee bd 10 f7 ef bd
       0.46072412 -0.007986806 -0.116321735 -0.11717045
0000e0 57 49 a1 3b b9 44 c8 bd 3a b4 5e be 62 79 11 be
       0.004922073 -0.09778733 -0.21748438 -0.1420646
0000f0 f8 84 0e 3a f3 00 23 be 92 8d f5 bd 4c 67 b1 bd
       0.0005436684 -0.15918331 -0.11989893 -0.086622804

2.linear2.weight f4 [2, 64]
000000 30 a7 9a 3f e8 c3 94 3d 92 9b 9e 3f 9f 08 86 bf
       1.2082272 0.07263929 1.2391226 -1.0471381
000010 0a 93 a2 bf cf bd 8c 3f 20 63 8e 3f 06 fb 69 bd
       -1.2701123 1.0995425 1.1124 -0.05712416
000020 c0 62 71 3f 6f f2 81 bf 24 53 59 3c e4 85 db bc
       0.94291306 -1.015211 0.013264451 -0.026797242
000030 5a 45 b8 3d 85 32 9c bf 06 c0 a1 bc 1f 33 a0 bf
       0.08997603 -1.2202917 -0.019744884 -1.2515601
000040 78 f1 93 bc 50 85 94 3f 17 57 83 3f 87 66 a0 bf
       -0.018059477 1.1603184 1.0260953 -1.2531289
000050 0a 7e 8d bf b4 6a 48 bd ef 97 8d bf 89 d8 9b 3f
       -1.1054089 -0.048929885 -1.1061991 1.2175456
000060 c6 93 aa 3d 8b bb 88 bf 2e 0a 88 bf 64 fa 3c bd
       0.08328967 -1.0682234 -1.0628107 -0.04613723
000070 56 b4 71 bf 52 16 86 3f a8 0a 36 bd be 7d 75 3c
       -0.94415796 1.0475562 -0.044443756 0.014983593
000080 a6 e3 93 bf 4a 70 29 3d 00 c0 a8 bf 4c 45 95 bf
       -1.1553848 0.041366853 -1.3183594 -1.1661773
000090 88 80 9f 3f 58 0e f4 3c fb 7d 92 3f 10 87 c0 3c
       1.24611 0.029791996 1.1444696 0.023501903
0000a0 3d a2 a9 3f 98 7a 99 bf a9 a3 85 3f bb b5 91 bf
       1.3252636 -1.1990538 1.044057 -1.1383585
0000b0 b8 f3 8a 3f ca 06 8e bf 46 0f 90 bf 07 32 95 bf
       1.0855627 -1.1095822 -1.1254661 -1.1655892
0000c0 f4 d0 88 3f 2b fc fe 3d 97 6f 50 3d 6f 63 82 3f
       1.0688767 0.12450441 0.05088767 1.0186595
0000d0 49 c6 a7 3f c2 fc 1a bd 6e f2 88 bf 5d 45 88 bf
       1.3107387 -0.037838705 -1.0698984 -1.0646168
0000e0 2e fe 20 bd 86 24 91 bf bf 45 9d bf bf 97 92 bf
       -0.039304905 -1.1339271 -1.228691 -1.1452559
0000f0 7e 3e 4b 3d 1b 4b 88 bf 80 60 cc 3d 79 e4 d2 3d
       0.049620144 -1.064792 0.099793434 0.10297484
000100 f5 86 8e bf f7 69 54 3d 53 42 86 bf 1c 7f 6b 3f
       -1.1134936 0.05185887 -1.048899 0.9199083
000110 b0 9f a4 3f 07 3c 8a bf b8 17 8e bf 3e 9d 8c bd
       1.2861233 -1.0799569 -1.1100988 -0.06865929
000120 4c cf 7f bf 2c 74 99 3f a6 a2 6d bd e6 8f c3 bd
       -0.99925685 1.1988578 -0.05801644 -0.09548931
000130 90 f6 78 3c d3 8e 8a 3f b1 77 2f bd 0d c5 b1 3f
       0.015195504 1.0824836 -0.042838756 1.388826
000140 44 54 92 bd 82 42 a0 bf 1c 0f 96 bf f8 1d 9e 3f
       -0.07144979 -1.2520297 -1.1723361 1.2352896
000150 a2 25 7b 3f 3e 2f 66 3d 12 83 80 3f ab 69 85 bf
       0.981043 0.056197397 1.004 -1.0422872
000160 cc df 8a bb 22 97 98 3f 9e 98 99 3f d0 a4 fb 3c
       -0.0042381044 1.1921122 1.19997 0.030718237
000170 05 49 75 3f a2 2e 8e bf 4b d1 92 bd f6 18 7a 3c
       0.95814544 -1.1107981 -0.07168826 0.01526474
000180 2b 25 90 3f 3c 22 44 3d ea ad a0 3f e1 0c 8b 3f
       1.1261343 0.04788421 1.2553074 1.0863305
000190 e6 6a 86 bf b8 2c 0b be 1a e6 95 bf 78 62 a0 3d
       -1.0501373 -0.13591278 -1.1710846 0.078312814
0001a0 5f 18 a0 bf a8 3e a3 3f ca 2e 94 bf a8 e4 86 3f
       -1.2507437 1.2753496 -1.1576779 1.053853
0001b0 1e 80 83 bf d1 61 85 3f 9e 26 7c 3f ee 3e 88 3f
       -1.0273473 1.0420476 0.98496425 1.0644205
0001c0 0d 53 a5 bf 10 d5 b5 3d 26 20 1c 3d 0a cf 8c bf
       -1.291597 0.08878529 0.038116597 -1.1000683
0001d0 57 36 91 bf 33 ef ed 3c 4d 28 82 3f 71 76 9b 3f
       -1.1344708 0.029044723 1.0168549 1.214552
0001e0 82 69 c5 bd dd 37 92 3f 89 de b2 3f 03 14 8d 3f
       -0.09639265 1.1423298 1.3974162 1.1021732
0001f0 5e fc 48 3c ef e0 92 3f 3a 94 0c be 28 7f 67 bb
       0.0122672 1.1474894 -0.13728419 -0.0035323594

2.linear2.bias f4 [2]
000000 af f1 ad 3e 91 3e a5 be
       0.33973452 -0.32274297

3.linear1.weight f4 [64, 64]
000000 f5 4d ee 3e 05 92 b3 be c5 ed 1f 3e b3 44 18 be
       0.46543851 -0.35072342 0.15618046 -0.14869957
000010 8c d7 45 bf e2 34 94 3e d4 7d 02 3e 23 8a ba be
       -0.77282023 0.28946596 0.12743312 -0.36433515
000020 9c f7 c5 bc b4 a1 57 bf 40 ec 30 3f 4a aa 2d 3e
       -0.02416592 -0.84231114 0.6911049 0.16959491
000030 f9 25 33 3f c1 87 04 bd eb 19 f6 be 33 49 06 bd
       0.69979817 -0.032356028 -0.4806665 -0.032784652
000040 cb 30 64 bf af fd b7 3f ab dc 33 3f 91 90 ec 3c
       -0.8913695 1.4374293 0.7025859 0.028877528
000050 88 23 2b 3f c3 45 0c bf b2 d5 39 3b dd 3b 44 bf
       0.6685109 -0.5479395 0.0028356132 -0.76653844
000060 be 9f ca be e3 ab 08 bd 6b a5 15 3f b3 0d a8 bf
       -0.39575 -0.03336705 0.5845553 -1.3129181
000070 32 25 a5 bd f7 32 2e be 11 bd c4 3c c0 ae 50 3f
       -0.08063735 -0.17011629 0.024015935 0.8151665
000080 d1 a7 40 bd 75 a3 a2 be e2 16 31 bf 1f ac 7e 3e
       -0.047035042 -0.31765333 -0.6917554 0.24870346
000090 2c 9c 02 3f 7c ca 41 3e 49 7e 85 3e e2 64 af be
       0.5101955 0.18924898 0.2607291 -0.34256655
0000a0 f0 d2 52 bf 64 4f c7 be e8 4c 38 3d 57 d8 78 3e
       -0.82353115 -0.38927758 0.04499522 0.24301277
0000b0 f1 12 31 3c ad 4c f2 be 6b 39 4d be fc d5 f3 3d
       0.010807739 -0.47324124 -0.20041434 0.11906049
0000c0 2d 79 b3 3e ff 87 5f 3e e7 e4 a1 be d4 6d 93 3f
       0.35053387 0.21829222 -0.3161995 1.1517892
0000d0 61 dc d9 bd 88 35 a3 3e 05 9d 25 bf 5b 85 88 3e
       -0.10637737 0.3187678 -0.6469272 0.26664242
0000e0 fe 5c 96 3e e4 7a 2a 3f 6b b7 e5 be 92 c8 f8 be
       0.29367822 0.66593766 -0.448665 -0.48590523
0000f0 cb 9a 9e 3e 16 f8 1f bf 76 be 86 3f fb b2 70 be
       0.30977473 -0.62487924 1.0526874 -0.23505776
000100 62 3c d6 bc 95 7c 36 be 92 3f 83 bd c9 22 7a 3d
       -0.02615184 -0.17820962 -0.064086094 0.06106833
000110 1a c4 a5 3d bb 26 02 3e 55 6d 13 3e 9a 52 d3 3c
       0.08094044 0.12710087 0.14397176 0.025796223
000120 f8 ca 89 3d 02 0e 6c 3d 45 0c b8 bd 68 86 b1 3d
       0.06728166 0.057630546 -0.08986715 0.08668214
000130 63 0f 1e bd f6 68 45 bd 99 d6 f9 3d 81 4c 35 be
       -0.038588893 -0.0481958 0.121991344 -0.17704965
000140 81 e4 9a bc 73 36 e1 3c 75 06 7b bd cc 98 1e be
       -0.018907787 0.027491784 -0.061285455 -0.15487975
000150 d6 81 23 be 01 ef 2d bc 30 59 34 be ed 38 34 be
       -0.15967497 -0.010616065 -0.17612147 -0.1759984
000160 fa ae 01 be 18 41 33 3d 21 05 81 3c 3a e0 6f bd
       -0.12664405 0.04376325 0.015749516 -0.05856345
000170 7e 59 84 3d e9 63 2c 3e b4 cd 07 3e d9 6f 65 bd
       0.06462382 0.16834988 0.13262063 -0.05601487
000180 f7 f1 d1 bc cc fe 7d bd a1 5f ab 3c f4 6d 87 3c
       -0.025628073 -0.06201057 0.020919623 0.016531922
000190 71 ac bd bc a9 15 55 bc 8d 75 2f be 6d 38 c6 3c
       -0.023153516 -0.013005652 -0.17134686 0.024196828
0001a0 ec b8 24 3e f0 b6 3b 3d 20 12 75 bc ff fd 9f 3d
       0.16086167 0.04582876 -0.014957935 0.07812118
0001b0 e2 82 d7 bb d3 e0 78 3d f3 bb a3 bc 00 97 c5 bd
       -0.0065768817 0.060761284 -0.019987082 -0.096479416
0001c0 6a d7 ed bd 19 27 fa bd 0d 31 21 3e 2f fc 46 3d
       -0.116133526 -0.122144885 0.15741368 0.048580345
0001d0 37 1e 14 3d 1c fd 23 3e 78 17 4c 3d f8 f8 e6 3c
       0.036161628 0.16014522 0.04982707 0.02819489
0001e0 4c a3 10 3e c7 b2 5a bd e8 26 f4 3d 49 ac 75 bd
       0.14124793 -0.05339315 0.11921483 -0.059978757
0001f0 cb 98 21 be 93 6e 7d 3b 16 5a 17 3e 05 56 db bd
       -0.15780942 0.0038670644 0.14780459 -0.10709766
000200 97 60 e5 be a9 08 4d 3e cb 63 d8 bb 23 45 5b bb
       -0.44800255 0.20022835 -0.006603693 -0.0033457957
000210 f3 66 4e 3f d3 ac 01 bf 82 62 13 be dd 08 42 3e
       0.8062584 -0.50654334 -0.14393046 0.18948694
000220 b0 14 92 be ed d3 22 3f c7 46 fc be 3a 84 b6 bd
       -0.28531408 0.63604623 -0.4927275 -0.08911939
000230 5a 2a 50 bf 77 ae 6b 3d e6 ef e6 3e 3d 4d fc 3d
       -0.81314623 0.05753943 0.45104903 0.123194195
000240 c7 74 6e 3f 38 5e b5 bf a1 70 f8 be 90 4a 2a 3e
       0.9314694 -1.4169378 -0.4852343 0.16630006
000250 0b 11 03 bf 42 54 f4 3e d4 f4 47 bd fd 8b 4a 3f
       -0.5119788 0.47720534 -0.04881747 0.79119855
000260 17 50 dc 3e fe 3e 73 be cd 7d a0 be 13 e4 95 3f
       0.43029854 -0.23754498 -0.31345978 1.1710228
000270 0c c5 41 3e fd fe 4e 3e d5 bc 3b 3e d3 8e 62 bf
       0.18922824 0.20214458 0.18333752 -0.8849918
000280 c8 b5 b7 3e bb 3e d3 3e f1 6a d1 3e a8 76 06 be
       0.35880876 0.41258797 0.40901902 -0.13131201
000290 cd c4 ed be b1 50 c6 bd 3b 08 60 be ca fa 22 3f
       -0.4643921 -0.096833594 -0.2187814 0.63663924
0002a0 39 9a 39 3f 82 a1 7e 3e 15 e0 2a 3e e3 bf 96 be
       0.7250095 0.24866298 0.16687043 -0.29443273
0002b0 04 88 f6 bd fb 4f 7f 3e 2f 6e a4 3e dc 47 86 be
       -0.12037662 0.24932854 0.32115313 -0.262267
0002c0 fe eb 96 be c9 7d 19 be b4 cf 88 3e 41 f0 90 bf
       -0.29476923 -0.1498939 0.26720965 -1.132332
0002d0 50 ee d8 3d 1e c3 cb be 9e 9e 19 3f a5 1c b5 3d
       0.105923295 -0.397973 0.60007656 0.08843354
0002e0 f8 3d 90 be a7 f9 2d bf af 49 bd 3e b4 b4 12 3f
       -0.28172278 -0.67959064 0.3697028 0.5730698
0002f0 77 fc 6f be 3b 07 38 3f 37 be 80 bf 0d bb 07 3f
       -0.23436151 0.7188603 -1.0058049 0.5301979
000300 10 38 35 3f 1e 43 bd be 79 59 7e 3e 19 54 56 be
       0.7078867 -0.3696527 0.24838819 -0.20930518
000310 b0 0c 4f bf 7d cf d2 3e 96 cc ef 3c e2 9f a4 be
       -0.80878735 0.41173926 0.029272359 -0.3215323
000320 48 08 07 3e 16 1d 3b bf a5 1e 48 3f 5a 1c 9b 3e
       0.13186753 -0.73091257 0.7817176 0.30295068
000330 c6 db 4b 3f a0 aa 60 be 44 f1 cb be 2f 94 20 3d
       0.7963222 -0.21940088 -0.3983251 0.03920382
000340 c6 c9 7c bf 14 15 b8 3f 07 96 13 3f ac 70 d4 3d
       -0.9874538 1.4381433 0.576508 0.10373053
000350 b1 ac 25 3f d2 0a 17 bf b8 76 76 3d 13 50 36 bf
       0.6471663 -0.59000885 0.060171813 -0.71215934
000360 25 01 f9 be ce 4a 11 3e b2 bb 05 3f 3d 22 9b bf
       -0.48633686 0.14188692 0.52239525 -1.2119824
000370 a7 da 3b be 96 15 b1 be 9b 02 3f bd 43 d2 57 3f
       -0.18345128 -0.3458678 -0.046633344 0.8430521
000380 65 59 f9 bd 59 a1 9f be 1e 72 01 bf 0f 33 81 3e
       -0.12175254 -0.31177786 -0.50564754 0.25234267
000390 6a 68 cf 3e 38 69 1e 3e 4d 10 bc 3e 33 7d 0e bf
       0.4050935 0.15469825 0.36731187 -0.5565979
0003a0 3a 22 27 bf 69 ec 95 be 7d 6b 11 3d d9 6c 72 3e
       -0.652866 -0.2928193 0.0355029 0.23674335
0003b0 32 70 10 be 7f fd e0 be 17 d4 58 be f4 53 71 3e
       -0.14105299 -0.43943402 -0.21174656 0.23567182
0003c0 7b 41 a8 3e ac 5a 84 3e d5 c7 16 be 88 24 85 3f
       0.32862458 0.25850427 -0.14724667 1.0401773
0003d0 00 aa 85 be 80 b7 b9 3e be ee 2f bf d1 36 3e 3e
       -0.26106262 0.36272812 -0.68723667 0.18575598
0003e0 4a 0b 44 3d a7 7e 05 3f e3 4d ed be 21 ed 07 bf
       0.04786233 0.5214638 -0.46348485 -0.53096205
0003f0 53 31 88 3e 87 f4 32 bf c7 46 8e 3f 81 fa 74 be
       0.2660013 -0.6990437 1.111535 -0.23923685

3.linear1.bias f4 [64]
000000 90 9f 3c 3e e5 e0 ee bd 7e d2 d9 bb 5a b3 89 3e
       0.18420243 -0.11663989 -0.006647407 0.26894647
000010 71 78 3e 3e bf 38 d2 bc 00 9a c2 3e 91 2f 06 be
       0.18600632 -0.025661824 0.38008118 -0.13104083
000020 24 fe 2a be 28 ac a8 3e 68 b1 9d 3e 7a ac 57 bd
       -0.1669851 0.32943845 0.30799413 -0.05265472
000030 6e 6b ce bd 2f 94 c4 bc 8d 41 50 3d 24 50 02 bd
       -0.10079084 -0.02399644 0.050843764 -0.03181471
000040 69 5a 93 3d 44 52 8d bd e3 bb b9 3e 26 28 d1 bd
       0.07194979 -0.069004565 0.3627616 -0.10212736
000050 f2 1a b9 bd 3f 09 92 3e 87 96 83 bd 8f 86 c6 3c
       -0.090383425 0.2852268 -0.06425195 0.024234084
000060 bb 06 1f be 5d 2d cb 3b 87 a7 21 3e be 52 71 3e
       -0.15529911 0.006200476 0.15786563 0.2356672
000070 fc c0 85 3d 8c 03 93 3e a3 be 8c 3e 15 ce ba 3d
       0.065309495 0.28713644 0.27489194 0.09121338
000080 57 b6 c9 bd d9 34 07 be e3 0c f5 bd fc c8 ac 3e
       -0.09849232 -0.13203754 -0.119653486 0.3374709
000090 16 0c f5 bd 39 7b c8 3d 1c 6f e1 bd 31 67 8b bd
       -0.11965196 0.09789128 -0.110075206 -0.068067916
0000a0 01 fa e1 bc 78 8e a0 bd 85 0e c7 3e 5c 9f 46 3d
       -0.027585031 -0.07839674 0.38878265 0.04849182
0000b0 d7 0b 87 3e 9b 7b 98 3c 08 7a 91 bd bb 6e 05 bd
       0.2637622 0.018613627 -0.07103354 -0.032576304
0000c0 79 d6 17 be d6 99 ea bd 39 9f 22 be 66 e3 27 3d
       -0.14827909 -0.11455123 -0.15881051 0.04098835
0000d0 b4 43 8b bd b5 21 bd 3e e8 04 dd bd 7a 28 7d 3d
       -0.06800023 0.3693978 -0.107919514 0.06180618
0000e0 e8 fa b2 bd 7f 10 9b bd e6 b2 52 bd 6f ac 16 3d
       -0.08739263 -0.07571506 -0.051440142 0.03678554
0000f0 90 e9 c0 3d 87 4b 6f bd 3a 86 f8 bd 9e aa 3d 3e
       0.094195485 -0.058421638 -0.12134977 0.18522117

3.linear2.weight f4 [2, 64]
000000 b2 23 ad 3f 81 4c 19 bc 5c e3 84 bf 0f d4 9d 3f
       1.3526518 -0.009356619 -1.0381885 1.233034
000010 82 c0 e7 3f 78 b0 9d 3c 8d 75 9f 3f 98 03 3a 3d
       1.8105624 0.019249186 1.2457749 0.045413584
000020 b8 26 69 bd 03 b1 a4 3f 89 1d a2 3f 38 2a 89 bd
       -0.05692169 1.286652 1.2665263 -0.06697506
000030 54 da 24 3d 55 a6 a6 3d 02 22 82 bf 2c a3 51 bd
       0.040247276 0.08137194 -1.0166628 -0.051181003
000040 1f 75 7a bf c8 95 c6 3d df 47 9d 3f 0e 7d 7d 3d
       -0.9783496 0.09696537 1.2287558 0.06188684
000050 2a d0 0c bd 8a b7 a3 3f 3d 46 8c bf 45 7b 81 bf
       -0.03437821 1.2790387 -1.0958935 -1.0115744
000060 0a 2e f9 3d 44 b7 6e bf 3e 9f a1 3f 17 21 bc 3f
       0.121669844 -0.9324839 1.2626722 1.4697598
000070 17 48 6a bf d7 5d a6 3f 99 25 b0 3f 8d 55 a0 3f
       -0.9151625 1.2997388 1.3761474 1.2526108
000080 ce 69 11 3d 47 b1 d6 3c 25 14 fd 3c 49 ca 9d 3f
       0.035501294 0.02620758 0.030893395 1.2327358
000090 b0 ad 3a bd 20 f9 4a 40 a2 86 a4 bd 57 4c 7c bd
       -0.045575798 3.1714554 -0.08033492 -0.06159624
0000a0 43 d5 7f bf 40 da 96 3b 33 eb 92 3f 26 07 6a bf
       -0.99934787 0.004603654 1.1478027 -0.9141716
0000b0 89 a7 88 3f 40 75 73 bf 3e 05 b1 bc 88 10 8f bf
       1.0676128 -0.95100784 -0.021608945 -1.117692
0000c0 63 15 b7 3d 60 68 24 3d 10 0b 38 ba 45 96 e0 3d
       0.08939626 0.040138602 -0.00070206914 0.10966162
0000d0 a8 77 f6 bc e3 7d 8d 3f 5b 27 bb bd d4 7e 82 bf
       -0.030086353 1.1054043 -0.09138366 -1.0194955
0000e0 ce 26 c0 3d ca 50 00 be 02 b5 ae 3d 10 68 6d bf
       0.093824014 -0.12530819 0.08530618 -0.9273691
0000f0 23 de c7 3f b9 a8 87 bf 80 2b b7 bb 91 ce bc 3f
       1.5614666 -1.0598365 -0.0055899024 1.4750539
000100 e1 59 b7 bf 38 3b 5e 3d c8 48 7b 3f 1b 7e 9c bf
       -1.4324304 0.054255694 0.9815793 -1.2225984
000110 42 61 f2 bf 4a be 16 3e e3 2a 99 bf 76 a8 05 3d
       -1.8935931 0.14721027 -1.1966213 0.03263136
000120 9b a4 82 3d 92 19 a2 bf c0 c9 8a bf 5a e7 76 3d
       0.06379052 -1.2664053 -1.0842819 0.060279228
000130 a3 08 b2 3c 7f e0 59 bd 76 32 69 3f 8c 12 f0 3d
       0.021732634 -0.05319261 0.9109262 0.117222875
000140 35 c1 80 3f 84 04 e3 3d 68 df 94 bf 6d 53 1b 3d
       1.0058962 0.11084846 -1.1630678 0.037921358
000150 9e 82 68 3d c1 24 9f bf ff 32 76 3f d0 a1 97 3f
       0.05676519 -1.2433091 0.96171564 1.1846256
000160 03 0e 4f 3d b7 0d 85 3f 16 c4 9a bf 60 c4 c4 bf
       0.050550472 1.039481 -1.2091091 -1.5372429
000170 33 f3 85 3f 6b 5b 96 bf cf ac 94 bf 3f 77 90 bf
       1.0464844 -1.1746649 -1.1615237 -1.1286391
000180 ba ac 32 3d 0b e8 53 3d af 0f 52 3d 4c 95 9f bf
       0.043621756 0.051734965 0.05128449 -1.2467437
000190 00 65 5e 3d e3 a3 4c c0 f0 9a a8 bd 10 52 1f bb
       0.05429554 -3.1975029 -0.08232677 -0.0024310388
0001a0 ea 5a 82 3f 80 56 a6 3d 70 5c a7 bf 3f 1f 7f 3f
       1.0183995 0.08121967 -1.3075085 0.9965705
0001b0 a1 a2 8f bf b7 47 7f 3f 8a 27 dc 3c 02 92 7f 3f
       -1.1221505 0.99718803 0.026874322 0.99832165
0001c0 06 75 fa 3c 5a 16 ae 3d f4 80 cc bc e9 fe 44 bc
       0.03057338 0.08500357 -0.024963833 -0.012023666
0001d0 d0 2b 47 3c bb a3 98 bf 84 7d 59 bd ea f1 88 3f
       0.012156442 -1.1924967 -0.053098217 1.0698826
0001e0 55 e6 32 3d b3 23 4c bd 32 9a 59 3d 9a 7d 82 3f
       0.043676693 -0.049838733 0.053125568 1.019458
0001f0 37 9e bd bf 32 5f 7f 3f 9e 99 a3 bd aa a8 bf bf
       -1.4813908 0.9975463 -0.079882845 -1.4973347

3.linear2.bias f4 [2]
000000 38 d0 bb 3c e5 f1 64 be
       0.022926435 -0.223579
