resources/classifier/initiation/embedding.pt (torch, 510317 bytes, 14 tensors)

conv1.weight f4 [32, 4, 3, 3]
000000 cb 20 54 3d f7 e8 ca ba e2 43 13 3e 68 5c a9 bd
       0.051789086 -0.0015480806 0.14381364 -0.08269578
000010 81 a8 12 be bd 41 ec bd 8c 0d a9 bd 7e 2c 25 be
       -0.14322092 -0.11535976 -0.08254537 -0.16130254
000020 4c 69 18 3e fb 8e d6 3d 84 20 eb bd 5b 4b bb bb
       0.14883918 0.1047649 -0.11480811 -0.00571577
000030 91 cd 15 3e 8b ab 22 bd 7e 03 97 3c d3 f6 14 3e
       0.14629199 -0.039714377 0.018434282 0.14547281
000040 d2 1e 89 bd 3e bd 1f be 49 04 c7 bc a4 47 15 be
       -0.06695332 -0.15599534 -0.024294036 -0.1457811
000050 43 eb 96 bd 85 50 18 bd 9f 51 1b bd 6e a8 c1 bd
       -0.07369091 -0.037186164 -0.037919637 -0.094559535
000060 ad 79 a5 3c 44 65 1c be 34 03 4a bd f5 33 cc bd
       0.020199621 -0.15273005 -0.04931946 -0.099708475
000070 de 80 ee bd 0a 3f 9a 3d 34 00 cd bd ac b3 0a be
       -0.11645673 0.07531555 -0.10009804 -0.13545102
000080 36 3a f7 3d 35 c1 f8 3d a3 95 12 ba 3a 64 0b bd
       0.1207165 0.12146226 -0.00055917556 -0.03403113
000090 92 d0 b2 bd 91 76 d0 bc 08 28 72 3d 32 1f e8 3d
       -0.08731188 -0.025447162 0.059120208 0.11334075
0000a0 57 92 f9 3d e7 de 22 be 08 39 88 3d c2 1d f5 3d
       0.12186115 -0.15905343 0.06651503 0.119685665
0000b0 22 ee ff bd 6a 02 27 bd 7d 23 71 3d 93 09 17 3e
       -0.12496592 -0.040773787 0.058871735 0.14749746
0000c0 fc b0 1a be fe 85 0a 3e a7 ad ce 3d 67 e6 08 be
       -0.15106577 0.13527676 0.10091715 -0.13369142
0000d0 87 45 dd bc ef 9e 19 3e fe db 93 bd af 02 78 bd
       -0.027010692 0.15002035 -0.072196946 -0.060549434
0000e0 ad 03 31 bd 78 6f 1e be b8 85 c0 3d 37 5a 1c 3e
       -0.043216396 -0.1547221 0.09400505 0.15268789
0000f0 37 72 49 3d 8d c6 1d 3e fe 9f 9f 3d f5 51 40 3d
       0.04918119 0.15407772 0.07794188 0.04695316
000100 1e c4 d8 bd 82 6e 28 be 25 4b bb ba 8b 08 27 3e
       -0.105842814 -0.16448405 -0.0014289363 0.16311853
000110 63 76 92 bd 6b 87 12 3e 5a 1b 0c be 12 ec 00 be
       -0.07151487 0.1430947 -0.13682309 -0.12590054
000120 9b 1f bf 3d 9e cf 99 bd 5b 01 47 bd d0 77 64 3d
       0.093322 -0.07510303 -0.048585277 0.055778325
000130 a1 c2 f7 3c c8 a7 e9 3d 89 39 1a bd a4 ee b7 bd
       0.030244173 0.11408955 -0.037652526 -0.08981064
000140 e1 3f b4 3c e3 cc 11 3d 73 40 47 bd 65 0b c4 3d
       0.022003116 0.035595786 -0.048645448 0.09572486
000150 5e e1 64 3d d2 1f d7 bd f9 f0 0b 3d 83 29 81 bd
       0.05587899 -0.10504116 0.034165356 -0.06306746
000160 8c a1 cf 3c 8b 48 d4 3d fc 51 02 be b6 b4 df bc
       0.025345586 0.10365399 -0.12726587 -0.02730785
000170 c6 cc 15 be 36 37 61 bc a3 c4 19 3e 55 22 0b 3e
       -0.14628896 -0.0137460735 0.15016417 0.13587315
000180 06 c0 c5 3d f0 c1 77 3d 54 06 42 bd 79 a0 c5 3d
       0.09655766 0.060487688 -0.047369316 0.09649748
000190 77 97 de bd 18 f6 0e be 1b 32 34 bb 0e df 7d 3b
       -0.108687334 -0.13961065 -0.0027495685 0.0038737687
0001a0 44 f1 16 3d d8 6e 93 bd 30 0f 21 be f7 77 0f 3d
       0.036851183 -0.07198876 -0.1572845 0.035026517
0001b0 48 43 a3 3b 0b 93 14 3e a1 98 1d be 10 97 84 3d
       0.004982386 0.14509217 -0.15390255 0.064741254
0001c0 df b5 21 be 39 c7 f2 ba ce aa dd 3d 70 5a 14 be
       -0.15792035 -0.0018522508 0.10823594 -0.14487624
0001d0 f6 29 28 be 9c 95 fa bc 81 07 e6 3c d2 60 a8 bd
       -0.16422257 -0.030588917 0.02807975 -0.08221592
0001e0 bf 23 81 3c 54 80 9f 3b 00 18 a4 3b 58 6f 28 be
       0.015764115 0.004867593 0.005007744 -0.16448724
0001f0 49 49 0a be 58 75 1b 3d ea b2 28 bd 32 91 ea 3d
       -0.13504519 0.037953705 -0.04118625 0.11453475
000200 71 b1 ae bd f7 29 78 bd 1a 6d b2 3d 76 2c 75 bc
       -0.08529938 -0.060586896 0.08712216 -0.014964214
000210 7f 1c 25 be 17 d1 14 3e 6a be 18 3e 22 62 df 3c
       -0.16124152 0.14532886 0.14916387 0.027268473
000220 cc 02 2a 3c 33 2d b8 bd 10 32 26 3d dd 4e 85 bd
       0.010376643 -0.08992996 0.040575087 -0.065091826
000230 55 be 97 3d 01 1e b7 3d d5 23 5b bd 69 0d a9 bd
       0.0740935 0.0894127 -0.05350097 -0.08254511
000240 4c 7c aa 3d 37 a8 09 3e e7 13 5e 3d fd 07 25 3d
       0.08324489 0.13443075 0.0542182 0.04029082
000250 10 14 0b be c5 cf d5 bd fd b0 23 ba e7 bd 1c be
       -0.13581872 -0.104400195 -0.000624433 -0.15306817
000260 98 a3 f0 bd 5f dd 9f 3d f4 08 1a be 51 ae 07 3e
       -0.11749953 0.07805895 -0.15042478 0.1325009
000270 a1 f8 14 be 25 4a 03 be c4 ad f4 bd 56 78 67 bd
       -0.1454797 -0.12821253 -0.11947206 -0.056511246
000280 fe f0 ef 3d da 57 3f bd 42 61 d6 3c 9a 5f 91 bd
       0.117158875 -0.04671464 0.026169423 -0.07098313
000290 cc 93 03 be fd e7 0c 3e bf 5c df 3d 17 e3 8f 3d
       -0.12849349 0.13760372 0.10906362 0.07025736
0002a0 5d d6 78 bd ca 28 14 3e 82 3f d8 bc b7 bb 91 bd
       -0.060751308 0.14468685 -0.02639747 -0.07115882
0002b0 de 0a d3 3d 6d 7d af bd 9d 1d 3f bd 1f 64 bd bd
       0.10304807 -0.08568845 -0.0466591 -0.09247612
0002c0 d9 2c 2b bd c7 f0 9f 3d ca a1 d3 bc 47 94 93 3d
       -0.041790817 0.078095965 -0.025833983 0.07206016
0002d0 7a d3 15 be 4b 03 06 be 58 6d a1 3c 5a b4 93 3d
       -0.14631453 -0.13087194 0.01970546 0.07212134
0002e0 4a 9b 93 bd 65 02 27 be 09 ac 18 3e a7 5e a8 3d
       -0.072073534 -0.16309507 0.14909376 0.082211785
0002f0 21 8f a2 3d d5 e5 ac bd fe cd cc bd f0 91 f1 3c
       0.07937456 -0.084422745 -0.100002274 0.029488534
000300 69 64 0a 3e 6d c4 1a be 63 f9 aa bd a2 28 17 3e
       0.13514866 -0.15113993 -0.08348348 0.14761594
000310 bb d2 17 be e0 53 8f 3d d0 9c 97 3d bb c5 8d 3c
       -0.14826481 0.0699842 0.074029565 0.0173062
000320 33 0c a0 3d fb fe 05 3c 9b c9 11 be 18 0e 21 3e
       0.07814827 0.008178468 -0.14237063 0.15728033
000330 38 23 8b 3b 18 f4 ff 3b d2 b0 bf 3d e6 22 1a 3e
       0.0042461418 0.0078110807 0.09359898 0.15052375
000340 b5 e5 bb bd a7 8a 1d 3e 5d b0 3c bb 44 da 03 be
       -0.091746725 0.15384923 -0.0028791644 -0.1287623
000350 f7 1e a5 bd 4b a7 05 bd ac 31 b3 bc 0f e8 bb 3d
       -0.08062547 -0.032630246 -0.021874271 0.09175121
000360 11 17 17 be 8c 1d 3a bd 19 de bd bd 9a e5 e2 3d
       -0.14754893 -0.045438334 -0.092708774 0.11078949
000370 38 d5 0c be ca b9 ac 3c d3 6c ae 3d 2b 47 21 be
       -0.13753211 0.021084685 0.0851685 -0.15749805
000380 c8 69 dc bc d8 e7 c6 bc 66 f0 19 be 9c ac f7 3d
       -0.02690591 -0.024280474 -0.15033111 0.120934695
000390 a5 68 50 b9 a7 6e a3 3d 46 c1 b1 3d ef 24 19 be
       -0.00019875409 0.0798009 0.08679442 -0.14955495
0003a0 97 e0 0e be 73 9a ff bd 30 65 c4 bd 37 ed 09 bd
       -0.13952862 -0.12480631 -0.095896125 -0.03367349
0003b0 9a 8e 51 3d 2e 02 3a bd 8d 57 dc 3d e1 3a c8 3d
       0.051161386 -0.045412235 0.107588865 0.09776855
0003c0 5e ef 8e 3d a2 0f 93 bd 50 07 b1 bd 54 fa cb 3b
       0.069792494 -0.07180716 -0.08643973 0.00622491
0003d0 69 d4 2e bd 1d 64 d0 bb 25 ed 27 be 41 6c c0 3d
       -0.04268304 -0.0063595907 -0.16399057 0.09395648
0003e0 66 1b 04 be b9 85 0c 3e d5 06 56 bd a9 13 f6 bd
       -0.12901077 0.13722886 -0.05225261 -0.120154686
0003f0 c5 15 4b 3d 0c ed c6 3d c1 c2 25 3e 9a ee bc 3c
       0.049581308 0.09713182 0.16187574 0.023062993

conv1.bias f4 [32]
000000 28 e7 1c be 66 f0 3f 3d e1 ac a9 bd ce 45 7b bd
       -0.15322554 0.04686012 -0.08284927 -0.061345868
000010 f8 7c 63 bd 96 ba 21 bd 79 b4 01 bd 19 f4 18 3e
       -0.0555391 -0.039484583 -0.031666253 0.14936866
000020 0a 9b 2e 3e 25 23 14 be c1 76 b1 bd e5 e9 e5 bd
       0.1705133 -0.14466532 -0.08665229 -0.112262525
000030 05 61 11 3e 6d 90 16 3e a0 36 a9 3d 3a f6 34 3e
       0.14197166 0.14703532 0.08262372 0.17672053
000040 bb e2 b0 bd 5b 6c 1d 3d 95 1c 93 bd 5a 8b 50 bd
       -0.086369954 0.038433414 -0.07183186 -0.050914146
000050 fc 2c 22 bd f1 dc 62 3e 07 ed f7 3d 03 3f a3 3c
       -0.03959368 0.22154595 0.12105756 0.019927507
000060 d5 9c 75 3d d3 f8 85 3d 6c 15 a5 3c 5d 40 17 be
       0.05996402 0.065416 0.020151816 -0.14770646
000070 e8 1e 38 3e 2b e2 66 3d 9f 6d d3 bd 70 49 43 3e
       0.1798054 0.056368034 -0.10323643 0.19070983

attention_modules.0.weight f4 [32, 32, 1, 1]
000000 7e 3f c3 3d e2 81 38 bc 60 59 27 3e c1 f8 f0 bd
       0.095335945 -0.011261435 0.16342688 -0.11766196
000010 79 92 b2 3d b0 5a 1d be 74 dc 1a be 9c da d5 bd
       0.08719344 -0.15366626 -0.15123159 -0.10442087
000020 b3 61 89 bd 10 e4 88 3b a7 5a 9f bd fd 32 05 be
       -0.06708088 0.004177578 -0.077809624 -0.13007732
000030 45 ed 18 3e ed d7 54 bd db 66 fc 3c 66 76 b8 bd
       0.14934261 -0.051963735 0.030810764 -0.09006958
000040 6d 0a ad bd d2 a7 06 3c e6 02 90 3d 09 83 2d be
       -0.08449254 0.008218722 0.07031803 -0.16944517
000050 f5 04 c6 3d 75 9a c0 3d d5 31 fe 3d b9 a7 2e bd
       0.09668914 0.0940446 0.124118485 -0.04264042
000060 8d 08 38 bd 73 17 ae bd 1d 38 81 bd a2 b6 f4 bc
       -0.04493003 -0.08500566 -0.06309531 -0.029872242
000070 03 2e 26 3e 61 08 a1 3d 4e 69 30 be c3 ca d7 bd
       0.1622849 0.07862926 -0.1722767 -0.105367206
000080 26 c8 31 bc fd 3c 19 be d7 5e 92 bd 9a 6b dc bd
       -0.010850942 -0.14964671 -0.071469955 -0.10762711
000090 65 f8 80 3c ad 49 f7 3c f4 52 83 bd 34 b9 42 bd
       0.015743444 0.030186499 -0.064123064 -0.047539905
0000a0 79 0d 9a 3d d2 32 cf 3d 38 51 2a 3e 23 2e cb 3c
       0.07522101 0.10117115 0.16632545 0.024802273
0000b0 30 53 a4 3d 9a 84 47 3d ce 34 ed bd a1 57 bd 3d
       0.08023679 0.048710443 -0.11582337 0.092452295
0000c0 fa fb 06 bd 11 ae e8 3d 13 b6 54 bc d1 7b 2e be
       -0.032955147 0.113613255 -0.012982863 -0.1703942
0000d0 67 94 a1 bd 4a 52 24 3d 52 dd ea bd aa 5b c8 bd
       -0.078896336 0.04011754 -0.11467995 -0.097831085
0000e0 e4 dc 95 3d 97 13 a3 3d 37 3a a9 3d 57 ed 03 3e
       0.07317522 0.07962721 0.08263057 0.12883507
0000f0 60 0c 2a 3e ca f8 60 3d 7e 17 90 bb 04 f2 14 bd
       0.16606283 0.054924764 -0.0043973317 -0.036363617
000100 2d 28 0f be 5a ea 59 bc f6 aa 09 be 73 92 1b be
       -0.1398017 -0.013300503 -0.13444123 -0.15192585
000110 af cb 21 3d 6b e3 2d 3d 67 dc f3 3d d0 32 ce 3d
       0.03950089 0.04245321 0.11907273 0.100682855
000120 7e 3c b4 3c bd b9 cd 3d 87 89 10 bd 45 32 44 bc
       0.022001501 0.100451924 -0.035287406 -0.011974876
000130 31 3f 1d 3e 04 9c 2c be 9c dd c5 bd 1b 1d 52 3c
       0.15356137 -0.1685639 -0.09661409 0.012824322
000140 ac e1 24 3e ff 00 b6 3d 23 ed e2 3d 84 83 47 bd
       0.16101712 0.08886909 0.110803865 -0.048709407
000150 ef 3a 6d 3d ff 36 5b 3d 6a 83 e8 bd 0d 26 05 3e
       0.05791753 0.053519245 -0.1135319 0.13002796
000160 fc 30 ac bd 5d 68 9f bd 1c 6a 88 bd 10 17 2d 3d
       -0.084077805 -0.077835776 -0.06660864 0.042258322
000170 93 10 2d 3d 3e b3 9d bd d0 a0 6a 3d d4 98 0f be
       0.042252135 -0.07700203 0.05728227 -0.14023143
000180 37 f4 33 bd d4 28 58 bd bb cc 4e bc bf 0e 1e 3e
       -0.043934073 -0.05277331 -0.012622054 0.15435313
000190 11 45 08 bb 2d 2d bb bd d3 02 2d 3c 9e d1 b2 3c
       -0.002079312 -0.09139476 0.010559755 0.021828469
0001a0 ae fc f0 3d 4d ea c9 3d 4d 2c ea 3d ab 0c 00 be
       0.11766945 0.098591425 0.11434231 -0.12504832
0001b0 8f c9 21 be 54 2f 17 3e 76 bd 0d 3e bb b8 ef 3d
       -0.15799545 0.14764148 0.13841805 0.117051564
0001c0 22 de 8a 3d 2b 03 5c 3d bf 67 34 3e 25 52 3e bd
       0.0678065 0.05371396 0.17617701 -0.046465058
0001d0 19 1d 32 be 01 a9 ba bc 7f a1 52 3c 83 ce 05 bd
       -0.17393912 -0.022785665 0.0128558865 -0.032667648
0001e0 72 09 26 3c 3b d8 52 bd d2 f1 3b 3c 26 9a 03 be
       0.010134088 -0.051475745 0.011471229 -0.12851772
0001f0 56 60 bc bd a8 26 20 3e 20 a6 a0 3d d9 87 5e bd
       -0.09198062 0.15639746 0.07844186 -0.054328773
000200 80 c2 23 3e 04 c3 ac 3b ab 09 87 bd 09 be 8a 3c
       0.15992165 0.005272271 -0.06593641 0.016936319
000210 f9 ca 92 3d 94 03 b9 3c ba 0f f2 bd 69 16 d3 bc
       0.0716762 0.022584714 -0.11819406 -0.025767522
000220 99 e7 ae bd 95 1a b9 bd 55 11 81 3d 94 40 a5 bd
       -0.085402675 -0.09038273 0.06302134 -0.08068958
000230 18 25 66 bd d0 b3 0a 3e 7a 17 b6 3d e9 a8 ab 3d
       -0.05618772 0.13545156 0.088911965 0.083818264
000240 bd 7e 2f bd 64 7c cd 3c 59 8d 88 bc 97 31 6d bd
       -0.042845476 0.025083728 -0.016668962 -0.05790862
000250 cf e7 1c 3e bd f3 c6 3d 5d a3 10 3c db 1b 49 bd
       0.15322803 0.09714458 0.008828011 -0.04909883
000260 f5 49 05 3e ca 0f 32 bd e3 cd 4c bd ca 7c eb bc
       0.13016494 -0.04347209 -0.050001036 -0.028746027
000270 53 2d c7 bc 2f 14 68 3c c8 22 33 bd d8 e3 1f 3e
       -0.024313604 0.014164968 -0.04373434 0.15614259
000280 f6 11 3c 3d 09 71 b9 bd 30 82 55 3d f9 0d 2d be
       0.045915566 -0.09054763 0.05212611 -0.16899861
000290 e7 13 2e be 1a f5 2e 3e d6 4c 23 be 38 ab f7 3d
       -0.1699978 0.17085686 -0.1594728 0.12093204
0002a0 dd 61 4a 3d 24 0b 0e bd c1 9a 1a be 67 97 fd 3c
       0.049409736 -0.034678593 -0.15098096 0.030955983
0002b0 78 ac 8d bc 15 94 24 3e ce ed f2 3d 4e 55 15 3e
       -0.017294154 0.16072114 0.11861764 0.14583322
0002c0 77 5c 0a be 48 fd f8 3d 83 b8 0f be 72 9d 2f 3e
       -0.13511835 0.121576846 -0.1403523 0.17149904
0002d0 99 67 7e 39 65 c2 21 bd b7 d5 e9 bc 63 28 25 be
       0.00024261921 -0.03949203 -0.02854429 -0.16128688
0002e0 79 d7 ed 3d 6e 74 63 3d 83 d4 85 3d d0 e0 87 3c
       0.11613364 0.055530958 0.06534674 0.016586691
0002f0 9a 4a 18 be 43 27 15 be 83 61 31 be 26 b6 d5 bd
       -0.14872208 -0.14565758 -0.17322354 -0.10435133
000300 34 24 8f bc d7 93 b7 bc cb 10 4b ba 91 12 5e bd
       -0.017473318 -0.022409363 -0.0007746338 -0.054216925
000310 27 2a f6 3b 93 f2 32 3e 78 00 ba 3d a6 2e 03 bd
       0.007512349 0.17475347 0.09082121 -0.03202691
000320 54 d0 11 be 46 04 1e bc ef 6c eb 3c c2 4e e1 3d
       -0.14239627 -0.009644574 0.028738467 0.1100135
000330 b7 79 8d bd 78 dc b4 bd 91 b0 d3 3d ee 3c 29 be
       -0.06907981 -0.088311136 0.10336412 -0.16527149
000340 9a ba d8 3d 34 06 fa bd be 9d ec bd 7a d2 07 be
       0.105824664 -0.122082144 -0.115535244 -0.13263884
000350 98 e3 95 3d 0b bd 93 3d bd df 0b 3d 09 4b bf bd
       0.07318801 0.072137915 0.03414892 -0.09340484
000360 7d be 9f bd 28 fb fd bc cb c9 ff 3d af 0b 8d 3d
       -0.07800005 -0.03100355 0.12489661 0.06886994
000370 e9 86 18 3d a2 e8 10 3e 0e 8f 32 be 9f da cc bc
       0.037238035 0.14151242 -0.17437384 -0.02500659
000380 72 3d c5 3d 28 0a 0b be 5a 42 79 bd 42 82 15 be
       0.096308604 -0.13578093 -0.060854293 -0.1460047
000390 b5 77 8b 3d 75 10 fc 3c 03 1a a0 3c 49 c4 99 bc
       0.06809942 0.030769566 0.019543653 -0.018770354
0003a0 36 68 91 bd dc 7f 57 3d f7 50 89 3d 27 ba 15 3e
       -0.07099955 0.05261217 0.06704896 0.14621793
0003b0 09 42 fc bc 7d 2e 08 be ab 54 8a bc d1 52 39 3d
       -0.030793207 -0.13298984 -0.016886076 0.045244996
0003c0 fe 13 3e 3d 83 1e 0d be df e1 9f bd a4 d4 12 bd
       0.046405785 -0.1378117 -0.07806753 -0.03584732
0003d0 22 34 d0 3d 42 72 13 be 00 a6 0b 3e 5f c7 12 3e
       0.101661935 -0.14399055 0.13637543 0.14333867
0003e0 68 6b ca bd c2 43 89 bd b6 40 0f be a6 03 f7 bd
       -0.09883767 -0.06702377 -0.13989529 -0.12061243
0003f0 da cc b9 bc 92 b7 0f 3e c1 19 0f be 59 79 a8 bd
       -0.022680689 0.1403487 -0.13974668 -0.0822627

attention_modules.1.weight f4 [32, 32, 1, 1]
000000 b1 55 5a bd 55 b0 d5 3d 5b a9 16 be 81 47 62 3d
       -0.053304378 0.10434023 -0.14713041 0.055243973
000010 c6 9e 19 be 6b 63 2c 3e 1d 12 91 3c 55 e9 e2 bd
       -0.15001974 0.168348 0.017708832 -0.11079661
000020 c2 8e 08 be 0c f8 f1 3a b4 d9 13 3d a2 18 36 3c
       -0.13335708 0.0018460765 0.03609629 0.011114271
000030 be 73 83 bd 13 fa 8d bd 9c 03 da bd 2d 7c 8d bb
       -0.064185604 -0.069324635 -0.1064522 -0.0043177814
000040 d8 76 6d bd 94 46 a9 3d de 58 e4 bd 29 9a 4d bd
       -0.057974666 0.08265415 -0.111497626 -0.050195847
000050 2c 9c cd bd 0b 14 e6 bd 45 72 d2 bd 5e 8a a8 bc
       -0.10039553 -0.11234292 -0.102757014 -0.020573791
000060 a6 90 b4 3d 6f 02 b7 bd 14 c4 e4 3d cf ad 0d be
       0.08816652 -0.08936011 0.111702114 -0.13835834
000070 b6 c7 5f bd 85 63 e2 3d c1 d6 06 3e 7c 2e 0c 3e
       -0.05463382 0.11054138 0.1316786 0.13689607
000080 58 b8 e9 bc e2 96 ed 3d 28 d7 20 3e 3f 4b b3 bd
       -0.028530285 0.11601044 0.15707076 -0.087545864
000090 5d 57 36 3b 6a fb 09 3e 7b c3 10 3e fc 0f 4e 3d
       0.0027823069 0.13474813 0.1413707 0.050308213
0000a0 ac 97 00 3e 48 6d 46 3d f0 34 96 3c 98 f1 a4 3c
       0.12557858 0.048444062 0.01833579 0.020134732
0000b0 8e cb e6 bd 50 ea bf 3d 1b 83 15 be 62 f6 2c 3e
       -0.11269294 0.093708634 -0.14600794 0.16890863
0000c0 d4 5f 48 bd a5 a1 e0 3d f3 ee 00 be 3c 2c 00 be
       -0.048919514 0.10968331 -0.12591152 -0.12516874
0000d0 db 7e fd bb 4f c6 83 bc 3e e8 87 3d bc 63 7f bd
       -0.0077360696 -0.016085772 0.066360936 -0.062350973
0000e0 b6 c3 d6 bc c9 4b df 3d 70 69 c6 bd 9c 81 a7 3d
       -0.02621637 0.10903127 -0.09688079 0.08179018
0000f0 41 4f 26 bd 9c d6 9b bd 0a 8f c6 3d 9b 94 f5 3d
       -0.040602926 -0.07609293 0.09695251 0.11991235
000100 2a dc df 3c dd 86 df 3a 22 0f cb bd 50 af b5 bd
       0.027326662 0.0017053742 -0.09914996 -0.08871329
000110 b5 f0 f2 3c 53 66 10 3d cd 81 10 3e 6c 3d cd 3d
       0.029655794 0.035253834 0.14112015 0.10021481
000120 39 3e 99 3d e1 f1 c2 3d 85 20 21 3d 6a c8 94 3c
       0.07482571 0.09518791 0.039337654 0.018161971
000130 fe 2e 8f 3d fc a0 f9 3d c9 e2 b7 bd eb 82 de bd
       0.06991385 0.121889085 -0.08978803 -0.10864814
000140 24 44 15 bb 16 12 9c bd f8 49 cf 39 51 34 73 3d
       -0.002277621 -0.07620637 0.00039537228 0.059376065
000150 67 b9 0c be 9a f5 8d 3d f0 d6 51 bd fb d3 dd bc
       -0.137426 0.069316104 -0.05123037 -0.02707862
000160 9f ca ea bd 41 24 fe 3d 2f 20 ab 3d b3 1d 08 3e
       -0.11464428 0.12409259 0.08355748 0.1329258
000170 bf c6 0d be 0d 8e 9a bd 70 97 bd 3d 40 ca a3 3c
       -0.13845347 -0.07546625 0.092574 0.019993901
000180 d6 92 b0 bd 51 5b 3a 3d 0d d7 81 3d c3 34 13 bd
       -0.08621757 0.045497242 0.06339846 -0.03593899
000190 b3 ab 0a bd 95 68 00 bb c0 92 e4 3d a7 ff f7 bd
       -0.03385515 -0.0019593586 0.11160803 -0.12109309
0001a0 e8 e6 b4 3b 38 51 04 3e d2 82 74 bc b5 79 26 3e
       0.00552069 0.12921607 -0.014923768 0.16257365
0001b0 dd bd 20 bc c3 18 2a 3e 97 3a 20 be 59 0d 10 3d
       -0.009810892 0.16611008 -0.1564735 0.03516898
0001c0 89 a9 07 be b7 4c 2a 3e c0 b7 09 3d 34 e9 22 3e
       -0.13248266 0.16630827 0.033622503 0.15909272
0001d0 8a 1d fd bc 90 44 95 3b 06 00 7c bd f4 7c 33 be
       -0.030897874 0.0045552924 -0.06152346 -0.17528135
0001e0 a1 ea 54 3c 6b f7 10 be ae 14 29 be 5a 75 7f 3c
       0.012995393 -0.14156882 -0.16511795 0.015591944
0001f0 11 49 b3 bd 89 3a ff 3d 78 e2 1e be 7d 90 2c 3e
       -0.08754171 0.124623366 -0.15516078 0.16851993
000200 a0 17 24 be c4 d5 48 3d 3f 00 8a 3d b3 fa ef 3d
       -0.16024637 0.049031988 0.06738328 0.11717739
000210 b3 fc 13 3e ca 50 48 bc 35 ea 0a be 9e e6 90 bd
       0.14451866 -0.012226293 -0.13565905 -0.07075237
000220 74 6b f4 b9 eb 33 c0 3d 69 d8 f0 bb 17 47 95 3c
       -0.00046619365 0.093849026 -0.007350017 0.018222375
000230 2a af c1 3d d9 5e 00 3e 99 c3 49 bc e1 27 19 3e
       0.09457238 0.12536182 -0.0123147005 0.14956619
000240 38 c9 0f bd 2c 54 14 be 3f f7 2b bd b9 2f 82 bd
       -0.035104007 -0.14485234 -0.04198384 -0.063567586
000250 cc 1e fd bc 92 a4 21 be ab d1 4d 3d a4 a9 30 3d
       -0.030898474 -0.15785435 0.050248783 0.043130532
000260 90 7d 5a bd 70 76 2b 3d 4a 9f db bd df b7 59 bd
       -0.053342402 0.041860998 -0.10723741 -0.05315387
000270 3b 90 d4 3d 8f 21 49 bd 27 b8 64 3c 38 36 0c bd
       0.10379072 -0.04910427 0.013959921 -0.034231395
000280 3f f9 f5 3d 80 27 1d bc 26 ed 0c be 9c ee aa bd
       0.120104305 -0.009591937 -0.1376234 -0.083462924
000290 15 55 71 bd 2e 7b cd 3d f4 68 e0 bd ae 41 13 be
       -0.05891903 0.1003326 -0.10957518 -0.14380524
0002a0 ed 15 f7 3d 87 1d d8 bd 51 7d c7 3b 54 d3 2c be
       0.12064729 -0.10552507 0.006087937 -0.1687749
0002b0 9a e5 0f be 13 b8 c3 bd e5 d0 d1 3d 5c fc bf bd
       -0.1405243 -0.09556594 0.102449216 -0.093743056
0002c0 ed 24 f2 3d 37 95 b2 3d a3 88 29 3d 63 8d 17 3d
       0.11823449 0.08719867 0.041390073 0.03700007
0002d0 b8 b6 e0 3b 17 2c a0 bc 3c cd a3 3d 4d 4c 12 be
       0.0068577193 -0.019552274 0.0799813 -0.14286919
0002e0 76 b1 27 be 34 22 bc bd 41 2f d1 bd 07 e4 97 bd
       -0.1637629 -0.09186211 -0.10214091 -0.0741654
0002f0 cf 20 07 3e d1 96 15 3e 32 f7 21 3e 65 25 e4 bd
       0.13196109 0.14608313 0.15816954 -0.11139945
000300 c6 b1 80 3d bf 52 13 3b 9b b9 64 3d 5f e9 06 be
       0.062839076 0.002247974 0.05584107 -0.13174962
000310 56 e2 e1 bd b0 22 80 bd 90 2b 65 3b 21 52 41 3d
       -0.11029498 -0.06256616 0.0034968592 0.047197465
000320 00 2b a6 bd 00 1e 3b 3d f6 9a 06 be e6 bb 28 be
       -0.0811367 0.045682907 -0.1314505 -0.16477928
000330 87 45 10 be 73 5b eb 3d 0e f3 14 be 30 17 b7 bd
       -0.14089023 0.11492052 -0.14545843 -0.089399695
000340 80 89 04 3e a9 18 0f 3d 14 9a 7c bd 28 20 a3 3d
       0.12943077 0.034935627 -0.061670378 0.07965118
000350 82 24 1a 3e da fc 1f bd 79 d9 ad 3d fe ea f9 3d
       0.15052989 -0.039059497 0.08488745 0.12203024
000360 3b 82 b1 3c d2 49 06 be aa 4f 89 bd c5 f2 06 3e
       0.021668544 -0.13114098 -0.06704648 0.13178547
000370 78 5f 2c 3e 42 1a 5b 3d a2 50 32 3e 0e 3f c7 3c
       0.16833293 0.05349184 0.17413571 0.024322059
000380 f3 21 06 be 95 a0 8f 3d 37 62 31 3e 2e 80 00 be
       -0.13098888 0.070130505 0.17322622 -0.12548897
000390 f5 43 d0 3d da 4d 84 bd 03 f4 06 bd 6e 14 2a 3e
       0.10169212 -0.064601615 -0.03294755 0.16609356
0003a0 1b fd e3 3d 5e c9 c5 3d 2b 93 89 3d af 60 22 be
       0.111322604 0.09657548 0.06717523 -0.15857194
0003b0 16 53 45 3d 69 23 17 bd 7c ea 23 3e 60 c9 ea 3c
       0.04817494 -0.036899004 0.16007417 0.028660476
0003c0 4f 90 bd 3c cd 31 97 3c 2b 7f bf 3b 79 5d 91 bd
       0.0231401 0.018456364 0.005844017 -0.070979066
0003d0 f8 a4 11 3e 59 ce dd 3d cd 68 03 3c 9c 92 07 3d
       0.14223087 0.10830373 0.008020592 0.033098802
0003e0 40 b4 35 3d 8a 76 72 bd 08 7f 0e 3e c5 37 4e bd
       0.044361353 -0.05919508 0.13915646 -0.050346155
0003f0 fe 02 9f 3d 9a cc bb 3d 43 2a 12 3e ae e6 cb bd
       0.077642426 0.09169884 0.14273934 -0.09956108

attention_modules.2.weight f4 [32, 32, 1, 1]
000000 7f 10 c3 3d c7 83 0d be 04 8a 4e bc 05 5a 15 bd
       0.09524631 -0.138198 -0.012606148 -0.036462802
000010 92 9a 18 3e 2a 0f 15 be aa 6f 58 bd fb 09 c7 3d
       0.14902714 -0.14556566 -0.052840866 0.097187005
000020 2f e3 a2 3d 72 2a 28 3e 0d 22 00 3e 29 bf 29 be
       0.07953488 0.16422442 0.1251299 -0.16576828
000030 4e ce 2d be 0b ec f0 bd 41 e8 12 be a8 a6 13 3e
       -0.1697323 -0.117637716 -0.1434641 0.14419043
000040 db 39 f3 3d 8b 03 1a be de bd e8 bd c2 f3 ee 3b
       0.118762694 -0.15040414 -0.11364339 0.007292242
000050 ab 64 ed bd df 7b 2a 3e 2b 2a 91 bd 09 22 0e bd
       -0.115914665 0.16648816 -0.07088121 -0.034700427
000060 e7 71 f6 3c d6 7f b2 bd f4 b4 2b be a4 14 e5 3c
       0.03008361 -0.08715789 -0.16768247 0.027963944
000070 f7 e8 30 be 10 ee 0d be dc 15 15 3d b3 4c 34 3d
       -0.17276369 -0.13860345 0.0363978 0.04401846
000080 f5 14 e0 3d 91 2c 23 3d db fa 7b bd d3 39 ea bc
       0.10941497 0.039837424 -0.06151853 -0.028592026
000090 8f 6d 91 bd e4 03 17 3c 80 d0 04 3e d6 61 d6 bc
       -0.07100975 0.009217236 0.12970161 -0.026169699
0000a0 40 14 1b be 2f 2d e1 bc 89 9f 12 3e 71 95 02 be
       -0.15144444 -0.027487366 0.1431867 -0.1275232
0000b0 75 d9 ff 3d 1e 14 00 3d e6 0d fc bd 79 4a 4f 3d
       0.124926485 0.031269185 -0.123073384 0.050608132
0000c0 7f 23 33 be a9 64 9c 3b c9 04 55 bd 7d c6 99 3d
       -0.1749401 0.004772742 -0.052006517 0.07508562
0000d0 0c a2 03 3d 94 1b 2b be c0 1e 8e bd 19 4b 75 3d
       0.03213696 -0.16709739 -0.06939459 0.05988607
0000e0 5b 41 23 3e 69 66 19 3e 74 ea f6 bd 09 07 35 3e
       0.159429 0.14980473 -0.12056437 0.17678465
0000f0 46 c0 06 be f6 19 03 3d 7b a2 fc bd 0d 66 ff bd
       -0.13159284 0.03200718 -0.12335678 -0.124706365
000100 77 f8 1d be e3 ba 17 be d3 6e 00 3e 95 5e 0a 3e
       -0.15426813 -0.14817385 0.12542276 0.13512643
000110 00 f8 5c bc 19 23 b1 bc 00 0a ec 3c fb 2d db bd
       -0.013486862 -0.021623181 0.028813362 -0.107021295
000120 99 00 04 3e c4 63 62 3d 62 50 da bd 2c e3 03 be
       0.12890853 0.055270925 -0.10659863 -0.12879628
000130 a5 02 23 be 6f e0 c5 3d 2b ca 09 be 76 c9 02 3e
       -0.15918978 0.09661948 -0.13456027 0.12772164
000140 99 14 c0 bd c2 71 84 bd 7f 32 59 3c 0b ac a4 bd
       -0.09378929 -0.0646701 0.013256668 -0.08040627
000150 52 3e 07 bd d8 da ba 3d 2a 55 31 3e 73 b7 d0 3c
       -0.033018418 0.091237724 0.17317644 0.0254781
000160 3b 6c de bc db b2 1e 3c bf f0 2a 3e ea 7a 0b bd
       -0.027151218 0.009686197 0.166934 -0.034052767
000170 c1 bd a2 3d 57 fc 0b bd 2d 22 09 3e 90 d7 c7 3d
       0.07946349 -0.034176197 0.13391943 0.09757912
000180 17 42 37 bd 04 75 15 be 08 7b 31 be 1e d6 d9 3c
       -0.044740763 -0.14595419 -0.17332089 0.026591357
000190 d1 bb 8a 3d 21 1c 6e bd 7b 10 97 bd 73 3a 2f 3d
       0.067741044 -0.058132295 -0.0737619 0.04278035
0001a0 8f 9c 3a 3d 24 3c cc bc 11 a5 28 be 4d bd 30 3e
       0.045559462 -0.024931021 -0.16469218 0.17259713
0001b0 64 d5 84 bd 89 39 13 3e a9 e3 88 3d bd 10 df bd
       -0.064860135 0.14377417 0.06684048 -0.108918644
0001c0 fb 77 31 be c3 c7 c9 bd 21 e4 86 bd 2b 82 e5 bc
       -0.17330925 -0.09852555 -0.06586481 -0.02801617
0001d0 be 84 04 3d dc 07 b0 3d 1a 2c 26 3e 40 b8 a0 bd
       0.032353155 0.08595249 0.16227761 -0.07847643
0001e0 3e d0 00 be 83 88 a9 bd e5 6d b2 3d 8f c1 c3 3d
       -0.12579438 -0.08277991 0.08712367 0.09558403
0001f0 58 b9 0e bd 4d 03 e5 bd b5 9f d6 3d 26 3d 83 bc
       -0.034844726 -0.1118227 0.104796804 -0.016020369
000200 a4 1c b3 3d 5a f6 8c 3d d5 84 03 bc 38 bd d1 3d
       0.08745697 0.06882925 -0.008027275 0.10241169
000210 71 93 c4 bd 4b c0 fe 3d 53 09 08 3e fa ba 13 be
       -0.09598435 0.12439021 0.13284807 -0.14426795
000220 cb db 02 3e 18 8f 34 bc 3e 7f 0d be a8 94 41 bd
       0.12779157 -0.011020444 -0.1381807 -0.04726091
000230 b9 3a 04 3e d9 59 e2 3d ed 02 3c 3d fc 71 15 3e
       0.12913026 0.11052293 0.045901228 0.14594263
000240 c8 79 aa 3d c4 2a 14 3d 77 6e 94 3c d2 03 81 3d
       0.08324009 0.036173597 0.01811908 0.06299557
000250 96 0b 0d be d7 e9 1a 3e fd d8 b8 bd e1 ef 04 be
       -0.13773951 0.15128265 -0.09025762 -0.12982132
000260 0d 61 ae 3a 6a 02 1b be 86 be de bd aa 61 1f 3e
       0.001330407 -0.1513764 -0.10876183 0.155646
000270 f2 55 e2 3d 63 c9 a4 bc 83 b1 dd bd c7 4e 44 bb
       0.11051549 -0.02011556 -0.10824873 -0.0029954182
000280 74 39 bf 3d 97 68 a8 bd 01 69 99 3d c9 94 07 be
       0.0933713 -0.08223074 0.07490731 -0.13240351
000290 24 24 ad bc 34 f2 07 be 0b a4 99 bd 95 b6 37 3c
       -0.021135397 -0.13275987 -0.07501992 0.011212965
0002a0 ce a3 f8 bd 79 2c 27 be 62 23 3c 3d 8d 4a 0a be
       -0.12140618 -0.16325559 0.04593218 -0.13505001
0002b0 24 b4 98 3d e3 14 d2 3d 5e 10 36 3d 0b 79 26 bd
       0.07456234 0.1025789 0.044449203 -0.04064278
0002c0 e4 b8 94 bd f6 8c 15 3e 30 49 2a 3e 30 20 a7 3b
       -0.072618276 0.14604554 0.16629481 0.0051002726
0002d0 14 6e 21 3e 20 d8 92 bc 0d 34 10 3b 50 eb 15 3e
       0.15764648 -0.017925322 0.002200368 0.14640546
0002e0 31 69 d7 bd a2 c2 04 be e3 30 ab bd a7 d2 e8 3d
       -0.105181105 -0.12964872 -0.08358934 0.11368304
0002f0 de 05 b8 3c b1 1b bc 3c c2 4e 19 3e 24 4c dd 3d
       0.022463735 0.022962423 0.1497145 0.10805538
000300 17 39 a3 bc 5c 5e 3c bd d0 68 f2 3d 23 ca 1c be
       -0.019924683 -0.045988426 0.11836398 -0.15311484
000310 a2 b6 d0 bd 91 ee 8c bc 9a 4f f4 bd fc 8a be bd
       -0.101910844 -0.017203601 -0.11929245 -0.09303853
000320 17 1e fe bd 24 0b e5 3d 0e 92 48 3c 31 ba 31 3d
       -0.12408083 0.111837655 0.012241853 0.043390457
000330 f7 4a 3a bd 9e 74 0b 3e 64 f0 8b bc 2b e4 97 bd
       -0.04548165 0.13618705 -0.0170824 -0.074165665
000340 4f 98 11 be 93 e5 22 be 47 88 c4 bd 1d c2 ff 3d
       -0.14218257 -0.15907888 -0.09596305 0.12488196
000350 ef ea 1e 3d af e1 96 bc 80 95 16 be 38 a6 74 3d
       0.03879827 -0.018418161 -0.14705467 0.05972883
000360 f7 78 0c 3e 38 34 14 3d 2a 9d 1b 3e 70 ee d2 3d
       0.1371802 0.036182612 0.15196672 0.102993846
000370 a5 37 cd bd 17 f7 b0 3b d1 a0 a3 3c f9 92 0d bd
       -0.10020379 0.005400549 0.019974144 -0.034563992
000380 cf f3 a9 3c 13 17 2d be 13 b4 03 bd 62 e6 e3 bd
       0.02074614 -0.16903333 -0.032154154 -0.111279264
000390 da 62 1f 3c 59 de b8 bd d8 11 6b 3c 9b 1a 0a be
       0.009728158 -0.090267844 0.014347516 -0.13486712
0003a0 f2 83 d1 bc c6 d5 19 3e 7e cb fd bd 18 0f 2b 3e
       -0.025575612 0.15022954 -0.12392329 0.16704977
0003b0 21 df 08 be cb ab 02 3e ba 86 27 bc d8 2f d8 bd
       -0.13366367 0.12760846 -0.010224992 -0.105560005
0003c0 56 43 26 be 21 d0 cd 3d ac 1c 12 3e da 4f 05 bd
       -0.16236624 0.10049463 0.1426875 -0.032546856
0003d0 1d b9 81 3d d2 60 d4 3d b9 ac 0f 3e 94 c3 21 3e
       0.06334136 0.103700295 0.14030732 0.15797263
0003e0 1f 23 10 be fc 5a 9e 3b 6b 20 17 3d 31 ec 9a bc
       -0.14075898 0.0048326235 0.03689615 -0.018911453
0003f0 8d 2e ca 3d 9e b6 4c bd 6d 3d 01 3e 41 88 28 3e
       0.0987216 -0.049978845 0.12621088 0.16458227

attention_modules.3.weight f4 [32, 32, 1, 1]
000000 04 12 26 3e 5b f7 05 be f3 90 c7 3d ed ff c2 3d
       0.1621781 -0.1308264 0.09744444 0.0952147
000010 49 e0 01 3e ff db b8 bc 26 95 cb bd 2a fe 30 be
       0.12683214 -0.02256584 -0.09940557 -0.17284456
000020 3d 1e 2e 3e 43 15 dc 3d 2a c0 f2 3d 15 8e 31 3e
       0.17003722 0.10746243 0.11853059 0.17339356
000030 d4 27 0e be 57 d8 ed bd be 22 a3 3d 10 ca d4 bd
       -0.1388238 -0.11613529 0.07965611 -0.10390103
000040 c5 ae 05 3d bc df 31 3e e7 c0 9d bd bf 90 8a 3c
       0.032637376 0.17370504 -0.07702809 0.016914723
000050 ae f7 a0 bd 59 ef b1 3d aa 24 3c bd 0d 45 08 3e
       -0.07859741 0.0868823 -0.045933403 0.13307591
000060 1f 88 e1 bc 47 92 02 be 85 66 2e 3c 02 fc 6e bd
       -0.027530728 -0.12751113 0.01064456 -0.058345802
000070 5e e8 24 be 03 fc 1a 3e 11 b9 f5 bd 6c 20 19 be
       -0.16104266 0.15135197 -0.11998189 -0.14953774
000080 84 e0 c5 3c 31 82 9d 3d ce 2c 03 bd 40 d1 de 3d
       0.024154909 0.07690848 -0.03202515 0.10879755
000090 88 a5 94 3d 04 81 2a 3e 3b 19 30 be 24 75 11 be
       0.07258135 0.16650778 -0.17197125 -0.14204842
0000a0 71 05 2b 3e dc e7 04 be 53 d7 12 3e 12 6e bb 3d
       0.16701294 -0.12979072 0.14339952 0.091518536
0000b0 74 40 25 3e 76 f1 f2 3d 9c 72 01 be 9c ae de bd
       0.16137868 0.11862461 -0.12641376 -0.10873148
0000c0 7f bb da 3d 27 96 4f bd 77 6c b6 bc a0 1e 38 bc
       0.10680293 -0.050680306 -0.022268517 -0.01123777
0000d0 c3 55 e2 3c 15 d6 16 3e 04 eb ff bd 97 63 84 3c
       0.027628785 0.14730103 -0.124959975 0.01616077
0000e0 f8 9e 1e be 92 7c ed 3d 62 11 b0 3c a5 cd eb 3d
       -0.1549033 0.115960255 0.021492664 0.11513833
0000f0 70 e3 36 bd 9a 38 d7 3d 0e f6 a0 bd ce 9b 34 be
       -0.044650495 0.10508843 -0.07859431 -0.1763756
000100 12 6a df 3d d0 84 1f be d8 2d 9f bb 74 c6 14 3d
       0.10908903 -0.15578008 -0.00485776 0.036322072
000110 7e af 82 3d f6 1a bd 3c d0 8f a1 bd 89 18 1e 3e
       0.06381129 0.023084145 -0.07888758 0.15439047
000120 f3 5c a3 3c 42 27 01 be 52 10 d7 3c 83 3f 18 3d
       0.019941783 -0.12612632 0.0262529 0.037169944
000130 63 e3 60 3d fb 44 88 bd 55 15 12 3d b2 7d 21 bd
       0.054904353 -0.06653782 0.035664875 -0.039426513
000140 01 46 14 be 84 70 0b 3e 7c eb fc 3d 05 ca b4 3d
       -0.1447983 0.1361714 0.123496026 0.08827595
000150 72 20 66 3d a5 a4 ef 3d 6d 83 88 3d 45 13 bd bd
       0.056183286 0.11701325 0.066656925 -0.09232191
000160 1f 6f 06 3e db 37 0b be 8e 1e 2c 3d ec c4 11 3e
       0.13128327 -0.13595526 0.042021327 0.14235276
000170 38 fa 23 3e b5 b2 2a be ec 3e 74 bd 6e bc 98 bc
       0.1601342 -0.16669734 -0.05963032 -0.018644538
000180 e0 4d f9 3b b9 19 b7 bd 94 40 26 3e 86 e6 17 be
       0.0076081604 -0.08940453 0.16235572 -0.14834031
000190 42 57 1e be 15 1b 00 bd 5f b4 0c 3d 72 8b d1 3d
       -0.15462974 -0.031275827 0.034351703 0.10231675
0001a0 52 4e f3 bd d7 b5 19 be fc 9a 8e bd 69 9d 81 3d
       -0.11880173 -0.15010773 -0.06963155 0.06328852
0001b0 6a df b7 bd 95 07 34 3d 26 74 1f 3e 28 7f de bd
       -0.0897816 0.043952543 0.15571651 -0.10864097
0001c0 1d 2c ec 3d c6 1a 83 3d d4 f3 cb bd 5d be 55 3d
       0.115318514 0.06401591 -0.09958616 0.052183498
0001d0 ea d2 a2 3d c9 03 43 bc 2e 02 8c bc 56 23 72 bd
       0.07950385 -0.011902758 -0.017090883 -0.05911573
0001e0 fb e7 0a 3e 15 ac 5c 3d d8 52 1f bd b6 c1 ca 3d
       0.13565056 0.053875048 -0.038897365 0.09900229
0001f0 3a f3 0c be 5f 45 11 3d f2 da ae bd c5 2e 24 be
       -0.13764659 0.035466548 -0.08537854 -0.16033466
000200 73 9e df 3c 53 22 88 bd b2 2e 5c 3d 65 bd ec 3d
       0.027297234 -0.06647172 0.05375547 0.11559562
000210 59 ca 49 3d b6 9c 1a 3e 6e 06 29 bd a9 ec 1f be
       0.04926524 0.15098843 -0.041265897 -0.15617622
000220 10 d5 79 3d 07 a6 32 3e 4d ac a7 bc 78 76 e8 bd
       0.060994208 0.17446147 -0.020467902 -0.11350721
000230 f0 97 2c be 86 53 8c 3d 36 62 d8 bd f9 77 65 bd
       -0.16854835 0.06851868 -0.10565607 -0.056022618
000240 97 9a 6a 3d 43 20 cd bd a4 1a 07 3e ca c2 65 bd
       0.057276335 -0.10015919 0.13193756 -0.05609397
000250 74 9a 82 bd 63 92 2a 3d 0b e8 24 3e 32 80 39 bd
       -0.06377116 0.04164351 0.16104142 -0.045288272
000260 1b e5 2b bd 33 52 23 3e 86 34 d4 bd 33 0a b2 3d
       -0.04196654 0.15949325 -0.103615806 0.086933516
000270 0d 54 0c be 5c ff 35 bd 95 6d e6 3d 01 81 e5 3c
       -0.13703938 -0.044432983 0.1125137 0.028015615
000280 17 a6 03 3d 70 8e 0b bd 94 e0 b1 3d 5c f7 ec 3d
       0.032140817 -0.034071386 0.08685413 0.115706176
000290 86 9c 06 be 4e b3 0c 3d cd 88 2d 3e 8a 5b cb bd
       -0.13145646 0.034350686 0.16946717 -0.09929569
0002a0 6d e2 06 be 66 8d 26 3e 61 21 33 3e 9c 6c 53 bd
       -0.13172312 0.16264877 0.17493202 -0.05161725
0002b0 e3 66 06 3d 8b 84 a4 bc 3e a7 19 3e 28 8b e9 3d
       0.032812964 -0.020082733 0.15005204 0.11403495
0002c0 b9 19 2d 3e 6e e6 a3 3a cf 25 04 3e 1b 23 91 3d
       0.16904344 0.0012504586 0.12905048 0.07086774
0002d0 73 f9 8d bd 71 e9 a4 bd cd 5e 31 be 20 1c c2 3d
       -0.06932344 -0.08052338 -0.1732132 0.09478021
0002e0 f2 fb 74 3d 03 f1 45 3b 45 c3 21 be f9 0d 03 3e
       0.059810586 0.0030203469 -0.15797146 0.12798299
0002f0 df 89 fd bd 94 54 01 be d0 24 26 3e 71 41 0c 3e
       -0.123798124 -0.1262992 0.1622498 0.13696839
000300 ff ed 86 3d bb 6e 15 bd 7b c8 57 bc 75 66 fa bc
       0.06588363 -0.036482554 -0.013170357 -0.030566433
000310 ba 43 29 be 29 bb 98 bd 4e 4b b2 bd 26 1d f2 bd
       -0.16529742 -0.07457573 -0.087057695 -0.11821966
000320 85 31 3a bd 5d 81 ef bc 92 1d f6 bc f5 9f 60 3d
       -0.04545738 -0.02923649 -0.030043397 0.054840047
000330 a0 3f 84 bd de 2a aa 3d 13 38 23 be 32 fe 24 3e
       -0.06457448 0.083089575 -0.1593936 0.16112593
000340 91 66 60 bd 21 55 73 bd 4f fb 18 bd 01 ba 7f bd
       -0.054785315 -0.059407357 -0.03734904 -0.062433247
000350 fd 28 54 3c 47 69 79 bd 3c 72 14 3d b4 16 c7 bd
       0.0129492255 -0.060891416 0.036241755 -0.09721127
000360 bd 38 34 3e c4 5b 80 bd 53 48 2b bd 61 dd b5 bd
       0.17599769 -0.06267503 -0.04181702 -0.08880115
000370 4d 62 f6 3d 16 f8 11 be 27 1a 24 3e 63 18 31 3e
       0.12030468 -0.14254794 0.16025601 0.17294459
000380 d9 25 1e 3e 9c 38 71 bc 7a 52 03 bd 49 cd fd bc
       0.15444125 -0.014722969 -0.032061078 -0.030981677
000390 48 a2 18 be 02 c1 7a 3c 64 a4 2b bd 8b 94 d2 3d
       -0.14905655 0.015304806 -0.041904822 0.102822386
0003a0 5e 1d 8e bd 9e 99 ac bd 1a 23 98 3c 81 7b 14 3e
       -0.06939195 -0.08427738 0.018571425 0.14500238
0003b0 1b cd 84 3d e2 e4 0d be 03 93 2e be e0 7f 27 3e
       0.06484433 -0.13856843 -0.17048268 0.16357374
0003c0 9b 4a f5 3d 4b 6f 9e bd 59 86 2b bd 04 68 29 be
       0.119771205 -0.07736071 -0.04187617 -0.16543585
0003d0 26 c5 20 bc 56 dc 2a be cb 27 f2 3d 2b 81 26 be
       -0.009812629 -0.16685614 0.11823996 -0.16260211
0003e0 de 14 c9 3c 17 53 a4 bd 29 09 32 bd c3 1a 04 bd
       0.024546083 -0.08023661 -0.043465767 -0.032252084
0003f0 03 7a c2 bd cc 27 c6 bd da 70 70 bc c4 4e 35 3c
       -0.09495928 -0.096755594 -0.014675343 0.0110661425

attention_modules.4.weight f4 [32, 32, 1, 1]
000000 6f 61 c2 bd 42 3f fc 3d 07 a9 5a bd 0c 68 86 3d
       -0.0949124 0.12316753 -0.053383853 0.06562814
000010 89 d0 ec bd 4f f6 53 bc 9b c7 0d bd 37 1e 65 b9
       -0.115632124 -0.0129371425 -0.034614187 -0.00021850398
000020 02 92 01 3e d2 18 0d be 58 6c f2 3d f3 b9 a7 bd
       0.12653354 -0.13779 0.11837071 -0.08189764
000030 a0 80 df 3d 1d 2b 70 bd c5 21 9f bc 44 c7 e7 bd
       0.10913205 -0.058634866 -0.019425282 -0.11317304
000040 89 e9 7e 3d 30 a7 0d be 7c 2b 3d bc 29 31 f0 3d
       0.062234435 -0.13833308 -0.011546012 0.117281266
000050 33 9d bd 3d db 14 f5 3c 9a 0d 2c be 82 39 ae 3d
       0.09258499 0.029917171 -0.16802064 0.085070625
000060 c5 96 b9 bd 88 39 ff 3d 67 94 7f 3d 4d 22 86 bc
       -0.0906196 0.12462145 0.062397387 -0.016373778
000070 bb ca 2b be 58 27 15 be ea ae 4b bd 32 f9 18 3d
       -0.16776554 -0.1456579 -0.049727358 0.037347026
000080 5b 78 ab bc f5 e4 10 be 16 32 53 3d df 6d 8d 3d
       -0.020931413 -0.1414984 0.051561438 0.06905722
000090 c8 61 cc bd 39 01 d1 bd 1c 40 8c 3c 3c d0 16 3d
       -0.09979588 -0.10205311 0.017120413 0.03681968
0000a0 b9 42 1f 3e 21 98 1a 3e 65 78 96 3d 99 89 65 bc
       0.15552796 0.15097095 0.07347182 -0.014009857
0000b0 ef e0 07 be 73 55 d5 bd bd b1 25 be 7a f9 e2 bd
       -0.13269399 -0.10416689 -0.16181083 -0.1108274
0000c0 7a 98 d0 bd 4b f7 fc 3d 29 a6 09 be aa 18 df 3c
       -0.101853326 0.12351855 -0.13442291 0.02723344
0000d0 a6 d0 1e be 78 c9 8b bd 88 26 a4 3d 4c 6e d8 bd
       -0.1550928 -0.068255365 0.08015162 -0.105679125
0000e0 fd da 0f be 39 5b 64 bc e3 97 b5 bd e8 7d 27 3e
       -0.14048381 -0.013937765 -0.08866861 0.16356623
0000f0 db cf be bd d4 98 62 bd 7a a5 0a be 71 c2 90 bd
       -0.09316989 -0.05532153 -0.13539687 -0.07068337
000100 49 10 03 be 7f 18 fa bd a3 fd a0 3d eb 78 29 bd
       -0.12799181 -0.122117035 0.07860877 -0.041375082
000110 74 d2 5b 3d 0c ac 13 3e 46 d6 76 3d 3e bc 2b bd
       0.0536675 0.144211 0.06026294 -0.04192757
000120 76 4a 29 be 6f 68 a8 3d e6 2a 84 3d e8 6e 1a 3e
       -0.16532311 0.08223044 0.06453495 0.1508137
000130 08 66 2b bc 4f 19 2a 3e 23 c3 2e be 1d e2 f7 3c
       -0.010461338 0.16611217 -0.17066626 0.030259186
000140 b9 cc 6f 3d 58 3a 47 bd cc e6 08 be 23 48 2b be
       0.058544848 -0.048639625 -0.13369292 -0.16726737
000150 1e 32 08 be b2 17 2c 3e 77 60 8f bd df 62 81 3d
       -0.13300368 0.16805914 -0.07000821 0.06317686
000160 22 ca dd 3c bf 99 1f 3c 99 9a 12 be c8 aa 0d 3e
       0.027073923 0.009741246 -0.14316787 0.13834679
000170 3d 52 8b 3d de 93 54 bd 9a aa e9 3d 81 8c ac bd
       0.06802795 -0.05189883 0.11409493 -0.084252365
000180 5c 20 17 be 25 e1 ff 3d 1f 64 3e 3d 1f 50 ab bd
       -0.14758438 0.12494115 0.0464822 -0.08364891
000190 1e ff 3f bc 84 28 04 3e 4b fe 73 bd 41 e6 15 3e
       -0.0117185395 0.1290608 -0.059568685 0.14638616
0001a0 bc c5 fa bd f4 63 a2 3d 31 35 30 3e 36 57 cc 3b
       -0.12244746 0.07929221 0.17207791 0.0062359823
0001b0 c3 31 01 3e f8 81 21 3e 03 2b 31 3d 10 ea 17 be
       0.12616639 0.15772235 0.04325391 -0.14835382
0001c0 2f a7 70 3d 1d c9 50 bd e9 f2 3f bc 63 35 c1 3d
       0.05875319 -0.050973047 -0.011715629 0.09434011
0001d0 6e 15 c0 3d 0c e0 94 3d 9e 67 19 3e b8 df bb 3d
       0.093790874 0.07269296 0.14980933 0.0917353
0001e0 b2 87 32 3b 0d 15 26 be b3 6a 4d b9 97 b5 20 3e
       0.0027241525 -0.16218968 -0.00019590072 0.15694271
0001f0 45 83 e2 bd 5e 69 f7 bd b7 f9 2b 3d 80 fd c1 bc
       -0.11060194 -0.12080644 0.041986194 -0.023680449
000200 bb 82 04 3e cc 35 86 bc ad 54 12 3e 16 95 2a 3d
       0.12940495 -0.016383074 0.14290114 0.041646086
000210 1a f8 17 be 12 34 0c be 03 a0 1c be fa 6f 9c 3c
       -0.14840737 -0.13691738 -0.15295415 0.019096363
000220 9f 5d 25 3e 70 fe 15 bd 29 02 d6 bd 0d cd 0a 3d
       0.16148995 -0.036619604 -0.10449631 0.033886958
000230 00 78 34 3e 08 92 bc bd 71 ff 10 be 23 bf 13 be
       0.17623901 -0.09207541 -0.14159943 -0.14428382
000240 93 7c 9d bd e0 2f 02 be 14 fe e5 bc be cc 27 3e
       -0.07689776 -0.12713575 -0.028075255 0.16386697
000250 b3 30 94 bd 2e 61 1e be 9a 51 c0 bd 2e 5f e3 3d
       -0.07235851 -0.15466759 -0.09390564 0.111021385
000260 f1 48 05 be 75 af 79 3d 5c ca 9e 3d c1 23 15 be
       -0.13016106 0.060958344 0.07753441 -0.1456442
000270 05 0e 20 3e ce d3 28 3d e4 44 09 3e 44 a4 49 bc
       0.15630348 0.041217618 0.13405186 -0.01230723
000280 76 90 02 be 94 a3 9d bd d6 16 2f be e6 f4 a6 3c
       -0.1275042 -0.07697216 -0.17098555 0.020380449
000290 5e a5 8d 3d a6 3f 2b 3d 97 58 44 bd 07 3a 13 be
       0.06916307 0.041808747 -0.04793605 -0.14377604
0002a0 c6 2f d8 bd 44 71 95 bd b4 5e 24 be da 19 e0 bd
       -0.10555987 -0.07296994 -0.16051751 -0.10942431
0002b0 af 10 e6 3c 07 a8 8b bd 91 f8 1a be 4b 7f d6 bd
       0.028084127 -0.06819158 -0.15133883 -0.10473498
0002c0 e3 eb f4 bd 30 0d b1 bd 72 f6 68 bd 25 54 31 be
       -0.11959054 -0.086450934 -0.056875654 -0.17317255
0002d0 4b f3 34 be 0e 4d 75 bd ee e8 19 3e 4f f6 b3 3d
       -0.17670934 -0.05988794 0.15030262 0.08787214
0002e0 f6 1f 37 bd 74 d4 c1 3d f1 00 ed 3c 45 49 32 3d
       -0.044708215 0.0946435 0.028931113 0.043526907
0002f0 e3 51 d7 3d 53 cb 20 be fc 08 14 be 04 3c ae bd
       0.105136655 -0.15702562 -0.14456552 -0.08507541
000300 28 69 bd bd cc 2d 18 bc 2d 4a e3 bd b6 b0 85 3d
       -0.092485726 -0.009288263 -0.11098132 0.065278456
000310 e3 05 2b be 79 cb 80 3d 32 fb 8c bd bb d1 3a 3d
       -0.16701464 0.06288809 -0.06883849 0.04561017
000320 73 71 a2 3d 8a 9f 4d 3c 81 2a 95 3d da 92 d0 3d
       0.07931795 0.012550244 0.072834976 0.1018426
000330 0f ea c4 3c f0 d3 6f 3d f1 40 0b be 1a b8 2a bd
       0.02403739 0.05855173 -0.13598992 -0.04167948
000340 74 c8 e2 3d 88 ef fd bd 7c 2e 09 be af ee d4 3d
       0.1107339 -0.123992026 -0.13396639 0.10397088
000350 8a f4 3e 3d 0a 34 be 3c 34 75 a9 bd 4b ad 87 3d
       0.04661993 0.023218174 -0.08274308 0.0662485
000360 47 65 1d be be 41 15 be bc 92 83 bd 76 09 74 bd
       -0.15370665 -0.1457586 -0.06424472 -0.059579335
000370 ae ed f8 3d a4 73 9a 3d 53 71 16 3d c9 ba 08 3e
       0.12154709 0.07541588 0.03672917 0.13352503
000380 3a 64 80 bc ca c0 2d 3e 9c e7 ed bb ed be 19 be
       -0.015672792 0.16968074 -0.007260276 -0.15014239
000390 bb 13 9d bd f9 ec 2c bc 2d fc 99 3c 11 26 86 bd
       -0.07669779 -0.010554546 0.018797005 -0.06550229
0003a0 70 27 e1 3d e0 cd 3c bd ff 33 b0 3d 10 c4 be 3d
       0.1099385 -0.046094775 0.086036675 0.0931474
0003b0 54 5f 61 bd a0 9a fc bd 44 5f a6 bd c7 3c c4 bd
       -0.055022553 -0.1233418 -0.08123639 -0.09581905
0003c0 da ee b7 3d 76 9c ec bd 5b 11 21 be 40 a5 94 3c
       0.08981104 -0.1155328 -0.15729277 0.018145204
0003d0 0a bd 6c 3c ba 50 c1 3d 74 2f 19 3e b9 dc 31 3e
       0.014449367 0.094392255 0.14959508 0.17369355
0003e0 6b 2e 86 3b 92 f7 10 3e 5f 5c 1e 3e 66 76 82 3c
       0.004094889 0.1415694 0.15464924 0.015925597
0003f0 ab a4 80 3d ca 54 e1 bd d8 af ee 3c b6 01 01 bd
       0.06281408 -0.110025 0.029136583 -0.031495772

attention_modules.5.weight f4 [32, 32, 1, 1]
000000 dd d0 a3 3d fd ca e5 3d 4c 41 16 be 5a 47 8d bd
       0.07998822 0.112203576 -0.14673346 -0.06898375
000010 8b a5 88 3d 87 1d 7f bc 10 28 9e bc 0e 7a 13 be
       0.066722 -0.015571005 -0.019306213 -0.14402029
000020 d9 f1 28 be f0 6c 2b 3e 37 0e 9b 3d 87 18 ff 3d
       -0.16498508 0.16740775 0.07571071 0.1245585
000030 82 bd 22 3e f3 09 b2 bd 86 bd bd 3d bb 2e 91 3c
       0.15892604 -0.08693304 0.09264664 0.017722478
000040 6a 07 e8 bd 4b ac 81 bd e1 8b 02 be c2 b8 27 3e
       -0.11329539 -0.063316904 -0.12748672 0.16379073
000050 61 2a ab bd cd 40 29 3e d7 83 50 3d 66 e7 2f 3e
       -0.083576925 0.16528626 0.050906982 0.17178115
000060 81 ec bd bd 8b 7d fb 3d 49 20 2f be 68 63 08 bc
       -0.09273625 0.12279805 -0.1710216 -0.008324482
000070 0a 6b 2d be 38 50 1e 3e 0f 64 d4 ba b6 6f d8 3d
       -0.16935363 0.15460289 -0.0016204136 0.10568182
000080 f4 34 1c 3e 3b fa 10 be 61 73 5b 3b 04 dd d9 bd
       0.15254575 -0.14157955 0.003348552 -0.106378585
000090 0d 74 c9 bd 23 62 3e 3d 46 a5 bc 3d 28 02 9a 3d
       -0.09836588 0.04648031 0.09211211 0.075199425
0000a0 f6 ad fc 3b d8 a4 ee bc 48 81 15 3d 9d a5 b1 bd
       0.0077111674 -0.029131338 0.036500245 -0.08674166
0000b0 21 a3 45 bd 48 22 33 3e 93 dd eb 3d ba 70 00 3d
       -0.048251275 0.17493546 0.11516871 0.031357504
0000c0 7c 2d 9e bc f7 65 07 bd ee 23 a6 3d 46 6c 05 3e
       -0.019308798 -0.033056226 0.08112322 0.13029584
0000d0 02 af 0e 3e cd 39 03 3d a5 6a b8 3d 90 46 b7 bd
       0.13933948 0.032037545 0.09004716 -0.089490056
0000e0 16 72 cf 3c 9e 9f ec bd 59 77 2b be 8f cc 76 bd
       0.025322955 -0.11553882 -0.16744746 -0.060253676
0000f0 73 7a 3d bd 74 f7 a9 3d 85 e8 eb 3d ea 0d 94 bd
       -0.046259355 0.08299151 0.11518959 -0.072292164
000100 b6 63 56 bd a1 97 25 be 9c 58 fc bd 2c 6e a4 3d
       -0.052341186 -0.16171123 -0.123215884 0.08028826
000110 5c fe 63 3d e9 4a 1f bd 11 fc 14 be b8 19 1f 3e
       0.055662498 -0.0388898 -0.1454928 0.15537155
000120 58 4f 34 3e 02 c0 1b bc 04 a8 21 be 25 ee 1b 3d
       0.17608392 -0.009506227 -0.15786749 0.03806891
000130 c5 b1 c8 bd 6b c0 19 3d ab 18 d5 3d d5 96 df 3d
       -0.09799532 0.03753702 0.10405096 0.10917441
000140 c4 6c 0f 3d c4 7f a1 bd 2a 43 6b 3c 0e ce 58 3d
       0.035015836 -0.078856975 0.014359275 0.052930884
000150 30 53 89 3d 00 d4 29 3b c2 38 26 bd 90 df 37 3d
       0.0670532 0.0025913715 -0.040581472 0.04489094
000160 de a6 d1 3d 04 3e 92 3d f8 0e ef bd 51 07 1b be
       0.102369055 0.07140735 -0.11672777 -0.1513951
000170 c3 4c 1c 3d 9f 82 29 be dc 68 72 bd f3 16 28 3d
       0.038159143 -0.16553734 -0.059182033 0.04103751
000180 9e f8 92 bb dd 61 2b be 68 7c f2 3d e4 fe 9b 3d
       -0.004485204 -0.1673655 0.11840135 0.07616976
000190 dc 91 22 3e 54 f5 91 3c b0 8e fe 3b 56 c7 25 bd
       0.15875953 0.017817177 0.0077684745 -0.040473305
0001a0 20 f8 1d bd ec 96 0f be b8 f3 21 bd 9c f0 33 be
       -0.03856671 -0.14022416 -0.03953907 -0.17572254
0001b0 bc fa 07 be 74 ff 85 bd 45 eb 1c be 49 4e d9 bd
       -0.13279241 -0.065428644 -0.15324123 -0.10610635
0001c0 9e 51 2d 3e 41 40 a8 bd b8 f0 1a 3e e2 45 87 3d
       0.16925666 -0.082153805 0.1513089 0.06605126
0001d0 35 2b 01 3e e9 19 a0 bd 78 f2 1a 3e 2f f2 b2 3d
       0.12614138 -0.07817442 0.15131557 0.08737599
0001e0 d5 c0 8c bd 93 25 16 3e 55 eb 93 3d e9 07 b1 bd
       -0.06872717 0.14662771 0.072226204 -0.08644087
0001f0 d0 40 20 be 50 3e ff 3d 93 29 e4 bd b6 1f 2f be
       -0.15649724 0.12463057 -0.11140742 -0.1710194
000200 e6 27 84 3d 1c 7f 71 bd 2f 37 29 3e 60 b9 15 3e
       0.064529225 -0.05895911 0.16524957 0.14621496
000210 a7 d1 c4 bc 8e 68 63 bd 69 2e 00 3e cf 45 6c bd
       -0.024025751 -0.055519633 0.12517704 -0.057683762
000220 43 50 31 be cc 3f 23 3e e0 f7 ee bd 5a cd 9d bb
       -0.17315774 0.15942305 -0.11668372 -0.0048157396
000230 ce 84 f9 3d 33 fa cb bd fb bd 04 3d ae d3 e8 bd
       0.121835336 -0.09959831 0.032407742 -0.113685
000240 75 a6 05 3e 05 90 d4 3d 8c a9 90 bd c3 08 12 3e
       0.1305178 0.10379032 -0.070635885 0.14261155
000250 30 46 34 be eb 82 3f bd 73 b4 20 bc 43 2d 0c bd
       -0.176049 -0.046755712 -0.009808647 -0.034222852
000260 82 f7 05 ba 7b 03 bc 3d 73 14 19 3d 7c 8f 18 be
       -0.0005110429 0.09180351 0.037373018 -0.14898485
000270 53 2e 74 bd 0c 0b 49 3c 17 f8 b1 bd b6 ca f7 3d
       -0.05961449 0.0122707 -0.086898975 0.12099211
000280 64 57 cc bd cd a3 ab 3d 94 b6 fe bd 3d c4 b2 3c
       -0.09977606 0.08380852 -0.12437168 0.02182209
000290 02 05 d3 39 07 16 ed 3d 7d d0 47 3c f9 73 32 be
       0.00040248787 0.11576467 0.012195704 -0.17427053
0002a0 54 1c 6e 3a 77 0c 79 bc 28 d4 c5 bd 52 76 1f bc
       0.0009083201 -0.015200726 -0.09659606 -0.0097328
0002b0 aa a7 c9 3c e0 85 08 be da 49 0a 3e 85 5e 1a be
       0.024616081 -0.1333232 0.13504735 -0.15075119
0002c0 86 2e ec bd 5c f1 ab bd 1e 3f c9 bd b1 9e f6 bd
       -0.11532311 -0.08395645 -0.09826492 -0.12041987
0002d0 17 e0 88 3d 35 95 cc 3d 31 3d 2e be cd 6e 8c 3d
       0.06683367 0.099893965 -0.1701553 0.06857071
0002e0 ee 0f 28 be a7 bd ed 3d 31 30 7e bd 3a 00 97 3d
       -0.16412327 0.11608439 -0.062057678 0.0737309
0002f0 17 a8 ce 3d 48 f8 22 be 49 c2 b6 3d 08 fc a0 bd
       0.10090654 -0.15915024 0.08923776 -0.07860571
000300 6c df e0 bd 60 38 b0 bd 23 91 0b be 84 52 9c 3c
       -0.10980114 -0.08604503 -0.13629584 0.019082315
000310 8f d6 19 be 10 8c b3 bd 8c e0 9c bd bb ae ad bd
       -0.15023254 -0.08766949 -0.076600164 -0.08480593
000320 f3 3a 62 bd 24 45 0e 3e d3 19 33 be b5 b7 00 3e
       -0.055232 0.13893563 -0.1749032 0.12570079
000330 29 bd 2b bd b4 c0 1b 3e fe d7 9d 3d b3 6f cc bd
       -0.041928444 0.15210229 0.07707213 -0.099822424
000340 55 ac d7 3c d8 70 10 3d 2c 8a 03 be 04 0b d7 bc
       0.026327292 0.035263866 -0.12845677 -0.02625037
000350 7a a0 a3 3c 3f e8 1c be 2c 98 ec bd aa 71 83 3a
       0.019973982 -0.1532297 -0.11552462 0.0010028381
000360 21 ce dc 3d b6 8f c5 3d c5 5b f7 bd ea da 1c 3e
       0.107815035 0.09646551 -0.120780505 0.15317884
000370 c7 59 0f 3e 19 62 91 3d 3d 79 99 bb 80 8b 03 3e
       0.13999091 0.07098789 -0.004683642 0.12846184
000380 ec 66 fc 3d a1 35 56 3d 71 bb cf 3d 9e 0f bf bd
       0.12324318 0.05229724 0.101431735 -0.093291506
000390 1d 50 37 3d 73 84 ea bd 92 ba de bd 91 f1 b1 bd
       0.044754136 -0.11451044 -0.10875429 -0.08688653
0003a0 9c 56 1c 3e 43 24 14 3d f7 74 07 be a3 cd 1c 3e
       0.15267414 0.036167394 -0.13228212 0.15312819
0003b0 2a f3 03 be e5 e3 f5 3d 93 2e 4d bd 37 ec 81 bd
       -0.12885728 0.12006358 -0.050093245 -0.063438825
0003c0 51 d9 97 3d d1 a5 02 3e 55 f7 06 be ce 96 f3 3d
       0.07414497 0.12758566 -0.13180287 0.11893998
0003d0 52 50 06 be 24 07 86 bd ab 39 92 3b dd 73 1d 3d
       -0.13116577 -0.06544331 0.004462441 0.038440574
0003e0 b5 f3 31 3e 92 81 11 3e 79 d4 24 3e 23 38 27 3e
       0.17378123 0.14209583 0.16096677 0.16330008
0003f0 50 3d 19 be 90 3b 02 3e 7e a0 26 be ec 5e dd 3d
       -0.14964795 0.12718034 -0.1627216 0.108091205
